best_model_AECNN3_50.pth (torch, 551809 bytes, 48 tensors)

encoder.encoder.cnnblock1.cnnlayer1.cnn_layer.0.weight f4 [32, 3, 3, 3]
0.05010192 0.086044855 0.090425424 0.1077431 0.036183104 0.054450262 0.0059686396 0.06620652
0.05037713 0.0781868 0.053501897 -0.018656418 0.08073407 0.022182435 0.07579407 0.07787394
0.024856267 0.015376183 0.09882203 0.02123882 0.08430991 0.012112559 -0.008062842 -0.004760266
0.07636082 0.09542659 -0.03861097 -0.00389728 0.026521252 -0.015947234 0.019322576 0.04967677
0.0016232172 -0.021381106 0.0018001711 -0.03585113 0.007038308 0.03235353 -0.0017933622 0.02885039
0.054530747 0.014343167 -0.007913946 0.013893177 -0.019418597 -0.012706407 0.014777983 -0.019991161
0.011130604 0.042300224 0.010510316 -0.0028439767 0.011914801 -0.011470423 0.059475336 0.03912358
0.06966097 0.00036706525 0.012092188 0.002428831 -0.017183794 -0.004946429 -0.009864761 0.033451773
-0.09530482 0.006559159 -0.0017142475 0.012260312 0.0053975275 -0.013054743 -0.001185333 -0.004787789
0.09320033 0.09649956 0.02905908 0.01454167 0.016304074 0.009578126 -0.0038515688 0.00999732
0.0026968287 0.05621278 -0.04370538 0.056047622 -0.05231548 -0.092740186 -0.02866713 0.086015835
0.043648195 0.093832135 -0.0155735575 -0.027887955 0.0012737833 -0.07903797 -0.107557565 -0.066978805
0.06117427 0.0178575 0.053670414 -0.017472407 -0.02338783 0.004216757 -0.05454186 -0.07131287
-0.063174285 0.016552381 -0.010678935 -0.0010554324 0.10350148 0.0518245 -0.00933135 0.08351028
0.026647655 0.11315301 0.057703003 0.07453767 0.01369507 -0.05943425 0.084789194 0.02886588
-0.020209353 -0.007541483 0.25147262 0.041143015 0.02407138 -0.03335456 0.14342321 -0.08978346
0.10721255 0.12327493 0.05376645 0.04458547 0.008790555 -0.021004772 -0.07513501 0.03564881
-0.027073024 0.004081035 0.0009994819 0.058031064 0.020040337 -0.04189105 0.00095928373 -0.03509665
-0.02547842 -0.008427368 0.002304793 0.012184671 0.0647828 0.03152429 -0.026295973 0.018269457
-0.015625088 -0.047102615 0.026752433 0.030771269 0.017487852 0.06487654 0.032251585 -0.009460766
0.019343052 -0.005369206 0.07465521 0.027646203 -0.022894638 0.0978411 -0.0006299356 -0.042501602
-0.053925406 0.10780787 0.08828337 0.0037485382 0.035860047 -0.11009081 -0.06784284 -0.13156909
-0.106627464 0.025964892 -0.04049371 -0.026257845 0.023738606 0.014657597 -0.036551878 0.015978072
-0.026294792 -0.04470595 0.00086984894 -0.010117575 -0.04945323 -0.039750002 -0.046886485 0.00891297
0.014611566 -0.12794608 -0.14748432 -0.01892858 -0.15578808 0.06759222 0.023192309 -0.00058624527
0.06954662 0.024427427 -0.12743013 -0.1087259 -0.0031366532 0.015184116 0.014885182 -0.0836168
-0.026709544 0.07030323 0.110640645 -0.018814372 -0.010077072 -0.03670641 -0.020218331 -0.006465756
-0.002323041 0.06976999 0.0042971973 0.0371697 0.05482792 0.015641734 0.11934926 0.0418757
0.08058732 0.02560634 0.09063901 -0.027217638 0.13740936 0.10768925 0.011237625 0.029526072
0.03784122 -0.03590826 -0.006190566 0.04875464 0.050908424 0.037424203 -0.03822376 0.0053508873
-0.07163508 -0.09581115 0.030360354 -0.050900213 -0.031235619 -0.10934069 0.04251352 -0.025980666
-0.051968552 -0.07419841 -0.117524706 -0.025423778 0.085125186 -0.068553545 -0.066001594 -0.047427982
00000000: ac37 4d3d 4938 b03d f730 b93d 6aa8 dc3d
00000010: bc34 143d 3d07 5f3d 9494 c33b 4997 873d
00000020: 4058 4e3d 6720 a03d ce24 5b3d 58d5 98bc
00000030: e757 a53d f0b7 b53c ec39 9b3d 5f7c 9f3d
00000040: 5f9f cb3c 63ec 7b3c 3463 ca3d 09fd ad3c
00000050: adaa ac3d c173 463c 031a 04bc 01fc 9bbb
00000060: 1063 9c3d 046f c33d 8926 1ebd 8269 7fbb
00000070: 1943 d93c c6a3 82bc 614a 9e3c de79 4b3d
00000080: 22c2 d43a 6e27 afbc b8f3 eb3a a2d8 12bd
00000090: 9ba1 e63b 2385 043d 400f ebba a757 ec3c
000000a0: a25b 5f3d 9aff 6a3c 7fa9 01bc 35a0 633c
000000b0: c013 9fbc 892e 50bc 5a1f 723c 81c4 a3bc
000000c0: 235d 363c 0043 2d3d 7633 2c3c 0362 3abb
000000d0: 4c36 433c 71ee 3bbc 699c 733d 0c40 203d
000000e0: 69aa 8e3d aa72 c039 501e 463c 062d 1f3b
000000f0: 07c5 8cbc a715 a2bb ce9f 21bc ba04 093d
00000100: 2c2f c3bd 37ee d63b 9ab0 e0ba 7adf 483c
00000110: bedd b03b 90e3 55bc 2d5d 9bba e3e2 9cbb
00000120: d1df be3d 90a1 c53d 4f0d ee3c 2f40 6e3c
00000130: 1f90 853c 92ed 1c3c 9a6a 7cbb cdcb 233c
00000140: 47bd 303b 5f3f 663d 6a04 33bd 3192 653d
00000150: c248 56bd 91ee bdbd 54d7 eabc 1229 b03d
00000160: 73c8 323d 102b c03d 3c28 7fbc 4875 e4bc
00000170: 13f5 a63a a9de a1bd 2447 dcbd 2f2c 89bd
00000180: df91 7a3d e449 923c 82d5 5b3d 4b22 8fbc
00000190: d697 bfbc b92c 8a3b 4967 5fbd 7b0c 92bd
000001a0: 8561 81bd dc98 873c b3f6 2ebc 6f56 8aba
000001b0: 95f8 d33d ed45 543d 85e2 18bc 7007 ab3d
000001c0: 2f4c da3c c4bc e73d fc59 6c3d 35a7 983d
000001d0: 4961 603c 5471 73bd f5a5 ad3d 2378 ec3c
000001e0: 168e a5bc 8b1e f7bb 05c1 803e 9485 283d
000001f0: 5831 c53c cb9e 08bd 89dd 123e 64e0 b7bd
00000200: 4192 db3d 9177 fc3d 363a 5c3d 419f 363d
00000210: 4306 103c 3312 acbc 62e0 99bd 7d04 123d
00000220: 3fc8 ddbc 34ba 853b 0c01 833a fbb1 6d3d
00000230: a22b a43c f395 2bbd 7178 7b3a 81c1 0fbd
00000240: 1fb8 d0bc f112 0abc 030c 173b 37a2 473c
00000250: d8ac 843d 9d1f 013d a76a d7bc d4a9 953c
00000260: 2f00 80bc acee 40bd eb27 db3c 0714 fc3c
00000270: af42 8f3c fedd 843d 3d1a 043d 5401 1bbc
00000280: 5275 9e3c 2af0 afbb d5e4 983d 4a7a e23c
00000290: 898d bbbc ea60 c83d 4322 25ba 2916 2ebd
000002a0: e3e0 5cbd 5fca dc3d e9cd b43d 09aa 753b
000002b0: fce1 123d 4a77 e1bd 30f1 8abd 0cba 06be
000002c0: 805f dabd 53b4 d43c bcdc 25bd b11a d7bc
000002d0: 7777 c23c 6b26 703c 6cb7 15bd 72e4 823c
000002e0: 2d68 d7bc 961d 37bd 9306 643a 2fc4 25bc
000002f0: 788f 4abd e6d0 22bd 0b0c 40bd b507 123c
00000300: 5a65 6f3c 4c04 03be 2106 17be 1c10 9bbc
00000310: e986 1fbe ca6d 8a3d ccfd bd3c 41ae 19ba
00000320: 756e 8e3d 071c c83c 0b7d 02be afab debd
00000330: 4f90 4dbb ccc6 783c fae0 733c 493f abbd
00000340: f9cd dabc 24fb 8f3d 9097 e23d 9920 9abc
00000350: 4e1a 25bc 7659 16bd eaa0 a5bc b1de d3bb
00000360: 293e 18bb 92e3 8e3d 81cf 8c3b 413f 183d
00000370: 3e93 603d 1823 803c 636d f43d db85 2b3d
00000380: f70a a53d 63c4 d13c f2a0 b93d 86f7 debc
00000390: 0ab5 0c3e 2e8c dc3d 041e 383c a9e0 f13c
000003a0: 65ff 1a3d 8a14 13bd 3bda cabb f2b2 473d
000003b0: 5a85 503d 1f4a 193d 8490 1cbd 7f56 af3b
000003c0: 6ab5 92bd a338 c4bd 47b6 f83c be7c 50bd
000003d0: d7e1 ffbc 03ee dfbd a822 2e3d 68d5 d4bc
000003e0: fadc 54bd 56f5 97bd cbb0 f0bd 8745 d0bc
000003f0: 1d56 ae3d cd65 8cbd d82b 87bd d843 42bd

encoder.encoder.cnnblock1.cnnlayer1.cnn_layer.0.bias f4 [32]
1.8539653e-06 1.9929588e-05 -2.7264457e-07 -2.1512633e-05 1.1070092e-06 1.7152155e-05 -5.0143507e-07 1.8708284e-06
2.0838943e-06 3.58576e-06 2.5552563e-07 -4.977384e-06 -6.980409e-07 -1.1477551e-07 1.7947036e-06 -5.0284416e-06
2.982548e-06 -4.825228e-07 -2.8562624e-06 2.6727193e-06 -3.819828e-06 -8.8803813e-07 1.129475e-05 -2.5157733e-06
-1.2356857e-06 4.8417733e-06 6.0606276e-08 1.1176199e-05 -4.0244877e-06 1.4913232e-06 8.069749e-07 1.5359661e-06
00000000: c3d5 f835 772e a737 fc5f 92b4 0776 b4b7
00000010: 8c94 9435 f9e1 8f37 5b9a 06b5 2d19 fb35
00000020: 08d9 0b36 e3a2 7036 2d2f 8934 6703 a7b6
00000030: 0161 3bb5 817a f6b3 8ce1 f035 fcb9 a8b6
00000040: c927 4836 b786 01b5 37ae 3fb6 f85c 3336
00000050: 132c 80b6 8461 6eb5 957e 3d37 a8d4 28b6
00000060: d6d9 a5b5 8476 a236 a726 8233 6981 3b37
00000070: 160a 87b6 7a29 c835 e59e 5835 6527 ce35

encoder.encoder.cnnblock1.cnnlayer1.cnn_layer.1.weight f4 [32]
0.2627191 0.31506556 0.20047979 0.7395432 0.24853747 0.27887276 0.15426387 0.8589813
0.23188034 0.50246304 0.10354106 0.6113066 0.17001814 0.24989305 0.5909317 0.5125049
0.17190427 0.48646665 0.7557376 0.5021245 0.86019427 0.1899584 0.6983992 0.27567485
0.35441646 0.7245799 0.3499045 0.5932122 0.25551057 0.55603456 0.17235115 0.28341126
00000000: 1e83 863e 4650 a13e 934a 4d3e b452 3d3f
00000010: 9b80 7e3e 69c8 8e3e 59f7 1d3e 33e6 5b3f
00000020: 0a72 6d3e 6ba1 003f 560d d43d 977e 1c3f
00000030: 3c19 2e3e f7e3 7f3e 4d47 173f 8533 033f
00000040: ac07 303e 2812 f93e 0578 413f 3b8b 003f
00000050: b135 5c3f 7484 423e 4aca 323f 4125 8d3e
00000060: 1376 b53e 117e 393f af26 b33e c1dc 173f
00000070: 48d2 823e 4858 0e3f d27c 303e 481b 913e

encoder.encoder.cnnblock1.cnnlayer1.cnn_layer.1.bias f4 [32]
-0.02128064 -0.008574048 0.0033704604 0.03424225 0.007233443 0.0039872904 0.085700884 -0.004807319
0.0071253204 -0.0063101333 -0.0064136637 0.03612906 0.07942874 0.090747245 -0.021406284 -0.038813807
0.022268843 0.01344821 -0.016605118 0.03825093 0.04512377 -0.00037592032 0.0022578093 0.14169493
0.0075153424 0.019220157 0.011854846 -0.03607197 -3.865566e-06 0.010513664 -0.0024236038 0.06143965
00000000: bd54 aebc 2a7a 0cbc f1e2 5c3b 9a41 0c3d
00000010: 8506 ed3b d1a7 823b f283 af3d b786 9dbb
00000020: 857b e93b 3cc5 cebb b629 d2bb 11fc 133d
00000030: 89ab a23d b1d9 b93d 3b5c afbc 3afb 1ebd
00000040: 266d b63c e255 5c3c 7507 88bc 02ad 1c3d
00000050: b4d3 383d 2c17 c5b9 c1f7 133b 7a18 113e
00000060: 4343 f63b 9773 9d3c d43a 423c 34c0 13bd
00000070: f6b4 81b6 8141 2c3c 53d5 1ebb 24a8 7b3d

encoder.encoder.cnnblock1.cnnlayer1.cnn_layer.1.running_mean f4 [32]
1.122547 0.22848943 0.3266467 -0.22808698 0.967829 0.19686216 -0.23363574 -0.48345143
0.6457002 -0.9992417 -0.93018377 -1.0666251 0.007920792 -0.13243747 -0.88851655 0.897621
0.26771978 -0.7195922 1.0294677 -1.1613158 -0.47409233 0.3330246 -0.5391694 -0.16652358
-0.9910004 -0.8367952 -0.0864095 0.808914 0.3126869 -1.113812 0.79108936 0.04286824
00000000: 9faf 8f3f 22f9 693e 3c3e a73e a28f 69be
00000010: a4c3 773f 3c96 493e 353e 6fbe f286 f7be
00000020: 9c4c 253f 4ece 7fbf 8620 6ebf 2c87 88bf
00000030: 36c6 013c b09d 07be d275 63bf 7dca 653f
00000040: 9112 893e 3237 38bf 99c5 833f ffa5 94bf
00000050: 3bbc f2be 3382 aa3e 0107 0abf 2885 2abe
00000060: 34b2 7dbf 3638 56bf 77f7 b0bd fd14 4f3f
00000070: 7f18 a03e 6491 8ebf d584 4a3f 9c96 2f3d

encoder.encoder.cnnblock1.cnnlayer1.cnn_layer.1.running_var f4 [32]
0.010591584 0.00036239778 0.001017448 0.00064745377 0.007747476 0.00024736338 0.00060165644 0.0022413812
0.004054572 0.0073978016 0.006398117 0.008085907 0.00028723193 0.0011668983 0.0064850566 0.006845229
0.00036201815 0.003965072 0.009803056 0.010536065 0.0018686209 0.0012289883 0.0018355295 0.00093949947
0.008725529 0.0059452704 0.00097436697 0.0073847426 0.00054987555 0.012797548 0.004955199 0.00037999003
00000000: 5388 2d3c 3500 be39 e45b 853a e3b9 293a
00000010: 8ade fd3b 8db0 8139 7bb8 1d3a 23e4 123b
00000020: 37dc 843b 4269 f23b 4ca7 d13b c17a 043c
00000030: 9e97 9639 9cf2 983a 9980 d43b f14d e03b
00000040: 41cd bd39 6fed 813b ff9c 203c 769f 2c3c
00000050: 83ec f43a 0116 a13a 2696 f03a be48 763a
00000060: 85f5 0e3c 8bd0 c23b a96c 7f3a b6fb f13b
00000070: 8625 103a cfac 513c 395f a23b 6639 c739

encoder.encoder.cnnblock1.cnnlayer2.cnn_layer.0.weight f4 [32, 32, 3, 3]
-0.0018801871 -0.002416598 -0.0006981574 -0.0102760885 -0.0033703868 -0.0022499776 -0.002518288 -0.0042968127
-0.0036945904 8.1993334e-05 -0.001001059 -0.003832283 -0.0007234857 0.0014173669 -0.004077056 -0.0020911547
-0.0018961107 -0.005409469 0.0013620148 0.0002519511 -0.0012694105 0.00041483282 -0.0007798626 -0.0021966815
-0.0021339492 -0.003042261 -0.0033199068 -0.027020391 0.021989606 0.011062053 0.039065655 0.07698541
0.010072223 0.008093529 0.03245057 0.08062912 -0.0013431603 -0.0020100223 -0.0016483426 -0.0011840087
-0.0037162853 -0.0018262075 -0.0081378445 0.0020231225 -0.002845705 0.00018010302 -0.0017621138 -0.0004118895
-0.001987021 -0.0068205344 -0.0023205415 -0.002788772 -0.004440259 -0.0011482666 0.014381907 0.017186709
-0.019296976 0.028983647 0.024103342 0.016423013 0.021243291 0.014600442 0.026910216 -0.012419247
0.019444978 0.04358634 0.06311771 0.038690377 0.016546711 -0.051276892 0.033746492 -0.016056644
-0.00019078761 -0.0011843167 -0.0012676227 -0.0008296142 -0.0009126528 -0.001324114 -0.0001277212 -0.0024381094
-0.0067514903 -0.014805034 0.012498028 -0.0023899036 0.0034460626 0.02674177 0.018288808 0.008169414
0.03094649 0.009923293 0.0016423186 0.007832791 0.004892522 0.0050414694 0.013299245 0.014559401
0.005556691 0.012701043 0.013016118 -0.03624901 -0.025609 -0.020349886 -0.0050786315 0.03699518
0.01151921 -0.018585935 -0.021843772 0.0073476695 0.010591594 0.0043798424 -0.0014089897 0.0029447374
-0.0030918731 -0.010740594 0.0015844263 -0.0029167498 -0.010309687 0.018173145 0.022853417 -0.011688659
0.014071304 0.012022177 -0.0031633289 0.034751806 0.019748215 0.013013196 -0.015653199 0.06941624
-0.003967129 -0.0056063626 -0.016235895 0.014914501 -0.017885344 0.011589806 0.012090395 -0.0020005903
-0.0033386406 -0.0035548874 0.001550778 -0.00064630416 -0.001174189 -0.0032312018 -0.006115406 0.0032129497
0.002324453 -0.00089742726 -0.0020302022 -0.0031050793 -0.002853663 -0.0040461305 -0.00026788694 -0.0020890133
-0.003870109 -0.003441787 0.019528039 0.008001082 0.020128913 0.054574423 0.027969921 0.003366438
0.029824914 0.013245868 -0.01867959 -0.003727582 -0.0021840758 -0.0049445527 -0.003353379 -0.004481392
-0.009079672 -0.00932761 0.0018036173 -0.02192422 0.014368938 -0.0031750167 -0.008224862 0.01724309
0.020224184 -0.014189971 -0.009222681 0.018634716 -0.049634825 0.0031270594 -0.028287685 -0.006501363
0.046071388 0.0028312174 -0.03559274 0.012341973 0.0018727124 -0.000106383195 -0.00028792163 0.004731479
-0.01919687 0.0036129171 0.0033952934 -0.00048271482 0.006542684 -0.0020210776 0.010060535 0.022072392
0.017995505 -0.0017409683 0.08767091 0.046166006 0.026244342 0.03874318 0.053373743 0.037234824
0.018441226 0.010476317 0.044939708 0.019710394 0.00028327125 0.030162256 0.015456327 0.019159812
-0.013088418 0.008714858 0.0047634924 -0.00590745 0.015887124 0.015216205 -0.0050992025 0.021608261
0.0200268 -0.040530205 -0.018367598 -0.014058367 0.0068991557 0.009677054 0.0388979 -0.009700321
0.019606315 0.041007914 -0.010858069 -0.0024620292 -0.0078359 -0.009601085 0.00016414518 -0.003797411
-0.015735194 -0.0008738363 -0.0030364383 0.008521803 -0.043239195 -0.009127529 -0.011833308 -0.08309834
0.011165563 -0.033766527 -0.08902117 0.0030065363 -0.00212779 -0.0062265443 -0.0032088263 -0.006038375
00000000: 9c70 f6ba c95f 1ebb 8d04 37ba 0a5d 28bc
00000010: b5e1 5cbb 5c74 13bb dd09 25bb 47cc 8cbb
00000020: f120 72bb d6f3 ab38 f735 83ba 0a27 7bbb
00000030: 4ea8 3dba f1c6 b93a d398 85bb c10b 09bb
00000040: eb86 f8ba ea41 b1bb a285 b23a 4e18 8439
00000050: 5962 a6ba eb7d d939 b16f 4cba 33f6 0fbb
00000060: bad9 0bbb ac60 47bb cb92 59bb de59 ddbc
00000070: 8c23 b43c 9d3d 353c 4f03 203d 87aa 9d3d
00000080: f705 253c b99a 043c e4ea 043d e120 a53d
00000090: fb0c b0ba 94ba 03bb 330d d8ba bd30 9bba
000000a0: ec8c 73bb 5b5d efba 9854 05bc 5d96 043b
000000b0: 027f 3abb 09da 3c39 baf6 e6ba dff2 d7b9
000000c0: ae38 02bb ca7e dfbb 3a14 18bb d5c3 36bb
000000d0: 987f 91bb 6f81 96ba 17a2 6b3c 24cb 8c3c
000000e0: b114 9ebc 1d6f ed3c 5f74 c53c 8e89 863c
000000f0: 6906 ae3c b136 6f3c d072 dc3c 197a 4bbc
00000100: 134b 9f3c 9787 323d dc43 813d cd79 1e3d
00000110: f88c 873c b807 52bd c339 0a3d 3989 83bc
00000120: 290e 48b9 133b 9bba 5c26 a6ba 777a 59ba
00000130: 183f 6fba e58d adba e6ec 05b9 b0c8 1fbb
00000140: 9b3b ddbb d090 72bc 87c4 4c3c ee9f 1cbb
00000150: 56d7 613b 8e11 db3c 69d2 953c 01d9 053c
00000160: 7e83 fd3c 4f95 223c 1143 d73a 1b55 003c
00000170: 7351 a03b e932 a53b 14e5 593c 8e8a 6e3c
00000180: e714 b63b 0918 503c 8e41 553c d879 14bd
00000190: f7c9 d1bc ceb4 a6bc a66a a6bb 4288 173d
000001a0: 12bb 3c3c 8841 98bc b6f1 b2bc b8c4 f03b
000001b0: 5d88 2d3c c884 8f3b d9ad b8ba 7ffc 403b
000001c0: 06a1 4abb 51f9 2fbc 86ac cf3a f126 3fbb
000001d0: f6e9 28bc d9df 943c 1737 bb3c ca81 3fbc
000001e0: 548b 663c aaf8 443c da4f 4fbb e957 0e3d
000001f0: 02c7 a13c 4d35 553c 233b 80bc 1a2a 8e3d
00000200: b1fe 81bb 94b5 b7bb 2401 85bc f45b 743c
00000210: 4984 92bc 2be3 3d3c cb16 463c 561c 03bb
00000220: 18cd 5abb 1df9 68bb 7a43 cb3a bd6c 29ba
00000230: 3fe7 99ba 92c2 53bb be63 c8bb 5a90 523b
00000240: da55 183b 5341 6bba 240d 05bb 967e 4bbb
00000250: 8504 3bbb 6795 84bb 2d73 8cb9 d4e7 08bb
00000260: a8a1 7dbb 9b8f 61bb 44f9 9f3c f816 033c
00000270: 64e5 a43c 6e89 5f3d 2d21 e53c 759f 5c3b
00000280: 6153 f43c 3205 593c f105 99bc 734a 74bb
00000290: b622 0fbb ea05 a2bb 5dc4 5bbb a4d8 92bb
000002a0: e8c2 14bc d5d2 18bc 5b67 ec3a 6c9a b3bc
000002b0: b26b 6b3c f113 50bb 92c1 06bc 6141 8d3c
000002c0: 30ad a53c 0d7d 68bc ba1a 17bc d5a7 983c
000002d0: e34d 4bbd 5aef 4c3b 93bb e7bc 6309 d5bb
000002e0: 5ab5 3c3d f28b 393b b1c9 11bd fd35 4a3c
000002f0: cd75 f53a 0b1a dfb8 30f4 96b9 860a 9b3b
00000300: c142 9dbc b1c6 6c3b 9283 5e3b e314 fdb9
00000310: 0364 d63b 0e74 04bb f1d4 243c 29d1 b43c
00000320: 4f6b 933c 3431 e4ba ce8c b33d 9118 3d3d
00000330: 60fe d63c 2bb1 1e3d 6d9e 5a3d 8b83 183d
00000340: 0e12 973c dca4 2b3c b312 383d b177 a13c
00000350: 0684 9439 d616 f73c 893c 7d3c 0af5 9c3c
00000360: ce70 56bc c4c8 0e3c 1217 9c3b 4893 c1bb
00000370: b725 823c 644d 793c 3617 a7bb cf03 b13c
00000380: 3e0f a43c 0003 26bd a577 96bc 1155 66bc
00000390: 5012 e23b 828c 1e3c 6853 1f3d 18ee 1ebc
000003a0: 6c9d a03c eaf7 273d 0be6 31bc ff59 21bb
000003b0: 2662 00bc df4d 1dbc 631e 2c39 fcdd 78bb
000003c0: 18e7 80bc 2912 65ba fbfe 46bb 089f 0b3c
000003d0: 951b 31bd a28b 15bc 7ee0 41bc 762f aabd
000003e0: c4ef 363c c54e 0abd bb50 b6bd 4f09 453b
000003f0: 6472 0bbb 0a08 ccbb 2c4b 52bb 90dd c5bb

encoder.encoder.cnnblock1.cnnlayer2.cnn_layer.0.bias f4 [32]
1.15563004e-07 -3.235858e-08 5.90898e-08 7.0909416e-09 -2.1641256e-07 -2.3923606e-08 -3.7658123e-07 -9.514399e-08
1.0740087e-08 4.9566978e-08 4.9885806e-08 4.736419e-08 5.9393175e-09 1.9564433e-07 -3.4051293e-08 -8.737892e-08
2.3053591e-08 -9.03432e-08 -1.301227e-07 1.0664432e-08 2.7132407e-07 2.6842285e-08 -4.2692523e-07 4.3720725e-08
-2.3615941e-08 1.2847913e-07 5.711469e-09 -5.0478e-09 4.3327262e-08 6.999622e-08 3.556746e-08 1.1270298e-07
00000000: 6f2b f833 a3fa 0ab3 ecc9 7d33 95a4 f331
00000010: 085f 68b4 9180 cdb2 ee2c cab4 f651 ccb3
00000020: 6783 3832 78e3 5433 0642 5633 7a6d 4b33
00000030: ca12 cc31 4e12 5234 cb3f 12b3 12a5 bbb3
00000040: 6207 c632 b302 c2b3 dbb7 0bb4 ab36 3732
00000050: 7faa 9134 cf92 e632 2834 e5b4 72c7 3b33
00000060: 01dc cab2 13f4 0934 9d3e c431 eb70 adb1
00000070: d416 3a33 d450 9633 d6c2 1833 1e07 f233

encoder.encoder.cnnblock1.cnnlayer2.cnn_layer.1.weight f4 [32]
0.7399888 0.15664434 0.18643902 0.57381886 0.5439999 0.3006297 0.51348317 0.69553155
0.67231786 0.17587881 0.14225322 0.14632846 0.23114428 0.42396548 0.2436875 0.4377808
0.28075555 0.33705208 0.45454288 0.25390917 0.30308473 0.15624739 0.48571643 0.45314804
0.8348677 0.4559939 0.3279932 0.42916843 0.12810658 0.289837 0.38689536 0.20029128
00000000: e86f 3d3f 6067 203e dfe9 3e3e cbe5 123f
00000010: 9443 0b3f 23ec 993e a273 033f 5b0e 323f
00000020: 061d 2c3f 9319 343e d4aa 113e 21d7 153e
00000030: 16b1 6c3e 0112 d93e 3789 793e ce24 e03e
00000040: 31bf 8f3e 1792 ac3e d8b9 e83e 6200 823e
00000050: ec2d 9b3e 51ff 1f3e d3af f83e 0503 e83e
00000060: e4b9 553f 0878 e93e baee a73e f7bb db3e
00000070: 5f2e 033e 8465 943e 2617 c63e 2819 4d3e

encoder.encoder.cnnblock1.cnnlayer2.cnn_layer.1.bias f4 [32]
-0.08652047 0.055337917 0.056808516 0.019621795 -0.0003091672 0.02846733 0.038181905 -0.028937194
0.024996864 0.06259975 0.041433822 0.011266832 0.057441793 -0.013440628 0.039171025 -0.14422022
0.06360141 0.11293973 0.013124224 0.023341319 0.038451824 0.05664548 0.065355495 -0.09652112
0.023736225 0.026879894 0.02751836 0.030213874 -0.05373397 0.0052368776 -0.024024168 -0.010702366
00000000: a531 b1bd 03aa 623d 0cb0 683d e3bd a03c
00000010: b817 a2b9 5134 e93c a164 1c3d b20d edbc
00000020: 39c6 cc3c 4c34 803d 83b6 293d 8598 383c
00000030: 1648 6b3d 1436 5cbc cc71 203d 77ae 13be
00000040: 7541 823d f24c e73d fc06 573c 4b36 bf3c
00000050: a97f 1d3d 1705 683d 1ad9 853d ddac c5bd
00000060: 7972 c23c 3933 dc3c 2f6e e13c 1683 f73c
00000070: 2718 5cbd 1d9a ab3b 55ce c4bc fa58 2fbc

encoder.encoder.cnnblock1.cnnlayer2.cnn_layer.1.running_mean f4 [32]
0.20989779 0.30364046 0.049206074 0.53853756 -0.11220483 0.54767126 -0.032276616 -0.17280231
0.62329644 -0.5036226 -0.28451398 -0.005161398 -0.1471331 0.073332414 0.055218183 0.41994715
-0.058646925 0.051567283 -0.058937687 -0.0068338797 0.030706896 0.056406748 -0.13801955 0.75839674
0.41232088 0.5391311 0.16878217 0.5462094 0.5195591 -0.026065726 0.4689169 0.19432811
00000000: 72ef 563e c376 9b3e 4f8c 493d 99dd 093f
00000010: a5cb e5bd 2f34 0c3f 7c34 04bd 17f3 30be
00000020: 5b90 1f3f 69ed 00bf d1ab 91be f220 a9bb
00000030: 0faa 16be 4e2f 963d 762c 623d 5003 d73e
00000040: c237 70bd 3738 533d a568 71bd bdee dfbb
00000050: 078d fb3c c30a 673d ff54 0dbe 4a26 423f
00000060: b91b d33e 7f04 0a3f 3cd5 2c3e 61d4 0b3f
00000070: d301 053f ca87 d5bc e015 f03e f3fd 463e

encoder.encoder.cnnblock1.cnnlayer2.cnn_layer.1.running_var f4 [32]
0.3108541 0.59176993 0.061977334 2.643714 0.03541775 1.5891808 0.15379217 0.43370897
3.3218887 0.48257896 0.0978559 0.019946203 0.4393552 0.046594772 0.05238746 0.28305942
0.056494094 0.102985345 0.11852108 0.048539083 0.104485914 0.061906125 0.036366258 1.9544175
2.1745594 1.8100115 0.06391466 1.7620782 0.99660814 0.060110696 0.9916201 0.04952855
00000000: 4528 9f3e 3c7e 173f f2db 7d3d 9c32 2940
00000010: 3412 113d 476a cb3f b27b 1d3e 1a0f de3e
00000020: d399 5440 9714 f73e ad68 c83d 3866 a33c
00000030: 2af3 e03e 29da 3e3d 3c94 563d 2aed 903e
00000040: 5a66 673d fbe9 d23d 2ebb f23d ebd0 463d
00000050: b6fc d53d 4791 7d3d c9f4 143d 5a2a fa3f
00000060: fb2b 0b40 75ae e73f b0e5 823d c78b e13f
00000070: b621 7f3f a236 763d d1da 7d3f 73de 4a3d

encoder.encoder.cnnblock2.cnnlayer1.cnn_layer.0.weight f4 [64, 32, 3, 3]
0.0047127684 -0.0027642178 0.012091189 -0.0016403464 -0.009506167 -0.002894786 -0.009097629 0.005253351
0.017646784 -0.005226104 -4.3304608e-05 -0.012258312 -0.0012616785 -0.00732939 0.001685742 0.0019307809
-0.0016529303 0.001432715 0.0016077617 0.0075027486 -0.00086211966 0.010065377 0.021843221 0.012244805
0.005671609 0.01123576 0.00476478 -0.0038555157 0.013548825 0.0067018876 -0.0003286264 -0.009611305
-0.005089679 -0.0030544295 -0.0026220535 0.010260239 0.01151708 -0.013109563 -0.025952036 0.013860062
-0.0070556263 -0.022499904 0.03859055 0.01698623 0.0015189414 0.007937575 -0.0036747933 0.0050930204
-0.004045914 -0.011055849 -0.0021310905 -0.013226904 -0.0040003103 0.006186784 0.01009169 0.0018596677
-0.0017580987 0.010279304 0.0110125495 0.00015520258 -0.015230564 0.004653559 -0.00427727 0.011066875
0.0028478524 -0.008343658 0.002112116 0.01982056 0.0009895825 0.0057465835 0.001730033 -0.015596643
0.0077368016 -0.0042975554 0.008769918 -0.0050293365 -0.010791751 -0.000497726 0.009309917 0.001331163
0.014831811 -0.0043967487 -0.0036571631 -0.0036239228 -0.0028411709 -0.00069082907 -0.007139717 0.0045537064
0.001382898 -0.00046309317 -0.0076175523 -0.009768796 0.0028378074 -0.009856823 -0.0022630442 -0.010765093
-0.0070748096 -0.008236449 -0.006973186 -0.00040769455 0.0047148364 0.0014433159 0.0062720263 0.012948572
0.007452682 0.003348014 0.008418893 0.0033304477 -0.004102147 0.0016480497 0.004219508 0.00621938
0.015356917 0.007065429 0.0010595379 0.006548746 0.0029459542 -0.017544502 -0.019761143 0.0019176124
-0.015284067 -0.0015055328 0.021029072 0.0053373445 0.020752875 0.026538903 0.00207739 0.010472126
0.0069686975 0.008656561 0.020193223 0.0061005405 -9.86366e-05 0.006580142 0.0024366756 -0.02045781
-0.020795701 0.0055235466 -0.0019799622 -0.0033362575 0.00622539 0.0048193675 -0.0002102504 0.014455038
0.008248585 0.00209838 0.00065017573 0.00767966 -0.010303942 -0.011676824 -0.0069537614 -0.011102898
-0.0096744625 -0.013490842 -0.01880347 -0.0044920715 -0.016256016 -0.01695587 -0.0055794716 0.003817123
0.007382878 0.008727226 -0.0012116048 0.00095621235 -0.004551018 0.0051306537 0.016251767 0.00093496894
0.004213604 0.0062061446 -0.0038571723 -4.7194415e-05 0.00066087337 0.015790539 0.0057815104 0.013560697
0.0076784873 -0.0015725243 0.010719757 0.0007224188 0.0074205324 0.008806847 0.0047777686 0.00712298
0.023823459 0.014387569 0.004821447 0.008756704 0.004461771 0.0013661158 0.007558428 0.0019334116
0.008515228 0.014310417 0.006609156 0.0019777447 0.0062316223 0.00037649673 0.028639043 0.019763464
0.0051073623 0.02592303 -0.0024705264 -0.005649487 -0.0044517103 -0.015402175 -0.022362996 0.010733222
0.0004721928 0.0049149157 0.00081771385 -0.020029958 -3.5628334e-05 0.005231935 -0.0026067742 0.0069544003
0.0208169 -0.003979589 -0.0018433298 -0.023334064 -0.010280137 0.0023878345 0.0076977597 0.0032270234
0.018654129 -0.013956826 -0.04030957 -0.004124937 -0.018944845 0.0014681299 0.0012003192 0.005887215
0.0010275648 0.011659489 0.001610474 0.009304728 -0.012346499 0.01419232 0.027365234 0.012166751
-0.008434822 0.010365932 -0.001292424 -0.014422261 -0.033080824 0.001946144 -0.010719637 -0.0021066118
0.0042802505 -0.0069578006 -0.00942466 0.008474147 -0.017038107 -0.012263229 -0.020836063 -0.0027128803
00000000: 916d 9a3b e127 35bb 1f1a 463c e400 d7ba
00000010: c1bf 1bbc 73b6 3dbb 390e 15bc 4d24 ac3b
00000020: fd8f 903c bd3f abbb f8a1 35b8 16d7 48bc
00000030: e85e a5ba 612b f0bb 1ef4 dc3a 4212 fd3a
00000040: 23a7 d8ba f0c9 bb3a 88bb d23a 9ed9 f53b
00000050: dfff 61ba 40e9 243c 8ef0 b23c 6f9e 483c
00000060: e8d8 b93b 3116 383c df21 9c3b d2ac 7cbb
00000070: e4fb 5d3c 829b db3b 7d4b acb9 bc78 1dbc
00000080: 52c7 a6bb d32c 48bb c2d6 2bbb 901a 283c
00000090: 22b2 3c3c 7ec9 56bc 5d99 d4bc 5015 633c
000000a0: e232 e7bb b851 b8bc 2011 1e3d b526 8b3c
000000b0: 3717 c73a 9a0c 023c cdd4 70bb 5ae3 a63b
000000c0: 9693 84bb 9723 35bc c4a9 0bbb a8b5 58bc
000000d0: 0915 83bb 81ba ca3b 9e57 253c 18c0 f33a
000000e0: 0170 e6ba 876a 283c fb6d 343c e0bd 2239
000000f0: 9e89 79bc e27c 983b 5728 8cbb d751 353c
00000100: 09a3 3a3b d7b3 08bc 6d6b 0a3b ba5e a23c
00000110: e1b4 813a d64d bc3b 46c2 e23a 1089 7fbc
00000120: ff84 fd3b 82d2 8cbb b4af 0f3c 22cd a4bb
00000130: e2cf 30bc d479 02ba 9f88 183c 6b7a ae3a
00000140: 2001 733c 9a12 90bb 04ad 6fbb 567f 6dbb
00000150: f032 3abb c118 35ba 4af4 e9bb 4237 953b
00000160: 5b42 b53a 50cb f2b9 a99c f9bb 4d0d 20bc
00000170: 82fa 393b 837e 21bc 954f 14bb 1360 30bc
00000180: ced3 e7bb 2cf2 06bc 537f e4bb d6bf d5b9
00000190: ea7e 9a3b a52d bd3a 9285 cd3b 3f26 543c
000001a0: a135 f43b 5b6a 5b3b 66ef 093c a443 5a3b
000001b0: 4e6b 86bb 5f03 d83a cc43 8a3b f1cb cb3b
000001c0: 949b 7b3c 1d85 e73b 31e0 8a3a dd96 d63b
000001d0: e910 413b 7db9 8fbc 1fe2 a1bc 6558 fb3a
000001e0: 066a 7abc 4c55 c5ba 2945 ac3c e4e4 ae3b
000001f0: ef01 aa3c 1d68 d93c d224 083b 4893 2b3c
00000200: ac59 e43b 40d4 0d3c 426c a53c 0be7 c73b
00000210: 1fdb ceb8 3b9e d73b a2b0 1f3b 2397 a7bc
00000220: bf5b aabc defe b43b 41c2 01bb 1da5 5abb
00000230: 5bfe cb3b c9eb 9d3b a976 5cb9 d3d4 6c3c
00000240: 1325 073c f984 093b 8e70 2a3a a8a5 fb3b
00000250: ddd1 28bc 2650 3fbc 61dc e3bb eee8 35bc
00000260: a381 1ebc b108 5dbc bc09 9abc 3a32 93bb
00000270: 562b 85bc 09e7 8abc 00d4 b6bb b228 7a3b
00000280: 12ec f13b a4fc 0e3c b6ce 9eba 53aa 7a3a
00000290: b520 95bb 0b1f a83b 6d22 853c b418 753a
000002a0: 4612 8a3b ea5c cb3b 9dc8 7cbb 9ef2 45b8
000002b0: 763e 2d3a 295b 813c d372 bd3b b02d 5e3c
000002c0: d29b fb3b 291d ceba eba1 2f3c b460 3d3a
000002d0: f027 f33b 984a 103c d48e 9c3b e367 e93b
000002e0: 6a29 c33c d7b9 6b3c 3bfd 9d3b 4778 0f3c
000002f0: 0c34 923b 3d0f b33a b1ac f73b 876a fd3a
00000300: 7483 0b3c 3d76 6a3c 9e91 d83b 0d9d 013b
00000310: a332 cc3b 8964 c539 6d9c ea3c fde6 a13c
00000320: a95b a73b 895c d43c 8ee8 21bb 551f b9bb
00000330: a7df 91bb 6759 7cbc 9a32 b7bc 65da 2f3c
00000340: a590 f739 4d0d a13b d95b 563a de15 a4bc
00000350: a26f 15b8 a770 ab3b 6ad6 2abb bde1 e33b
00000360: 3488 aa3c 3667 82bb e29b f1ba 1427 bfbc
00000370: 056e 28bc 377d 1c3b 7d3d fc3b 787c 533b
00000380: 8bd0 983c 2cab 64bc a61b 25bd 7b2a 87bb
00000390: 3832 9bbc 446e c03a 0754 9d3a 8ae9 c03b
000003a0: 5aaf 863a 7107 3f3c 8a16 d33a dc72 183c
000003b0: f848 4abc e886 683c 0e2d e03c 0d57 473c
000003c0: 3532 0abc dfd5 293c 8e66 a9ba 594b 6cbc
000003d0: c27f 07bd c215 ff3a 6ba1 2fbc 150f 0abb
000003e0: 5841 8c3b 43fe e3bb e469 1abc 26d7 0a3c
000003f0: 8093 8bbc b6eb 48bc 64b0 aabc 94ca 31bb

encoder.encoder.cnnblock2.cnnlayer1.cnn_layer.0.bias f4 [64]
-1.3178611e-07 -2.1326791e-09 5.2116437e-08 -5.055374e-07 7.7044334e-08 -1.2384273e-08 -8.021324e-08 -7.223947e-09
-9.233198e-08 -2.3349426e-07 -2.2389825e-10 -3.2268912e-09 -1.3824223e-09 -3.9911936e-09 2.7728131e-08 -9.700358e-08
5.1442154e-08 5.8674495e-08 -3.765788e-08 2.493167e-07 3.7342534e-09 3.1145078e-08 5.3608087e-08 -9.5958494e-09
-1.0267515e-09 -1.6685928e-07 4.6777648e-11 8.923969e-10 5.545585e-08 8.222799e-09 3.4745582e-08 -1.141429e-09
1.3455421e-07 3.8886306e-08 2.1590431e-07 -2.0064865e-08 2.0992283e-08 -1.7736537e-07 1.17883566e-07 -7.926203e-08
-1.2172737e-09 -3.0151628e-07 3.4043451e-10 2.0046553e-10 -2.1882895e-10 -8.829531e-08 -1.9425482e-07 -6.8954826e-08
-1.0576079e-08 1.923783e-09 6.385219e-08 2.4807958e-08 -3.5149366e-08 -1.6742748e-08 3.0976345e-08 -1.7639705e-09
3.3993246e-08 -1.9319948e-08 -7.762572e-09 -1.716002e-07 -4.7839695e-08 -1.8979777e-07 3.623185e-08 3.857537e-08
00000000: 1781 0db4 7d8e 12b1 a1d6 5f33 44b4 07b5
00000010: 9273 a533 9cc2 54b2 b241 acb3 8336 f8b1
00000020: 0b48 c6b3 6ab6 7ab4 c12d 76af 12c0 5db1
00000030: a9ff bdb0 e922 89b1 ce2e ee32 4850 d0b3
00000040: 3ff1 5c33 4a01 7c33 47bd 21b3 d4d9 8534
00000050: d74e 8031 60c4 0533 b73e 6633 feda 24b2
00000060: 9b1d 8db0 ee29 33b4 f3ba 4d2e d94c 7530
00000070: 5a2e 6e33 4144 0d32 2c3b 1533 76e0 9cb0
00000080: fb79 1034 f203 2733 53d3 6734 1b5b acb2
00000090: 8552 b432 d271 3eb4 2d27 fd33 c336 aab3
000000a0: 034d a7b0 15e0 a1b4 e627 bb2f 086a 5c2f
000000b0: e09a 70af dc9c bdb3 5c94 50b4 5114 94b3
000000c0: 16b2 35b2 8c33 0431 1d1f 8933 4719 d532
000000d0: 23f7 16b3 b1d1 8fb2 da0a 0533 3270 f2b0
000000e0: f8ff 1133 04f5 a5b2 275c 05b2 1b41 38b4
000000f0: 4d78 4db3 37cb 4bb4 579d 1b33 11ae 2533

encoder.encoder.cnnblock2.cnnlayer1.cnn_layer.1.weight f4 [64]
0.24735203 0.064130716 0.42614937 0.49201742 0.1820766 0.10495436 0.080666944 0.15492345
0.2437062 0.14714807 0.016078796 0.05440841 0.13966528 0.030741982 0.048038866 0.18701309
0.2893611 0.31898305 0.2818825 0.30920562 0.14686501 0.13490064 0.32803556 0.03889107
0.0343799 0.22876284 0.008482278 0.2357596 0.098164864 0.17890485 0.22078873 0.101773396
0.48525268 0.13212062 0.19607735 0.2866983 0.5242528 0.1698717 0.7207841 0.33251378
0.1310604 0.14452988 0.017420214 0.15285131 0.047330115 0.17616527 0.2566291 0.5566052
0.046517372 0.055016104 0.3716368 0.109547816 0.31448385 0.20287366 0.15646046 0.0623749
0.3784785 0.029591057 0.16898309 0.2381942 0.29850143 0.30418408 0.07065809 0.2869979
00000000: da49 7d3e f756 833d 4030 da3e b5e9 fb3e
00000010: 4a72 3a3e 50f2 d63d b634 a53d 41a4 1e3e
00000020: 1e8e 793e fcad 163e aeb7 833c 5adb 5e3d
00000030: 6a04 0f3e 9cd6 fb3c 67c4 443d 5c80 3f3e
00000040: 2327 943e bf51 a33e e752 903e 3350 9e3e
00000050: c863 163e 6523 0a3e 47f4 a73e 3e4c 1f3d
00000060: f0d1 0c3d ce40 6a3e 41f9 0a3c f76a 713e
00000070: a90a c93d d532 373e 7116 623e 926e d03d
00000080: 0a73 f83e a14a 073e 80c8 483e 1fca 923e
00000090: 6e35 063f d9f2 2d3e 4f85 383f 3f3f aa3e
000000a0: b334 063e a4ff 133e d6b4 8e3c 0e85 1c3e
000000b0: 39dd 413d ab64 343e e464 833e ae7d 0e3f
000000c0: 0089 3e3d 9158 613d 2e47 be3e 9b5a e03d
000000d0: 0704 a13e 1dbe 4f3e 2c37 203e d37c 7f3d
000000e0: efc7 c13e f268 f23c e709 2d3e 2ee9 733e
000000f0: 2ed5 983e 04be 9b3e 30b5 903d 64f1 923e

encoder.encoder.cnnblock2.cnnlayer1.cnn_layer.1.bias f4 [64]
0.021660702 0.020339636 -0.030599304 -0.029974073 0.053919796 -0.021821946 0.009596248 0.02600217
0.06428529 0.052878562 0.012505809 0.035559095 0.04455175 0.0035954278 0.018432165 0.043979093
0.0644125 -0.0424002 0.03602047 -0.0127315475 -0.023351079 0.015515407 -0.055344984 0.005946984
0.02053468 -0.00965115 -0.0046943617 0.010498039 0.03201589 0.03389584 0.03778832 0.045770157
0.07813389 0.058294725 0.06646872 -0.008084763 0.027447227 0.04863194 0.026191259 0.015373256
0.02354827 0.0285741 -0.00077373773 0.04026922 0.026759123 0.061585613 0.003726171 -0.02354005
0.007815824 0.017261518 -0.018294824 0.025586918 0.011067762 -0.019605802 0.050311346 0.043073464
-0.021729808 0.008343131 0.030600708 0.059766714 -0.047778305 0.031539205 0.032547668 0.008994112
00000000: c971 b13c 4f9f a63c 64ab fabc 308c f5bc
00000010: 01db 5c3d f0c3 b2bc 9539 1d3c 8102 d53c
00000020: 02a8 833d 3197 583d 2ae5 4c3c 6aa6 113d
00000030: e57b 363d 45a1 6b3b 0dff 963c 6c23 343d
00000040: b3ea 833d d5ab 2dbd 338a 133d fb97 50bc
00000050: c34a bfbc 5534 7e3c 6cb1 62bd ebde c23b
00000060: 5838 a83c db1f 1ebc 29d3 99bb f8ff 2b3c
00000070: 1823 033d 5dd6 0a3d edc7 1a3d 7d79 3b3d
00000080: a904 a03d 73c6 6e3d c120 883d f475 04bc
00000090: 02d9 e03c 4932 473d 0d8f d63c 1ce0 7b3c
000000a0: 4de8 c03c 3b14 ea3c a9d4 4aba 56f1 243d
000000b0: f335 db3c 3241 7c3d c732 743b 10d7 c0bc
000000c0: f10d 003c 0768 8d3c 07df 95bc a89b d13c
000000d0: 8f55 353c 599c a0bc 4513 4e3d cd6d 303d
000000e0: b602 b2bc a1b1 083c 56ae fa3c f1cd 743d
000000f0: 2fb3 43bd 412f 013d b450 053d 0a5c 133c

encoder.encoder.cnnblock2.cnnlayer1.cnn_layer.1.running_mean f4 [64]
0.08737873 0.16165672 -0.10834553 -0.0075124577 -0.13483645 0.1951837 -0.07939949 -0.09142835
-0.13361992 -0.035761848 0.17663272 0.10060357 -0.6815947 0.01585191 0.028333277 0.005845596
0.101274475 -0.11269718 0.06225933 -0.05918516 0.21540275 0.014518007 0.08162382 -0.039786275
0.2013353 -0.008215542 0.24863227 0.17890595 -0.016292641 0.0021493598 -0.03640549 0.2136892
-0.11532066 -0.7387533 0.033635158 0.17188784 0.067709714 -0.026212182 -0.20623426 -0.1141901
-0.2094937 0.04199895 -0.05223902 -0.089939125 -0.11845327 -0.17102218 0.107519135 0.014325342
-0.022783127 -0.21726803 0.016980574 0.017980007 -0.33620313 -0.5325935 0.04896852 0.10284667
-0.20817225 0.12832786 0.11268912 -0.020404933 0.00021682862 0.030114641 0.138872 -0.38767803
00000000: 9ff3 b23d 5789 253e 43e4 ddbd 102b f6bb
00000010: 9112 0abe 3cde 473e 339c a2bd c93e bbbd
00000020: a9d3 08be 047b 12bd 35df 343e 3f09 ce3d
00000030: fe7c 2ebf dddb 813c 301b e83c 6a8c bf3b
00000040: fe68 cf3d c7cd e6bd a403 7f3d 236c 72bd
00000050: 8a92 5c3e efdc 6d3c 642a a73d eff6 22bd
00000060: d72a 4e3e 7b9a 06bc 7599 7e3e 1f33 373e
00000070: 2578 85bc 46dc 0c3b ec1d 15bd 57d1 5a3e
00000080: 3d2d ecbd f01e 3dbf 05c5 093d 5e03 303e
00000090: 64ab 8a3d eeba d6bc 132f 53be 80dc e9bd
000000a0: 8485 56be 1707 2c3d 95f8 55bd 0132 b8bd
000000b0: a197 f2bd 7020 2fbe fe32 dc3d d7b4 6a3c
000000c0: aea3 babc 837b 5ebe d81a 8b3c cf4a 933c
000000d0: d122 acbe 0c58 08bf 3793 483d 46a1 d23d
000000e0: 1b2b 55be 6168 033e 8ec9 e63d 3f28 a7bc
000000f0: 7d5c 6339 fbb2 f63c 7634 0e3e bc7d c6be

encoder.encoder.cnnblock2.cnnlayer1.cnn_layer.1.running_var f4 [64]
0.021573924 0.30294573 0.075771965 0.037473086 0.024860052 0.23354295 0.010989971 0.26825953
0.049829494 0.009041707 0.9530007 0.4720994 0.54383343 0.05825833 0.0019099778 0.0085374145
1.3296833 0.03285258 0.4965036 0.049435064 0.65966433 0.1367373 0.10258298 0.017234966
0.8831621 0.023279099 0.41846186 0.64708716 0.040567607 0.10722175 0.05604463 0.9742233
0.576876 1.6788208 0.0061840354 1.0022438 1.5120548 0.054354943 0.35708505 0.032383654
0.48950073 0.011745774 0.016951317 0.016998438 0.109965116 0.0383442 0.020564849 0.20136496
0.016033024 0.49921733 0.2884535 0.028772237 1.1971054 1.2562728 0.017066065 0.72936493
0.040528897 0.048929837 0.50118357 0.009757454 0.17470846 0.023097599 0.027635222 1.2967483
00000000: ccbb b03c b41b 9b3e 552e 9b3d 617d 193d
00000010: 4fa7 cb3c e225 6f3e 480f 343c 5059 893e
00000020: 031a 4c3d ab23 143c dbf7 733f 03b7 f13e
00000030: ab38 0b3f 49a0 6e3d 3858 fa3a 83e0 0b3c
00000040: 1033 aa3f 6d90 063d b835 fe3e 6c7c 4a3d
00000050: c3df 283f dd04 0c3e 0717 d23d 5830 8d3c
00000060: e916 623f cfb3 be3c a240 d63e 81a7 253f
00000070: 382a 263d 1497 db3d 0e8f 653d b366 793f
00000080: 25ae 133f 9ae3 d63f 73a3 ca3b 8649 803f
00000090: 038b c13f 4aa3 5e3d dad3 b63e b9a4 043d
000000a0: d79f fa3e 5971 403c 7ddd 8a3c 4f40 8b3c
000000b0: 6435 e13d cf0e 1d3d 9d77 a83c 9e32 4e3e
000000c0: b057 833c 6a99 ff3e 2db0 933e c1b3 eb3c
000000d0: c03a 993f 8ccd a03f 22ce 8b3c a9b7 3a3f
000000e0: a101 263d a76a 483d 914d 003f badd 1f3c
000000f0: c6e6 323e 2d37 bd3c 4363 e23c d9fb a53f

encoder.encoder.cnnblock2.cnnlayer2.cnn_layer.0.weight f4 [64, 64, 3, 3]
0.01084727 0.011082835 0.011682444 0.011909114 0.017190304 0.013494932 0.013673284 0.020504111
0.016098304 0.0002380531 -0.00028653082 0.0008154113 -0.0016162191 -0.0014427844 -0.0006507958 -0.00170167
-0.0042332984 -0.0010852029 0.012961016 0.012052068 0.013243683 0.007221312 0.010814275 0.0098536555
0.0007566631 0.000713081 0.0057701813 0.012533669 0.01596909 0.012759703 0.019283563 0.023013212
0.0150651615 0.007644606 0.015963588 0.01813344 0.0022908628 -0.0036760059 -0.0039216666 0.00042832314
0.0023763103 0.0014519418 0.0028502683 0.0034289074 0.0037487454 -0.00027878463 -0.0010297582 -0.00070948404
-0.0028475127 -0.0029080377 -0.0013092569 -0.0036356293 -0.0037101551 -0.0018963477 -0.0030979323 0.0021375406
0.0009368341 -0.0028157826 -0.0022292691 -0.00218764 -0.0032176776 -0.002606193 -0.0022773198 -0.0008405106
0.0011771272 0.0030078513 0.0021153532 0.0063280542 0.0023518698 0.003992088 0.0062081655 0.0041901204
-0.0017817095 -0.001163294 -0.0022734946 -0.004562382 -0.0052940454 -0.0054551694 -0.005624728 -0.007836864
-0.006578083 0.0017467336 0.0026877583 0.0028325971 -0.0022909364 0.00052805955 0.0023507446 -0.0060341577
-0.004735899 0.0004752891 -0.0004906591 -0.00051475497 -0.002811629 -0.00095547125 -0.0010138311 -0.0007527031
-0.0018076082 -0.0009911023 -0.00060328346 -0.0009431592 -0.0007042022 -0.0012797867 -0.0018498613 -0.002072651
-0.0010705831 -0.0024489847 -0.002140799 -0.001165592 -0.006835788 -0.0057526436 -0.0020511094 -0.010078496
-0.0076686596 -0.005429416 -0.008541059 -0.007902289 -0.0069587408 0.0005674759 0.0012836597 0.0013761475
0.0012483909 0.00199196 0.0018375308 0.0025967148 0.0023640639 0.0025017136 0.0025803123 0.0025104228
0.0026839268 0.0037534675 0.0037771564 0.0029526465 0.004740124 0.00425733 0.0029717188 -0.0059900875
-0.0022827392 -0.0045958576 -0.0058410373 -0.004162725 -0.0032671564 -0.0007294263 0.0029185005 0.0019548929
0.000908756 3.5056695e-05 0.0029542486 -0.0021168105 -0.002828615 -0.003100478 -0.003069051 -0.0042215013
-0.0010368319 0.0026115642 0.0050818636 0.0103355795 -0.0028019613 0.0008463889 0.012445903 -0.008160323
-0.0043777195 0.006462694 -0.0016110645 0.00048494645 0.0031376982 -0.003631312 -0.002617495 0.00011859908
-0.0043591843 -0.004016177 -0.00033213265 0.0046244953 0.002453487 0.0042585703 -0.0010507023 -0.0016644795
0.0029677474 -0.004679974 -0.0045001893 0.0007919226 -0.0031180992 -0.0020938325 -0.0018044609 -0.0044490024
-0.0057955584 -0.0035687534 -0.0046494426 -0.004767993 -0.0035176077 0.0047403984 0.0043450454 0.0016107804
0.008963717 0.011751455 0.008917936 0.008893223 0.011558946 0.009278615 0.002911434 0.0019418012
0.003521561 0.00040236427 -0.0018287023 0.0027737815 -0.004712455 -0.0025662929 0.00038001474 -0.00069073157
0.0003259092 3.138321e-05 0.00047649763 0.0011031692 0.00062291947 0.00044011706 0.0010900893 0.0009206733
-0.00027117383 -0.00067600264 -0.00014650509 -9.1564136e-05 -0.0011825501 -0.0005125237 -0.0012817705 0.0039486084
-0.00089541834 0.0056180446 0.0068158945 0.0061996947 0.008861906 0.012795072 0.011373894 0.00987814
0.012367533 0.009874873 -9.685524e-05 -0.0002586207 -0.00015528839 -0.00029295674 -0.00032733497 -0.00022910838
-0.00029945426 -0.00038021672 -0.0003511799 -0.0015156163 -0.001991056 0.00027006696 -0.0047324733 -0.004418793
-0.010401262 -0.0046312246 -0.0041837967 -0.002787236 0.0014281532 0.0006958428 -0.000604424 -0.00011697833
00000000: bfb8 313c c794 353c b967 3f3c 721e 433c
00000010: aed2 8c3c d919 5d3c e905 603c 3df8 a73c
00000020: 97e0 833c e49d 7939 8439 96b9 53c1 553a
00000030: 50d7 d3ba d01b bdba 2b9a 2aba 920a dfba
00000040: 7bb7 8abb 5e3d 8eba 715a 543c 0976 453c
00000050: 08fc 583c c1a0 ec3b 5b2e 313c 3a71 213c
00000060: cd5a 463a 0eee 3a3a ca13 bd3b 055a 4d3c
00000070: 9cd1 823c 130e 513c 90f8 9d3c 3486 bc3c
00000080: ded3 763c 9a7f fa3b 12c6 823c 948c 943c
00000090: 4d22 163b 25e9 70bb 5381 80bb 8f90 e039
000000a0: dfbb 1b3b 154f be3a 91cb 3a3b 85b7 603b
000000b0: 83ad 753b d729 92b9 f4f8 86ba abfc 39ba
000000c0: 569d 3abb c794 3ebb 5f9b abba bd43 6ebb
000000d0: 1326 73bb df8e f8ba ae06 4bbb fb15 0c3b
000000e0: df95 753a fe88 38bb ee18 12bb 825e 0fbb
000000f0: acdf 52bb aacc 2abb 163f 15bb b655 5cba
00000100: d649 9a3a 5f1f 453b bda1 0a3b 915b cf3b
00000110: d421 1a3b 10d0 823b de6d cb3b 474d 893b
00000120: 4088 e9ba ab79 98ba e9fe 14bb 0980 95bb
00000130: ac79 adbb 47c1 b2bb a34f b8bb 3166 00bc
00000140: f68c d7bb a7f2 e43a 1a25 303b 18a3 393b
00000150: 8923 16bb 7a6d 0a3a f30e 1a3b 2fba c5bb
00000160: 9a2f 9bbb 3930 f939 939f 00ba 9ff0 06ba
00000170: 4f43 38bb 9778 7aba 87e2 84ba 0d51 45ba
00000180: 44ed ecba e0e7 81ba ab25 1eba 583e 77ba
00000190: 369a 38ba 84be a7ba 0c77 f2ba 50d5 07bb
000001a0: cf52 8cba 257f 20bb a64c 0cbb c7c6 98ba
000001b0: bffe dfbb ac80 bcbb e86b 06bb 4720 25bc
000001c0: 6149 fbbb 3ee9 b1bb ccef 0bbc 9a78 01bc
000001d0: 2606 e4bb aac2 143a 7940 a83a d95f b43a
000001e0: 0ca1 a33a 8b8b 023b 4dd9 f03a a52d 2a3b
000001f0: 69ee 1a3b caf3 233b 751a 293b e885 243b
00000200: d2e4 2f3b bcfc 753b 2b8a 773b 3081 413b
00000210: 0b53 9b3b 1381 8b3b 2bc1 423b 7f48 c4bb
00000220: 029a 15bb d998 96bb 2c66 bfbb 7867 88bb
00000230: ca1d 56bb f836 3fba 5044 3f3b a91d 003b
00000240: 9539 6e3a d709 1338 119c 413b 30ba 0abb
00000250: 4960 39bb 6431 4bbb 2222 49bb 8554 8abb
00000260: 4ee6 87ba c726 2b3b c385 a63b 9056 293c
00000270: 1ca1 37bb 33e0 5d3a e7e9 4b3c e0b2 05bc
00000280: f972 8fbb 02c5 d33b 5b2a d3ba 6940 fe39
00000290: d7a1 4d3b 4efb 6dbb 478a 2bbb 65b8 f838
000002a0: 7dd7 8ebb 229a 83bb 1722 aeb9 1489 973b
000002b0: aeca 203b 7a8b 8b3b b8b7 89ba aa2a daba
000002c0: 8a7e 423b 785a 99bb 5376 93bb 0799 4f3a
000002d0: 0659 4cbb ae38 09bb a983 ecba f0c8 91bb
000002e0: abe8 bdbb bfe1 69bb 5a5a 98bb d33c 9cbb
000002f0: aa87 66bb 5855 9b3b e260 8e3b d220 d33a
00000300: 8edc 123c 2d89 403c 891c 123c e1b4 113c
00000310: bc61 3d3c 5505 183c c2cd 3e3b 0984 fe3a
00000320: fdc9 663b 6bf4 d239 11b1 efba 55c8 353b
00000330: f06a 9abb 402f 28bb b73c c739 3612 35ba
00000340: cbde aa39 77a1 0338 6ed2 f939 3798 903a
00000350: 6b4b 233a 83bf e639 54e1 8e3a 5759 713a
00000360: 562c 8eb9 c535 31ba 299f 19b9 1f06 c0b8
00000370: ccff 9aba e25a 06ba 1501 a8ba 5463 813b
00000380: 82ba 6aba 9317 b83b de57 df3b cf26 cb3b
00000390: 8731 113c 6ca2 513c 9259 3a3c ecd7 213c
000003a0: 31a1 4a3c 38ca 213c c31e cbb8 7c97 87b9
000003b0: e9d4 22b9 fd97 99b9 289e abb9 d03c 70b9
000003c0: 1200 9db9 d357 c7b9 911e b8b9 a5a7 c6ba
000003d0: 607c 02bb c697 8d39 dd12 9bbb 86cb 90bb
000003e0: 0e6a 2abc 87c1 97bb 3b18 89bb 0faa 36bb
000003f0: df30 bb3a 3869 363a 3572 1eba 4352 f5b8

encoder.encoder.cnnblock2.cnnlayer2.cnn_layer.0.bias f4 [64]
-1.3022266e-07 -3.5089702e-08 1.15678695e-07 -3.5670798e-08 1.4114201e-08 -7.61348e-08 5.3181832e-09 -4.4637254e-08
-1.4658623e-07 -4.3642565e-08 -2.7792955e-08 -8.8593055e-08 1.924843e-08 2.462077e-07 9.167053e-08 -1.4132401e-07
1.6959291e-07 -2.4009513e-08 -5.0206694e-08 -1.2256997e-07 -2.232982e-07 -5.6298543e-08 2.0386585e-07 -2.1397426e-07
-3.7693948e-07 -5.4342035e-08 -1.0846171e-07 -8.371585e-09 -5.988474e-08 7.5349604e-08 -2.2444576e-07 -5.4980895e-08
-5.688029e-08 2.6592861e-08 -5.9354113e-09 -2.9969218e-08 8.301667e-08 -9.4121134e-08 -3.13137e-08 -2.6680107e-08
-8.182963e-08 3.0134814e-08 1.7448839e-08 -2.1939469e-08 4.4411777e-08 -4.6839205e-07 1.8604574e-07 9.2720776e-10
-3.607876e-08 -3.2410874e-08 2.4443733e-07 6.417691e-08 1.568137e-08 -1.6726845e-07 3.6441648e-08 -1.646527e-07
-7.68181e-08 -9.11201e-09 -9.852089e-08 8.924122e-08 -1.3123287e-08 -6.282279e-09 3.1878386e-08 2.32056e-07
00000000: 55d3 0bb4 89b5 16b3 096b f833 7534 19b3
00000010: ea7a 7232 8d7f a3b3 3cbb b631 2eb7 3fb3
00000020: 5165 1db4 8271 3bb3 5bbd eeb2 8c40 beb3
00000030: bf57 a532 872e 8434 68dc c433 d9be 17b4
00000040: 5819 3634 7a3d ceb2 d8a2 57b3 c79b 03b4
00000050: bec3 6fb4 e7cc 71b3 38e6 5a34 ccc0 65b4
00000060: 2b5e cab4 b365 69b3 75eb e8b3 9fd2 0fb2
00000070: fc99 80b3 e2cf a133 2eff 70b4 2224 6cb3
00000080: 8a4c 74b3 526e e432 6ef0 cbb1 81b7 00b3
00000090: e646 b233 a41f cab3 c77d 06b3 2d2e e5b2
000000a0: 51ba afb3 946d 0133 67e2 9532 6775 bcb2
000000b0: 44bf 3e33 5077 fbb4 ddc3 4734 72de 7e30
000000c0: 04f5 1ab3 2234 0bb3 363b 8334 a1d1 8933
000000d0: b3b3 8632 679a 33b4 0484 1c33 64cb 30b4
000000e0: 32f7 a4b3 0b8b 1cb2 6f92 d3b3 e1a4 bf33
000000f0: d474 61b2 83db d7b1 a8ea 0833 112b 7934

encoder.encoder.cnnblock2.cnnlayer2.cnn_layer.1.weight f4 [64]
0.15502152 0.1822942 0.104893275 0.15561832 0.15787749 0.18815848 0.12770864 0.1747035
0.35528934 0.16170591 0.11440921 0.20706603 0.109603055 0.15834674 0.09876214 0.15901604
0.21749102 0.18797939 0.11591422 0.19460194 0.115878694 0.1746528 0.1550695 0.12384649
0.34497893 0.21340938 0.13184309 0.15479095 0.09673387 0.094440974 0.11200096 0.16668844
0.097230904 0.113941394 0.31444377 0.20058662 0.10712283 0.26569375 0.11006004 0.2291096
0.16951425 0.20922291 0.094749495 0.14046527 0.10967544 0.14227937 0.1712776 0.32654285
0.15930961 0.25692928 0.12073487 0.29357857 0.1181417 0.38478336 0.20688717 0.17050073
0.08948741 0.055825952 0.1523317 0.15171856 0.08993221 0.08599881 0.106573835 0.13633475
00000000: f6bd 1e3e 55ab 3a3e 49d2 d63d 695a 1f3e
00000010: a3aa 213e 9eac 403e 0ec6 023e 79e5 323e
00000020: 7ce8 b53e 3c96 253e 604f ea3d 1e09 543e
00000030: 9177 e03d a625 223e ce43 ca3d 1ad5 223e
00000040: f7b5 5e3e ab7d 403e 6f64 ed3d bb45 473e
00000050: cf51 ed3d 2fd8 323e 8aca 1e3e 3ba3 fd3d
00000060: 14a1 b03e fd87 5a3e e001 073e 8581 1e3e
00000070: 681c c63d 456a c13d c260 e53d 60b0 2a3e
00000080: ff20 c73d 1b5a e93d c6fe a03e 9466 4d3e
00000090: 3763 db3d 0309 883e 2967 e13d b59b 6a3e
000000a0: 2595 2d3e 883e 563e 060c c23d 21d6 0f3e
000000b0: 849d e03d afb1 113e 6563 2f3e a030 a73e
000000c0: 0f22 233e 3c8c 833e d843 f73d ee4f 963e
000000d0: 47f4 f13d 5302 c53e 3bda 533e be97 2e3e
000000e0: 2d45 b73d c1a9 643d d7fc 1b3e 1c5c 1b3e
000000f0: 612e b83d 2520 b03d 6243 da3d 569b 0b3e

encoder.encoder.cnnblock2.cnnlayer2.cnn_layer.1.bias f4 [64]
-0.0029055222 0.027179006 0.03795874 -0.057024766 0.0054039448 0.015935535 -0.008025665 0.006834587
-0.030997911 0.025326524 -0.003050698 0.0033792832 0.04347115 0.045345385 -0.027644014 -0.0043326784
-0.030158803 0.02199579 0.04639962 0.061096586 0.061894 0.008008219 0.041868996 0.04168671
-0.016096106 0.011441788 0.03968347 -0.016569812 0.046629366 -0.03081056 0.039989106 0.055682786
0.039131798 -0.0032552213 0.0064800656 0.026363805 0.030502297 -0.018884286 -0.023246137 0.027491022
0.0017080983 -0.0004259198 0.034655575 0.036431547 0.0043203505 0.0411123 0.017446326 -0.022373438
0.017960187 -0.03637411 0.03412399 0.023870373 -0.0051165037 -0.019996354 -0.015197027 0.031477362
0.028759588 0.011691334 0.037028305 0.06341697 0.044620916 0.02178376 0.036370166 0.004525726
00000000: 936a 3ebb 82a6 de3c a07a 1b3d cd92 69bd
00000010: 9313 b13b 3d8b 823c 147e 03bc acf4 df3b
00000020: 55ef fdbc 9279 cf3c 38ee 47bb f776 5d3b
00000030: ce0e 323d 15bc 393d b375 e2bc 24f9 8dbb
00000040: 980f f7bc 8430 b43c 870d 3e3d 6a40 7a3d
00000050: 9084 7d3d e834 033c d37e 2b3d afbf 2a3d
00000060: fbdb 83bc 5676 3b3c 228b 223d 6abd 87bc
00000070: 6ffe 3e3d 6d66 fcbc 9ecb 233d a213 643d
00000080: aa48 203d 8d55 55bb bb56 d43b e8f8 d73c
00000090: f4df f93c 38b3 9abc af6e bebc da34 e13c
000000a0: 45e2 df3a fd4d dfb9 01f3 0d3d 3f39 153d
000000b0: ba91 8d3b 5f65 283d 99eb 8e3c 8048 b7bc
000000c0: 3e21 933c 05fd 14bd 99c5 0b3d cd8b c33c
000000d0: 58a8 a7bb 65cf a3bc f3fc 78bc 68ee 003d
000000e0: 3a99 eb3c 028d 3f3c feaa 173d c2e0 813d
000000f0: 6cc4 363d db73 b23c e2f8 143d 8b4c 943b

encoder.encoder.cnnblock2.cnnlayer2.cnn_layer.1.running_mean f4 [64]
0.08279656 0.12263054 0.059283655 -0.44315797 -0.22002271 0.0075728963 -0.14324932 -0.17120636
-0.18881297 -0.12512933 -0.6553296 0.023500782 0.1571813 -0.017670868 0.08075638 0.022849781
0.06947376 0.18764207 0.17097464 -0.09965422 -0.026895365 0.025332859 -0.061665803 -0.0106534
-0.022640763 0.01917991 -0.1182705 -0.33621255 0.14796852 -0.17537446 0.050183747 0.11201554
0.017257495 0.24329114 -0.37833527 -0.059015214 0.16891417 -0.010400931 0.111211345 -0.028890155
-0.031523038 -0.031655077 0.21779598 0.04124575 0.1328808 0.011502116 -0.09087351 -0.47056666
-0.047334608 0.24545977 0.046611685 -0.034466896 -0.31195414 -0.055982295 -0.064419575 0.1111464
0.11402716 -0.48417628 0.0023290769 -0.11425703 0.2115111 0.23979595 0.24928854 0.11578054
00000000: 3e91 a93d b825 fb3d 6bd3 723d 9ae5 e2be
00000010: a24d 61be 0f26 f83b f3af 12be b850 2fbe
00000020: 3058 41be e721 00be aec3 27bf b684 c03c
00000030: 22f4 203e 7fc2 90bc 9a63 a53d 772f bb3c
00000040: 4248 8e3d 3e25 403e fa13 2f3e 8317 ccbd
00000050: ab53 dcbc db86 cf3c 4895 7cbd 998b 2ebc
00000060: 1f79 b9bc 301f 9d3c ce37 f2bd 0d24 acbe
00000070: 0f85 173e 5d95 33be 798d 4d3d 6768 e53d
00000080: 975f 8d3c 5021 793e 29b5 c1be f0b9 71bd
00000090: d6f7 2c3e ab68 2abc c6c2 e33d 0cab ecbc
000000a0: 4d1e 01bd c1a8 01bd e905 5f3e 4ef1 283d
000000b0: e811 083e 5f73 3c3c e41b babd 1dee f0be
000000c0: efe1 41bd ce59 7b3e e5eb 3e3d 292d 0dbd
000000d0: 74b8 9fbe b14d 65bd 69ee 83bd b9a0 e33d
000000e0: 1287 e93d f4e5 f7be 6da3 183b 97ff e9bd
000000f0: 5e96 583e 128d 753e 7f45 7f3e 591e ed3d

encoder.encoder.cnnblock2.cnnlayer2.cnn_layer.1.running_var f4 [64]
0.018722922 0.010114426 0.038477343 0.85882986 0.38592276 0.015127112 0.19964294 0.14112839
0.035244312 0.25150967 2.011062 0.013809318 0.16198874 0.010052922 0.0387288 0.01990515
0.063454576 0.7462913 0.21956417 0.04666405 0.029521277 0.011115071 0.010657298 0.007924377
0.018896917 0.01085469 0.009971833 0.54361 0.13711318 0.44643018 0.069469 0.27741867
0.05901717 0.3707202 0.37702274 0.08354178 0.15733856 0.013169742 0.03354344 0.018606547
0.028944122 0.029158024 0.52220464 0.02226603 0.17734793 0.0073117614 0.010808437 0.8539619
0.09344651 0.25146854 0.01317657 0.12333012 0.123770684 0.10528394 0.017230531 0.015107076
0.17559105 0.6762012 0.037557974 0.03648003 0.23625617 0.40567446 0.74280125 0.02475531
00000000: d060 993c fab6 253c 6b9a 1d3d 46dc 5b3f
00000010: ab97 c53e b5d7 773c 336f 4c3e f683 103e
00000020: 575c 103d e0c5 803e 3db5 0040 7a40 623c
00000030: 60e0 253e 03b5 243c 17a2 1e3d 2010 a33c
00000040: 79f4 813d f20c 3f3f 6ed5 603e ce22 3f3d
00000050: 9bd6 f13c fd1b 363c f39b 2e3c 3fd5 013c
00000060: b5cd 9a3c dfd7 313c e660 233c 062a 0b3f
00000070: 6667 0c3e 7f92 e43e c345 8e3d d209 8e3e
00000080: fdbb 713d 0acf bd3e 2009 c13e f417 ab3d
00000090: 5c1d 213e e7c5 573c d964 093d c26c 983c
000000a0: 391c ed3c cfdc ee3c 34af 053f 4067 b63c
000000b0: b29a 353e 8097 ef3b df15 313c 3f9d 5a3f
000000c0: e260 bf3d 7cc0 803e 8ae2 573c 8194 fc3d
000000d0: 7c7b fd3d 1b9f d73d 0b27 8d3c ab83 773c
000000e0: 24ce 333e 861b 2d3f 64d6 193d 156c 153d
000000f0: 23ed 713e 90b4 cf3e 3928 3e3f a6cb ca3c
