best_model_AECNN1.pth (torch, 551339 bytes, 48 tensors)

encoder.encoder.cnnblock1.cnnlayer1.cnn_layer.0.weight f4 [32, 3, 3, 3]
0	0x3fe57cce	1.7928712
1	0xbf4c2647	-0.79745907
2	0x3efcae8c	0.4935192
3	0x3ebe125f	0.3712339
4	0xc09504b1	-4.6568227
5	0xc00d6608	-2.2093525
6	0x3f42e8d4	0.7613652
7	0xc0179676	-2.3685584
8	0x4009a798	2.150854
9	0x405897ed	3.3842728
10	0x3fabb223	1.3413738
11	0x3f9a3aff	1.2049254
12	0x3fe8c12d	1.8183953
13	0xc04f9bcc	-3.243884
14	0xbfdc711d	-1.722202
15	0x3fbad4ff	1.4596251
16	0xbf967314	-1.1753869
17	0x40336173	2.8028228
18	0x408a3e77	4.320125
19	0x3fd6cc08	1.6781015
20	0x3dc006d6	0.09376304
21	0x401e47ab	2.4731243
22	0xc075f85e	-3.8432841
23	0xc0193afa	-2.3942246
24	0xbedc4d74	-0.43027842
25	0xc039e720	-2.9047318
26	0xbd296cff	-0.041363712
27	0x4010ffc5	2.265611
28	0xbe1ac673	-0.15114765
29	0x3ff09317	1.8794888
30	0xbf59c2ac	-0.8506267
31	0xc0b3d4d2	-5.619729
32	0xc001c010	-2.0273476
33	0x3f19f5eb	0.60140866
34	0xc01e96da	-2.4779572
35	0x3e7e6a03	0.24845128
36	0xbe5bb1d1	-0.2145455
37	0xbb45da9e	-0.003019012
38	0x3eccc3f9	0.39993265
39	0xbf366e91	-0.7126246
40	0xc08b0231	-4.3440175
41	0xbf2e9ddf	-0.6820964
42	0x3e94ba4e	0.2904839
43	0xbd62b570	-0.055348814
44	0x3f6028ef	0.8756246
45	0xbfbf6de0	-1.4955406
46	0x3edf12e6	0.43569106
47	0xbfa70550	-1.3048496
48	0x3e0ffafc	0.14060587
49	0xbed53dfd	-0.41648856
50	0xbe797fe9	-0.243652
51	0xbf150722	-0.5821401
52	0xbe07926f	-0.13239454
53	0xbf132213	-0.5747387
54	0x3ed4ab3f	0.415369
55	0x3ebff091	0.37488225
56	0xbfb6713e	-1.4253309
57	0x3f26f018	0.65210104
58	0x41193e27	9.577674
59	0x3fabec27	1.3431443
60	0xbfc91cd2	-1.571192
61	0x3fe04ad6	1.7522838
62	0xbe01b3c6	-0.12666234
63	0x3fb6487c	1.424087
64	0x3f2165fd	0.63046247
65	0xbf3bcbd3	-0.73357886
66	0x3f838169	1.0273868
67	0x418e5256	17.790203
68	0x3f0ff8e6	0.56239164
69	0xbf8d6d02	-1.1048892
70	0x3e09a248	0.13440812
71	0xbe70bcc3	-0.23509507
72	0x3e404c18	0.18779027
73	0x3cc482c0	0.023988128
74	0xbf87b2b6	-1.0601413
75	0x3d718fcc	0.058975026
76	0x4064a1dd	3.5723794
77	0x3f133616	0.57504404
78	0xbf795882	-0.9740068
79	0x3fc58916	1.543246
80	0x3dbe5dea	0.092952564
81	0x3eb6a476	0.3567235
82	0x40019ffe	2.0253901
83	0x400001e6	2.0001159
84	0x3f4fcaa3	0.81168574
85	0x3fd02339	1.6260749
86	0x3feb43b8	1.8380041
87	0xbf3caddb	-0.7370278
88	0x3f1ef56b	0.6209323
89	0x3f0f5004	0.5598147
90	0xbe29815f	-0.16553257
91	0x3e2ce669	0.1688477
92	0x3f8299c6	1.0203178
93	0x3cf71d47	0.030165328
94	0xbf60a6f9	-0.8775478
95	0x3e4e9268	0.20173037
96	0xbf285735	-0.6575807
97	0xbebc3d14	-0.3676535
98	0x3e5eaa43	0.21744637
99	0xbf34fc32	-0.7069732
100	0xc06ccd46	-3.700029
101	0xbbf05cfc	-0.0073353034
102	0xc000820b	-2.0079372
103	0xc0f8238c	-7.754339
104	0xc0b47822	-5.6396646
105	0x40251854	2.5796099
106	0xc00edece	-2.232349
107	0xbdf5f5a4	-0.12009743
108	0xc00ab381	-2.167206
109	0x3b6e954a	0.0036404901
110	0x40312cb2	2.768353
111	0xc0abe03a	-5.3711214
112	0xbf4ac799	-0.7921081
113	0x4088b54d	4.2721314
114	0x3f34b893	0.7059414
115	0xbe189d4f	-0.14903758
116	0x3f2a7b47	0.66594356
117	0x3e6ff756	0.23434195
118	0x3ee006ba	0.43755132
119	0xbe189e10	-0.14904046
120	0xc023545f	-2.5520246
121	0xbf037808	-0.5135503
122	0x40304016	2.7539115
123	0x3fb43cc9	1.408105
124	0xbf589945	-0.8460887
125	0xbfd895f8	-1.6920767
126	0x4046a579	3.1038496
127	0x3daac2cf	0.08337938
128	0xc08d518f	-4.416206
129	0x3f51ce75	0.81955653
130	0x3e1e9b0a	0.1548883
131	0x3f24c249	0.64358956
132	0x405f7fd8	3.492178
133	0xbdf893c8	-0.12137562
134	0xc0718a79	-3.7740767
135	0x3f6bb095	0.9206632
136	0xc0340217	-2.8126276
137	0x3f934cff	1.1507872
138	0xbfad5b18	-1.3543425
139	0xc0ccfa87	-6.405582
140	0xbfe308d3	-1.7737068
141	0x400b923f	2.1808012
142	0xbe8f3c1b	-0.27975544
143	0x3fc5f595	1.5465571
144	0x3effd245	0.4996511
145	0xbfef4074	-1.8691545
146	0x3fb4b419	1.4117461
147	0xbf420ea5	-0.75803596
148	0xc0b4feb2	-5.6560907
149	0xbf09aba0	-0.53777504
150	0x3f210102	0.6289216
151	0x3ee3a21c	0.44459617
152	0x3d88a8a6	0.06672792
153	0xbd88099c	-0.06642458
154	0x3f9640e3	1.1738552
155	0xbe9305e1	-0.28715423
156	0x3ea31590	0.31852388
157	0xbf90ad0d	-1.1302811
158	0xbf221a3a	-0.6332127
159	0xbfafa2be	-1.372154
160	0xbf3032cc	-0.6882751
161	0xbfdd3064	-1.7280393
162	0x3f9b787f	1.2146147
163	0xbff7d9d5	-1.9363352
164	0xbc1bf151	-0.0095179835
165	0x3f177a54	0.5917103
166	0xc0807e89	-4.015446
167	0xbff944f7	-1.9474171
168	0x3ffc28ed	1.969999
169	0xbf622c6b	-0.88349026
170	0x3f8c8872	1.097914
171	0x3fc05c76	1.5028217
172	0xbf80e01c	-1.0068393
173	0x3fb0afaf	1.3803614
174	0x3fadc0ea	1.3574498
175	0xc04e9c50	-3.2282906
176	0xbf1e6139	-0.618671
177	0x401c65e3	2.4437187
178	0xbd8dec75	-0.06929866
179	0x401d1245	2.45424
180	0x3f4a564d	0.79037935
181	0xbfb75304	-1.4322209
182	0xbf4e9066	-0.80689085
183	0x3fd4d006	1.6625984
184	0xc0250dcf	-2.5789678
185	0xbfe56671	-1.7921888
186	0x400e3cdd	2.2224648
187	0xbf21ddea	-0.6322924
188	0x3e9b5921	0.30341437
189	0xbf47283b	-0.7779576
190	0x3f005205	0.5012515
191	0x3ed92ff6	0.42419404
192	0xbfdcf0a9	-1.7260944
193	0x3eb5a71a	0.3547905
194	0xc043418a	-3.0508752
195	0xc031d29b	-2.7784793
196	0xc09c69bb	-4.8879066
197	0xc0886d32	-4.2633295
198	0x3f9bc1fe	1.2168577
199	0x40428183	3.0391548
200	0x4021b0b7	2.5264108
201	0x4045d55a	3.091147
202	0x40d859dd	6.7609696
203	0x3fa80695	1.3127009
204	0x403e43c1	2.9728854
205	0x3ffcaf8d	1.9741074
206	0x3fe34902	1.7756655
207	0xc0339d2a	-2.8064675
208	0xc00209f5	-2.0318577
209	0xbffa90c9	-1.9575435
210	0xbf4a5a00	-0.7904358
211	0x3fda5356	1.7056682
212	0xbf76cd98	-0.9640746
213	0x3faa588e	1.3308275
214	0x400186ee	2.0238605
215	0x3fa0d165	1.2563902
216	0xbfa58af6	-1.2933033
217	0x3ed666e4	0.41875374
218	0xbf771d0b	-0.9652869
219	0x3e86ad81	0.26304248
220	0x4140255e	12.009123
221	0x4000261a	2.0023255
222	0xbfd9aaaa	-1.7005208
223	0x40089253	2.133931
224	0xbf29f685	-0.66391784
225	0xbe81df9f	-0.25365922
226	0x3eda299e	0.42609876
227	0xbeed30d1	-0.46326306
228	0x3e36dcaf	0.17857622
229	0x4102154a	8.130198
230	0x3d899802	0.06718446
231	0xbf9d755b	-1.2301439
232	0xbe99689c	-0.29962623
233	0xbfafe78c	-1.3742537
234	0x3ce451b8	0.027870998
235	0xbe64d2fe	-0.22346112
236	0xbeb71ed3	-0.35765705
237	0xbdd181a3	-0.10229804
238	0x400bbfe7	2.1835878
239	0xbdaf7ca5	-0.08568696
240	0x3e37d9b4	0.17954141
241	0x3f6ff13b	0.93727463
242	0x3e000ad5	0.12504132
243	0x3f986616	1.1906154
244	0xbe251653	-0.16121797
245	0xbdec23f5	-0.11530296
246	0x3fe85721	1.815159
247	0xbfb9682b	-1.4484915
248	0x400b2855	2.1743367
249	0x408bf524	4.3736744
250	0x406a34a9	3.6594641
251	0x408b6ab7	4.3567767
252	0xc009920e	-2.1495395
253	0xc056838d	-3.3517792
254	0xc00ebd1b	-2.230292
255	0xc03c65b9	-2.9437087

encoder.encoder.cnnblock1.cnnlayer1.cnn_layer.0.bias f4 [32]
0	0x3f1b0a79	0.60562855
1	0xbeaa4023	-0.33252057
2	0x3ec31106	0.38098925
3	0x3f6ab9fe	0.9169005
4	0xbec3d821	-0.3825083
5	0xbe9eb18f	-0.3099484
6	0xbd8607e3	-0.06544473
7	0xbf7baf35	-0.9831422
8	0xbe8094c0	-0.25113487
9	0x3d9262a9	0.07147724
10	0x3e42bb58	0.19016778
11	0xbe2d7f5d	-0.16943116
12	0x3e107dee	0.14110538
13	0xbe92608a	-0.28589278
14	0xbe51be88	-0.20482838
15	0xbe197350	-0.14985394
16	0xbe4ec155	-0.20190938
17	0xbeb14c40	-0.34628487
18	0xbe8ab29e	-0.270894
19	0x3e24829d	0.1606545
20	0xbe8a8293	-0.27052745
21	0xbee62120	-0.44947147
22	0xbf8c52a9	-1.0962726
23	0x3eaebdd7	0.3412921
24	0x3e70f4c7	0.23530875
25	0x3d3c2a33	0.04593868
26	0x3e81b91a	0.25336534
27	0xbe136320	-0.14393282
28	0x3f8c054e	1.0939119
29	0x3dac908f	0.0842601
30	0x3e27f4ca	0.16401973
31	0xbf562bc3	-0.83660525

encoder.encoder.cnnblock1.cnnlayer1.cnn_layer.1.weight f4 [32]
0	0x40c2268a	6.0672045
1	0x3fd9a5c4	1.7003713
2	0x40366076	2.8496375
3	0x3fc6db23	1.5535625
4	0x3fbddee0	1.4833641
5	0x3fdd15f7	1.7272328
6	0x4076736d	3.850795
7	0x40034614	2.0511522
8	0x4005edd8	2.0926418
9	0x4008653d	2.131179
10	0x3ff8d5f6	1.9440296
11	0x402cdbb0	2.7009087
12	0x3fddf6c4	1.7340932
13	0x40804210	4.0080643
14	0x405146c8	3.2699451
15	0x40a0d5bd	5.026091
16	0x403df5fb	2.9681385
17	0x409e7213	4.951425
18	0x40240dfc	2.5633535
19	0x3fecb6ff	1.8493346
20	0x404ec155	3.23055
21	0x402ed049	2.7314627
22	0x3febcaa4	1.8421216
23	0x40ac937e	5.3930044
24	0x40748a00	3.8209229
25	0x40b3d50d	5.619757
26	0x4008c0e8	2.136774
27	0x40be7a44	5.952425
28	0x40b14019	5.5390744
29	0x4016dd4a	2.3572564
30	0x4051dd39	3.2791274
31	0x40543c8a	3.316195

encoder.encoder.cnnblock1.cnnlayer1.cnn_layer.1.bias f4 [32]
0	0xbe35c101	-0.17749406
1	0xbf25e173	-0.64797133
2	0xbf3c3e7b	-0.7353284
3	0x3f48570f	0.7825784
4	0x3f59d5eb	0.8509204
5	0xbf0a1f7f	-0.5395431
6	0xbe18df37	-0.149289
7	0x3dc89bf2	0.09795369
8	0x3f321e46	0.69577444
9	0xbe50e72a	-0.20400682
10	0x3f172c92	0.59052384
11	0xbea072a4	-0.31337464
12	0xbe85bca5	-0.26120487
13	0x3ec2f577	0.380779
14	0xbfcd0472	-1.6016982
15	0xbe36b04d	-0.17840691
16	0xc000a0a1	-2.009804
17	0x3e204cf2	0.15654352
18	0xbfeb3910	-1.8376789
19	0x3ee818c8	0.45331407
20	0xc0287ee8	-2.6327457
21	0xc022b5bd	-2.5423424
22	0xbf8a7029	-1.0815479
23	0x3e0f88ec	0.14017075
24	0xc01f9a17	-2.49378
25	0x3d83ccdb	0.064355575
26	0xc0274cb3	-2.6140563
27	0x3c3f5715	0.011678477
28	0xbde36cea	-0.11104758
29	0xc08711c6	-4.2209196
30	0xbfface5e	-1.9594228
31	0x3e215c27	0.1575781

encoder.encoder.cnnblock1.cnnlayer1.cnn_layer.1.running_mean f4 [32]
0	0x412b1466	10.69248
1	0xc54bb6bc	-3259.421
2	0x45ea13dd	7490.483
3	0xc52d31f5	-2771.1223
4	0xc3596a45	-217.41512
5	0xc56ad868	-3757.5254
6	0xc4031fe9	-524.4986
7	0x44a29877	1300.7645
8	0x4587ec44	4349.533
9	0xc4a7dacb	-1342.8373
10	0x45894619	4392.762
11	0x4500c3ce	2060.2378
12	0xc5a5bccb	-5303.599
13	0xc343ca8d	-195.79121
14	0x45b54607	5800.7534
15	0xc3d217d5	-420.1862
16	0xc5857a4e	-4271.288
17	0xc1d531fe	-26.64941
18	0x4592d143	4698.1577
19	0xc58c885b	-4497.0444
20	0x45e86887	7437.066
21	0x459fca98	5113.324
22	0xc58d0f3b	-4513.904
23	0xc290e30f	-72.443474
24	0x45956dce	4781.7256
25	0xc32b3b6f	-171.23216
26	0xc5447c84	-3143.7822
27	0xc3c86428	-400.78247
28	0xc37a25f3	-250.14824
29	0xc5321fa4	-2849.9775
30	0x45823a89	4167.317
31	0x44130a3a	588.1598

encoder.encoder.cnnblock1.cnnlayer1.cnn_layer.1.running_var f4 [32]
0	0x47b0272c	90190.34
1	0x478c7214	71908.16
2	0x48bd1ddb	387310.84
3	0x46ff575d	32683.682
4	0x45032946	2098.5796
5	0x47b98c5f	95000.74
6	0x475d95d0	56725.812
7	0x45e411e3	7298.236
8	0x481c12ec	159819.69
9	0x4622cc45	10419.067
10	0x47de6530	113866.375
11	0x47a23d05	83066.04
12	0x4833c0aa	184066.66
13	0x46faf39d	32121.807
14	0x48cdc261	421395.03
15	0x4737a922	47017.133
16	0x47a7756a	85738.83
17	0x4780ab55	65878.664
18	0x47c748cb	102033.586
19	0x4822e69f	166810.48
20	0x48d4381f	434624.97
21	0x47cab76a	103790.83
22	0x47e7f663	118764.77
23	0x47374b5e	46923.367
24	0x47f9c3e4	127879.78
25	0x4757fc68	55292.406
26	0x475fe8ae	57320.68
27	0x4795482e	76432.36
28	0x4763f536	58357.21
29	0x47852c26	68184.3
30	0x4853de4b	216953.17
31	0x470c67a8	35943.656

encoder.encoder.cnnblock1.cnnlayer2.cnn_layer.0.weight f4 [32, 32, 3, 3]
0	0x3f033061	0.51245695
1	0x3eeb6706	0.45977038
2	0x400335c0	2.0501556
3	0xbfd443d7	-1.6583203
4	0x4063c759	3.5590422
5	0x40cbc8d3	6.3682647
6	0x3fd43126	1.6577499
7	0x40efd06b	7.4941916
8	0x409de300	4.93396
9	0x3fb8070f	1.4377154
10	0x3f833531	1.0250608
11	0x3f9085de	1.1290853
12	0xbeac2f08	-0.33629632
13	0xbfc52de2	-1.5404627
14	0xbfab145b	-1.3365587
15	0xbe5dd8bb	-0.21664707
16	0xbfa997bb	-1.324943
17	0xbf51f6ff	-0.8201751
18	0x3ecbc8ae	0.39801544
19	0x3f1746f2	0.5909263
20	0x3ec6fae4	0.3886329
21	0x3f3559dd	0.70840245
22	0x3fa5f6f4	1.2965989
23	0x3fa7a831	1.3098203
24	0x3f6f6b15	0.9352277
25	0x3f6f8df4	0.9357598
26	0xbd428e48	-0.04749897
27	0xc004c9d8	-2.0748196
28	0xc015578f	-2.3334692
29	0xbfdc4659	-1.7208968
30	0xbea837c8	-0.32855058
31	0xbf9f7788	-1.2458353
32	0xbf3b1d2e	-0.730914
33	0x3ff050e0	1.8774681
34	0x400a0348	2.1564503
35	0x400cec95	2.2019398
36	0xbfea4623	-1.8302654
37	0xbfb72890	-1.4309254
38	0x3f833b2d	1.0252434
39	0xbf8ddf5f	-1.1083792
40	0xbfc2cd09	-1.5218822
41	0x3f982f2b	1.1889395
42	0xc0273276	-2.612455
43	0xbf93c471	-1.1544324
44	0x3fe2258c	1.7667708
45	0x3f8f256d	1.1183296
46	0x3f5da55c	0.86580443
47	0x3f7beb32	0.98405755
48	0x3eb33c68	0.35007024
49	0xbf815843	-1.010506
50	0xbf52de0f	-0.82370085
51	0x3e8a9a68	0.27070928
52	0xbedd7b00	-0.43257904
53	0xbe26a635	-0.1627434
54	0x3f8bb158	1.0913496
55	0x3fbe9a0d	1.4890763
56	0x3f3858a2	0.7201024
57	0xbe27605b	-0.1634535
58	0xbe172eaf	-0.14763902
59	0xbf74be40	-0.956028
60	0x3f181a9f	0.5941562
61	0x4011cfcc	2.278308
62	0x3f0b803a	0.54492533
63	0x401347a0	2.3012466
64	0x410c52a0	8.770172
65	0x40859e80	4.175598
66	0x40c9ffe6	6.3124876
67	0x412d121b	10.81692
68	0x3dabf432	0.08396186
69	0xbd790900	-0.0607996
70	0xbe80fbcc	-0.25192106
71	0xbfddcf10	-1.7328815
72	0xbfcbd2c5	-1.5923697
73	0xbf942139	-1.1572639
74	0xbe7c84d5	-0.24660046
75	0x3e68547c	0.22688478
76	0xbdaa7dad	-0.08324752
77	0x3f32486c	0.69641757
78	0x3eeb7897	0.4599044
79	0xbe470e39	-0.1943902
80	0xbea0f12d	-0.31434003
81	0xbfcf206e	-1.6181772
82	0xc0c4ed6e	-6.153983
83	0xc003a340	-2.056839
84	0xc074818d	-3.8204072
85	0xc0fe329c	-7.943678
86	0xbfe5f40c	-1.7965102
87	0x3f598a9f	0.84977144
88	0xbc9e46f1	-0.019320937
89	0x40438e59	3.0555632
90	0xbf0b4661	-0.54404265
91	0xbf8c2e00	-1.0951538
92	0x3e977aeb	0.29585966
93	0x3f80fa4a	1.0076382
94	0x3eedfdca	0.46482688
95	0x3f704fd6	0.9387182
96	0x3f7b7026	0.98218
97	0xbbdef085	-0.0068035745
98	0x3db3832d	0.08765254
99	0xbff2f23a	-1.8980172
100	0x3e8fe04e	0.28100818
101	0x3f3c4e25	0.7355674
102	0x3f9633b2	1.1734526
103	0xbddcfaba	-0.1079001
104	0x4046272b	3.0961406
105	0x3fcad949	1.584756
106	0x3ed62944	0.41828358
107	0x3fe898b0	1.8171597
108	0x3f960ac9	1.1722041
109	0x3f7a892a	0.97865546
110	0x3f7dcc88	0.99140215
111	0x3e9c3d95	0.30515733
112	0xbf38ace4	-0.7213881
113	0xbf5f313b	-0.87184495
114	0xbe424d42	-0.18974784
115	0xbfa2b7cd	-1.2712342
116	0xbf83c74b	-1.0295194
117	0x40a4d1b7	5.1506
118	0x40180ee9	2.37591
119	0xbfbdd81a	-1.4831574
120	0x40047679	2.069731
121	0xbf84efc6	-1.0385673
122	0xbfc5c5ef	-1.545103
123	0xc053445e	-3.3010478
124	0xbf1960f3	-0.5991356
125	0x3f824921	1.0178567
126	0xc015c807	-2.3403337
127	0xc024cc4c	-2.5749693
128	0xc0204be9	-2.5046332
129	0xbf0de36e	-0.55425155
130	0xbe111d89	-0.14171423
131	0xbfb2b038	-1.3960028
132	0xbf88212a	-1.0635121
133	0xbfcf4a7b	-1.6194605
134	0xc00f9424	-2.2434168
135	0xc07edf52	-3.9823804
136	0xc03a2e98	-2.9090939
137	0x3f7c9d19	0.9867721
138	0xc086e953	-4.215982
139	0xc03f829f	-2.9923475
140	0xbfe6e47e	-1.803848
141	0xc026d906	-2.606996
142	0xbf9132df	-1.134365
143	0x3fa7dfc4	1.3115163
144	0xbfc89164	-1.566937
145	0xbff76260	-1.9326897
146	0xbfea19b8	-1.8289099
147	0x3f9dbcc5	1.2323233
148	0xbee1a5a9	-0.440717
149	0xbea7378a	-0.3265956
150	0x4080591f	4.010879
151	0x408f1cc8	4.4722633
152	0x40a2d1f0	5.088127
153	0x3e8b5fe1	0.27221587
154	0x3f96ea5c	1.1790271
155	0x3e6b45bc	0.2297582
156	0x3f9d2a6a	1.2278569
157	0x3e32f54f	0.1747639
158	0x3e1229b3	0.1427372
159	0x401ff130	2.499096
160	0x40800d52	4.001626
161	0x3f359b7c	0.70940375
162	0xc01206ab	-2.281657
163	0xbfec84bc	-1.8478007
164	0xbff50710	-1.914278
165	0xbf36f9fb	-0.7147519
166	0xc01084dd	-2.2581093
167	0xc05fe065	-3.498071
168	0xc027bf10	-2.6210365
169	0xc0afb335	-5.490626
170	0xc0881181	-4.2521367
171	0x3f2fd451	0.68683344
172	0x3f6af28f	0.91776365
173	0x3f4396e9	0.76402146
174	0x3f1ae93d	0.60512143
175	0xbdf1e15f	-0.11810564
176	0xbf0b20cb	-0.54346913
177	0xbe743bec	-0.23850983
178	0xbf6b6826	-0.9195579
179	0xbf8ae49e	-1.0851018
180	0x3fb5e14c	1.420938
181	0x405d9e8d	3.4628022
182	0x400c1ea0	2.1893692
183	0x40889c9e	4.2691183
184	0x4082712b	4.0763144
185	0xbfaee909	-1.3664867
186	0x3e8b11c7	0.27162
187	0xc01a7940	-2.4136505
188	0xc08d1fd3	-4.410135
189	0x4033da0d	2.8101838
190	0x40a70744	5.219637
191	0x4091039f	4.531692
192	0x4085fce4	4.1871204
193	0x409c9647	4.8933444
194	0x405e5aad	3.4742844
195	0x40021663	2.0326164
196	0x3e9f20a5	0.31079593
197	0xbecdbaec	-0.40181673
198	0x3f505cce	0.8139161
199	0x3f170390	0.5898981
200	0x3f8a6b88	1.0814066
201	0x3e57871f	0.21047638
202	0xbfdfa590	-1.7472401
203	0xbf2f528a	-0.6848532
204	0x3edb7840	0.4286518
205	0xbf1f6bd9	-0.6227394
206	0x3eb6a6a5	0.35674015
207	0x3ee8090e	0.45319408
208	0x3c2fdb09	0.010733374
209	0x3f6408a9	0.89075714
210	0x4043da1d	3.0601876
211	0x408cc859	4.3994565
212	0x40680365	3.6252072
213	0x40253a67	2.5816896
214	0x40c184d5	6.047465
215	0x408b60a6	4.355548
216	0x40670bb6	3.6100898
217	0x40ddee8b	6.935369
218	0x40987019	4.763684
219	0x3f7ae107	0.97999614
220	0x3fca9ea4	1.5829663
221	0xbfa51023	-1.289555
222	0xbf87dc8e	-1.0614183
223	0xc01b3eb7	-2.4257028
224	0xc094b288	-4.6467934
225	0x3e1af984	0.15134245
226	0xbdf8832a	-0.121343926
227	0xc0162eb0	-2.3465996
228	0x3f34bf2d	0.7060421
229	0xbfb0ab03	-1.3802189
230	0xc092669d	-4.575026
231	0x3f2a3080	0.66480255
232	0x4011b087	2.2763994
233	0x3f31c5e4	0.6944258
234	0x3f4da13b	0.80324143
235	0x3f2eb73b	0.6824834
236	0x3f5648e7	0.8370499
237	0x3d52617f	0.05136251
238	0xc00af543	-2.1712196
239	0xbfaa8d64	-1.3324399
240	0x3fc65a36	1.549628
241	0x3e49956d	0.19685908
242	0x3fc030b1	1.501486
243	0xbf5c2d50	-0.8600664
244	0xc04bfc85	-3.1872876
245	0xbfb21d94	-1.3915277
246	0xc084ca4f	-4.149696
247	0xc101ffc4	-8.124943
248	0xbffba7e1	-1.9660608
249	0xbf8b1772	-1.086653
250	0xbfe1ef24	-1.7651105
251	0x3fa7a7f8	1.3098135
252	0x3e04215f	0.12903355
253	0xbf972e34	-1.1810975
254	0x3f34816e	0.70509994
255	0xc02ef15a	-2.733481

encoder.encoder.cnnblock1.cnnlayer2.cnn_layer.0.bias f4 [32]
0	0x3fec8c39	1.8480293
1	0x3e22ece9	0.15910687
2	0x3e8a2745	0.26983085
3	0x3d84f211	0.06491483
4	0x3db47ae6	0.088125035
5	0xbf666097	-0.89991134
6	0x3e935ca3	0.28781614
7	0x3f2f9637	0.68588585
8	0x3e2e466b	0.1701905
9	0xbebdfe26	-0.37107962
10	0x3eea883f	0.45807073
11	0xbe877d5c	-0.2646283
12	0x3e92edcf	0.2869706
13	0xbf05c88f	-0.52259153
14	0x3e512816	0.20425448
15	0x3f0272d4	0.50956464
16	0xbea41fee	-0.3205561
17	0x3d28b971	0.041192476
18	0x3ddad9bb	0.1068606
19	0x3ec549d6	0.38532895
20	0xbf262b11	-0.64909464
21	0x3e97a5d0	0.29618692
22	0x3e30f7fa	0.17282096
23	0x3ea66a99	0.32503203
24	0x3e3fd2cf	0.18732761
25	0x3e354fbf	0.17706202
26	0xbea41a14	-0.32051146
27	0x3eb64c79	0.3560522
28	0x3e69081f	0.22757004
29	0x3fcf9e75	1.6220232
30	0x3ec0cccc	0.37656248
31	0x3eb83b02	0.3598252

encoder.encoder.cnnblock1.cnnlayer2.cnn_layer.1.weight f4 [32]
0	0x3f716b93	0.9430477
1	0x3fea1657	1.8288068
2	0x3fffd321	1.9986306
3	0x3fc5f198	1.5464354
4	0x40330366	2.7970824
5	0x40211d7c	2.5174246
6	0x4006c435	2.1057255
7	0x3fe4df94	1.7880731
8	0x400a445f	2.160423
9	0x401c7a8d	2.44498
10	0x40235213	2.5518844
11	0x4029f118	2.6553402
12	0x4094b633	4.647241
13	0x3ff14f4e	1.8852327
14	0x40627957	3.538656
15	0x4053113d	3.2979271
16	0x3fb0fe34	1.3827577
17	0x3fba7f85	1.4570166
18	0x3fa33aab	1.2752279
19	0x402c1adf	2.68914
20	0x3f3e655e	0.74373424
21	0x400d11ec	2.2042189
22	0x3fd964fe	1.6983945
23	0x3fae582d	1.3620659
24	0x404d180a	3.2045922
25	0x4084e000	4.1523438
26	0x3fae8f81	1.3637544
27	0x3fa76f2a	1.30808
28	0x3fcb5cd5	1.5887705
29	0x40a99b16	5.3001814
30	0x3fad64d8	1.35464
31	0x40220703	2.531678

encoder.encoder.cnnblock1.cnnlayer2.cnn_layer.1.bias f4 [32]
0	0x3e98f1c9	0.29871967
1	0xbed575eb	-0.41691527
2	0x3c91d7bb	0.017803064
3	0xbe190404	-0.14942938
4	0x3c34e658	0.011041246
5	0xbed5a6a6	-0.41728705
6	0xbdefcf63	-0.11709478
7	0xbeaf98d1	-0.34296277
8	0xbec0dfaa	-0.37670642
9	0x3e346f17	0.17620502
10	0xbedfeb59	-0.43734244
11	0xbf9f0b18	-1.242526
12	0xc02384bb	-2.5549762
13	0xbf685d55	-0.90767413
14	0xbf5fc2fe	-0.8740691
15	0xbfb2b572	-1.3961623
16	0x3ddc519b	0.107577525
17	0x3e85bafb	0.26119217
18	0x3dcfbb61	0.101431616
19	0xbf8abfbf	-1.0839766
20	0x3ebf0caa	0.3731435
21	0xb711a6ec	-8.681538e-06
22	0xbeb10645	-0.34575096
23	0xbd229dc4	-0.03970124
24	0xbf8ab0ef	-1.0835246
25	0xc010d74c	-2.2631407
26	0xbc60a3ac	-0.013710897
27	0xbe3efa58	-0.18650186
28	0xbe7751a4	-0.24152237
29	0x400a960d	2.1654084
30	0x3e165069	0.14679112
31	0xbe8ccaef	-0.27498576

encoder.encoder.cnnblock1.cnnlayer2.cnn_layer.1.running_mean f4 [32]
0	0x4204228b	33.033733
1	0xc21be4b3	-38.97334
2	0x3faffd69	1.374921
3	0xc13b4180	-11.703491
4	0xc1db8a38	-27.44249
5	0xc16457ba	-14.271418
6	0xc1522162	-13.13315
7	0xc0d37583	-6.6080947
8	0x41293c21	10.57718
9	0xc1a31a96	-20.387981
10	0xc10def99	-8.8709955
11	0xc25b0505	-54.7549
12	0xc2bc1508	-94.04108
13	0xc153d801	-13.240235
14	0xc1e788c1	-28.941774
15	0xc27337bf	-60.80444
16	0xc107603c	-8.460995
17	0x41963b7a	18.779041
18	0x40c6082e	6.1884985
19	0xbdfcabdf	-0.12337469
20	0x421c5475	39.082478
21	0xc21f59ec	-39.837814
22	0xc0cde515	-6.434214
23	0x42070a95	33.760334
24	0xc238afe1	-46.171757
25	0xc29f3f81	-79.62403
26	0x414f7533	12.966113
27	0xc15ac297	-13.672507
28	0xc18169ef	-16.176725
29	0x41344910	11.267838
30	0x3fc64682	1.5490267
31	0x416a0044	14.625065

encoder.encoder.cnnblock1.cnnlayer2.cnn_layer.1.running_var f4 [32]
0	0x459fcf33	5113.9
1	0x46085d6d	8727.356
2	0x45abf229	5502.27
3	0x4593d01b	4730.013
4	0x4677087a	15810.119
5	0x46a88ab3	21573.35
6	0x45e7ffd8	7423.9805
7	0x453cc19e	3020.101
8	0x45fbd002	8058.001
9	0x462c2e95	11019.6455
10	0x45e9aa82	7477.3135
11	0x46718e58	15459.586
12	0x4738b3af	47283.684
13	0x461ae2bd	9912.685
14	0x46da8f31	27975.596
15	0x46b91056	23688.168
16	0x45823fd9	4167.981
17	0x44ebad71	1885.42
18	0x45a4952a	5266.6455
19	0x456a267a	3746.4048
20	0x45449b92	3145.7231
21	0x4611ea04	9338.504
22	0x4589d20c	4410.256
23	0x45b938f1	5927.1177
24	0x46efc004	30688.008
25	0x46dfcc09	28646.018
26	0x454d6f2e	3286.9487
27	0x45c4e98b	6301.193
28	0x45f8145d	7938.5454
29	0x477a8654	64134.33
30	0x4591a432	4660.5244
31	0x4682f7b2	16763.848

encoder.encoder.cnnblock2.cnnlayer1.cnn_layer.0.weight f4 [64, 32, 3, 3]
0	0xbf72fb6e	-0.949149
1	0xbfb36583	-1.4015354
2	0xbfc60d7d	-1.5472866
3	0xbfa3dcdd	-1.2801777
4	0xc03df320	-2.9679642
5	0xbfc63811	-1.548586
6	0xbd66ecce	-0.05637818
7	0x3d585ab7	0.052820887
8	0x3de935ad	0.11387191
9	0xbf2c2475	-0.6724313
10	0xbe6124bf	-0.21986674
11	0xbe850be6	-0.2598564
12	0xbfaade19	-1.3349029
13	0xbee559a6	-0.4479496
14	0xbff7c879	-1.9358054
15	0x3f0d51ca	0.55202925
16	0x3e4a6c51	0.19767882
17	0x3eee538a	0.4654811
18	0xbf1d8ae4	-0.61540055
19	0x3edd9d49	0.43284062
20	0xc05e520d	-3.473758
21	0x3f4ff27f	0.81229395
22	0xbf22534f	-0.6340837
23	0xbf739a42	-0.95157254
24	0x3f11cf5c	0.5695703
25	0x400c08e5	2.1880429
26	0xbff69c4e	-1.926645
27	0x3dcd743f	0.10031938
28	0x4025cbe3	2.5905693
29	0xbf4abba2	-0.79192555
30	0xbf810178	-1.0078573
31	0x3e9a4f23	0.30138502
32	0x3c270512	0.01019408
33	0xbf5713b4	-0.8401444
34	0x3f004285	0.501015
35	0xc0209861	-2.5093005
36	0xbf464c49	-0.7746015
37	0xc0129eac	-2.2909346
38	0xc09d3b5e	-4.913497
39	0xbef1d84a	-0.47235328
40	0x3e6532e4	0.22382694
41	0x3f1bc7d3	0.6085178
42	0xbe4a08a7	-0.19729863
43	0x3ef8e121	0.4860926
44	0xbf93f77e	-1.1559904
45	0x3e8a655a	0.2703045
46	0x3f6e4b4b	0.9308364
47	0x3fd60e61	1.6723138
48	0x3d173e8a	0.036924876
49	0x3ee92b41	0.45540813
50	0x40366235	2.849744
51	0xbf8b86bf	-1.0900496
52	0xc0024c36	-2.0359015
53	0xbfc0cec7	-1.5063103
54	0xbe492a91	-0.19645144
55	0xbf4c72d2	-0.798627
56	0xbf6b9bd9	-0.9203468
57	0x403edd4e	2.9822574
58	0x41297426	10.590857
59	0x410906eb	8.564189
60	0x3f5eb7bb	0.869991
61	0x4006ae8f	2.1044042
62	0x3f39a5a5	0.7251838
63	0xbf2bd580	-0.6712265
64	0x4085e720	4.1844635
65	0xbe84afcd	-0.25915375
66	0x3f94252d	1.1573845
67	0x40cff11d	6.498183
68	0xc0568cee	-3.3523517
69	0xbfb28ec5	-1.394982
70	0x4051500d	3.270511
71	0x3ebc6210	0.36793566
72	0xbe90ba2f	-0.28267047
73	0x3ec509e2	0.38484102
74	0x3e82abdf	0.25521752
75	0xbd8ed57d	-0.069743134
76	0x3fca8366	1.582135
77	0x408a60ad	4.3243012
78	0x3d95ab43	0.07308056
79	0x3f582dac	0.8444469
80	0xbf07a481	-0.5298539
81	0xbe834ce3	-0.25644597
82	0xbf786479	-0.9702831
83	0xc05192e3	-3.2745903
84	0xbe273cf3	-0.16331844
85	0xbf7b111d	-0.9807299
86	0xc06068fe	-3.5064082
87	0x3f34f24a	0.70682204
88	0x3fa815a4	1.3131604
89	0xbf66c6a7	-0.9014687
90	0x3e931816	0.28729314
91	0x3f441781	0.76598364
92	0xc0bba1c0	-5.863495
93	0x3f9c7523	1.2223247
94	0xbf186b8b	-0.595391
95	0xc0bc7f48	-5.8905373
96	0x3fbe6998	1.4875975
97	0x3f264f4a	0.64964736
98	0x3d9b3fc8	0.07580525
99	0x3f289725	0.6585563
100	0x3fe0f363	1.7574276
101	0x3fd29637	1.6452092
102	0x3d5fac6a	0.054607786
103	0x3d80701a	0.06271382
104	0xbf985d89	-1.1903545
105	0xbee882de	-0.45412344
106	0x3e96990c	0.2941364
107	0xbe99def9	-0.30052927
108	0xbfc27498	-1.5191832
109	0x3f40ea58	0.7535758
110	0x3f5d333b	0.86406296
111	0xbfa3fd24	-1.2811627
112	0x3ff72052	1.9306738
113	0x40c1fcbd	6.062102
114	0xbf903636	-1.1266544
115	0x4011b33f	2.2765653
116	0x400167ac	2.0219526
117	0xc02dfbda	-2.7184968
118	0xbfdee9b9	-1.7415076
119	0xc062e4de	-3.545219
120	0x400d3408	2.2063007
121	0x4070694a	3.7564263
122	0xbed80697	-0.42192528
123	0x3f8a1b1d	1.0789524
124	0x404dec3e	3.217544
125	0x3f8f8b9a	1.1214478
126	0xbfc451aa	-1.5337422
127	0x3e8a0bb2	0.26962048
128	0x3f7322c2	0.9497491
129	0xc017fb06	-2.3746963
130	0x3fbe22a8	1.4854326
131	0x409cf27e	4.904601
132	0xc02a5d82	-2.6619573
133	0xbfdc81c4	-1.7227101
134	0xbf1b47ca	-0.60656416
135	0x3f9b7bdf	1.2147177
136	0x3e367d47	0.17821227
137	0x3fed11b0	1.8521023
138	0x3eb15807	0.34637472
139	0x3f958be9	1.1683322
140	0x40af963e	5.48709
141	0xbfabd176	-1.3423297
142	0xc024b78a	-2.5737023
143	0xbfeeebce	-1.8665712
144	0xbfd5513f	-1.6665419
145	0xc0092a5e	-2.143211
146	0xc0363892	-2.8472028
147	0xbfd4e1ce	-1.663141
148	0x3fecdbab	1.8504537
149	0xc02a8e8c	-2.6649504
150	0xbfae4352	-1.3614295
151	0x3e2069ee	0.15665409
152	0xc03dbe81	-2.9647524
153	0xba5b1e8a	-0.00083587377
154	0xbffefc78	-1.9920797
155	0x3fa27298	1.2691221
156	0xbf914c0e	-1.1351335
157	0xbf56c413	-0.83892936
158	0xc02dd99a	-2.7164063
159	0xbda65963	-0.08122518
160	0xbebd90d0	-0.37024546
161	0x4032c263	2.7931144
162	0xbf3b56c8	-0.7317929
163	0x3eb6cd6a	0.35703593
164	0xbf92d0fe	-1.1470029
165	0x40213c48	2.5193043
166	0x403f6f0d	2.991153
167	0x404e0929	3.219309
168	0xbe82b783	-0.25530633
169	0xbf699e04	-0.9125674
170	0xbdb52b66	-0.08846168
171	0xbe362e88	-0.17791188
172	0x40468956	3.1021323
173	0x404c21a0	3.1895523
174	0x3e5638b9	0.20920075
175	0xbffca553	-1.9737953
176	0x40367f4c	2.8515196
177	0xbfc2f81c	-1.5231967
178	0xbf46d528	-0.77669
179	0xbf35f385	-0.71074706
180	0xbf4ceddf	-0.8005046
181	0x3f2b33c5	0.6687587
182	0xbfb02154	-1.3760171
183	0xbf8f395c	-1.118938
184	0x40008c94	2.0085802
185	0xc05058a3	-3.25541
186	0x3f243b51	0.6415301
187	0x40172429	2.361582
188	0x3f355e3f	0.70846933
189	0xbfd3d069	-1.6547977
190	0xc01be9cd	-2.436145
191	0xc069d2d0	-3.653492
192	0x3f6b423a	0.9189793
193	0x4103eebc	8.245785
194	0x3ea99c32	0.3312698
195	0x4001b0e9	2.0264227
196	0x4032373c	2.7846212
197	0xbf407e0f	-0.7519235
198	0x3f975c83	1.1825107
199	0x402a28a6	2.658731
200	0xbff7c180	-1.9355927
201	0x3e9ee478	0.31033683
202	0xc07b0393	-3.9220932
203	0xc06e36c9	-3.7220938
204	0x3fdf339f	1.7437629
205	0xbff0fb66	-1.8826721
206	0x3f407239	0.7517429
207	0xbeeb40a3	-0.4594775
208	0x3eb70ad5	0.35750452
209	0xbe5191d9	-0.20465793
210	0xbf53648d	-0.82575303
211	0xbf9fa7ca	-1.247308
212	0xbd79965c	-0.06093441
213	0xbf04b0bd	-0.5183218
214	0xbf473892	-0.77820694
215	0x3f220d35	0.633014
216	0x3e339df0	0.17540717
217	0x3fd88851	1.69166
218	0x3ff7fe74	1.9374528
219	0x3d76cc0e	0.060253195
220	0x3fa904d6	1.3204601
221	0x40188242	2.3829503
222	0xbfa84e7d	-1.3148953
223	0xbf8dedca	-1.1088192
224	0xbea1ee7d	-0.31627265
225	0xbf7d1194	-0.9885495
226	0xbd8d4e5c	-0.068997115
227	0x3db67914	0.089098126
228	0xc0463a56	-3.0973105
229	0xc01ca5c9	-2.4476187
230	0x40902e8e	4.505683
231	0xc06aa7ad	-3.666484
232	0xc053ade9	-3.3074896
233	0xc0049caa	-2.072062
234	0xc036084b	-2.8442562
235	0x3ebbaea9	0.36656693
236	0xbfc5b165	-1.5444762
237	0x3fadaa24	1.3567548
238	0x40a70380	5.2191772
239	0x403197e6	2.7748961
240	0xbf855918	-1.0417814
241	0x3fcabd4c	1.5839019
242	0xbe53119b	-0.20612185
243	0x3f57fa7b	0.8436658
244	0xbeb5f98d	-0.35541955
245	0x3ea7abac	0.32748163
246	0xbde4b036	-0.11166422
247	0x40221931	2.5327876
248	0xbfcc9369	-1.5982486
249	0xbeb30e0a	-0.34971648
250	0x404b9044	3.1806803
251	0xc0379f25	-2.8690884
252	0xc02328ff	-2.5493772
253	0xbf33e329	-0.70268494
254	0xc09906a6	-4.7820616
255	0xc00cff10	-2.2030678

encoder.encoder.cnnblock2.cnnlayer1.cnn_layer.0.bias f4 [64]
0	0x3e78bf7d	0.24291797
1	0x3e0eec23	0.13957267
2	0x3f0733fa	0.52813685
3	0xbe2d911a	-0.16949883
4	0xbe71a402	-0.2359772
5	0xbe2396f6	-0.15975556
6	0x3e852e34	0.26011813
7	0x3bb37201	0.005476237
8	0xbf7e64df	-0.9937267
9	0x3e04d243	0.12970833
10	0x3e6dfd03	0.23241048
11	0x3e4fe4b3	0.20302086
12	0xbd41a567	-0.04727688
13	0x3e5a5d70	0.21324706
14	0x3ec2574f	0.37957236
15	0xbeb9168b	-0.3615001
16	0x3ea7479e	0.32671827
17	0x3e9776a0	0.2958269
18	0xbe2f9089	-0.1714498
19	0x3def2c17	0.11678331
20	0x3e7df471	0.24800278
21	0x3d90c840	0.07069445
22	0xbbaf22ee	-0.00534474
23	0xbd5e0f99	-0.054214094
24	0xbe1f9ae8	-0.15586436
25	0xbd51ddc3	-0.05123688
26	0xbe81ffa4	-0.2539035
27	0xbe6d9df6	-0.23204789
28	0xbdd7d6c8	-0.10539013
29	0x3e063411	0.131058
30	0x3e339313	0.17536573
31	0x3e82a2db	0.25514874
32	0xbedbf8d0	-0.42963266
33	0xbe9eafb5	-0.3099343
34	0x3db5d632	0.08878745
35	0xbdc243e4	-0.09485605
36	0x3dd15d1f	0.102228396
37	0xbe59bd59	-0.21263637
38	0x3f2d6a1b	0.6774003
39	0xbea84feb	-0.32873473
40	0x3e5ef953	0.21774797
41	0xbee9d48c	-0.45669973
42	0xbd9db327	-0.07700186
43	0xbe3591bb	-0.17731373
44	0x3e209db6	0.15685162
45	0x3ec868bc	0.39142406
46	0xbe5b517c	-0.21417803
47	0xbe31534c	-0.17316931
48	0x3f2fa2c6	0.6860775
49	0x3edcca1e	0.43122953
50	0xbe52590e	-0.20541784
51	0xbde57fe2	-0.11206032
52	0x3df3f37b	0.119116746
53	0x3e216ae7	0.15763436
54	0xbe8f69ec	-0.280105
55	0xbdbbf3c8	-0.09177357
56	0x3de6f1c6	0.112765834
57	0x3e1105fa	0.14162436
58	0xbd6f1336	-0.05836793
59	0x3f255c16	0.64593637
60	0x3cd55ff1	0.026046725
61	0x3e52e67a	0.20595732
62	0xbe0c08a8	-0.13675177
63	0xbee09d9f	-0.43870255

encoder.encoder.cnnblock2.cnnlayer1.cnn_layer.1.weight f4 [64]
0	0x407c4104	3.9414682
1	0x3fc0f869	1.5075809
2	0x40670376	3.6095862
3	0x3ffbbb0e	1.966646
4	0x40cc5aed	6.3860993
5	0x40636ba6	3.5534453
6	0x402119ac	2.517192
7	0x406e9a45	3.7281659
8	0x40ca699f	6.325393
9	0x400fa8e0	2.2446823
10	0xc08d30cf	-4.412208
11	0x408eb878	4.460018
12	0x400431c3	2.0655372
13	0x402b3b59	2.6754973
14	0x40a102f6	5.0316114
15	0x4040229c	3.0021124
16	0x400ef59c	2.2337408
17	0x3fc5a981	1.5442353
18	0x3ff99ca1	1.9500924
19	0x40d3555f	6.6041713
20	0x401deb93	2.4675033
21	0x40791a55	3.8922322
22	0x3fc60884	1.5471349
23	0x4026c990	2.6060524
24	0x3fc98a4c	1.574533
25	0x405d42c2	3.4571996
26	0x4003e907	2.0610979
27	0x3fe1d13a	1.7641976
28	0x3fd89930	1.6921749
29	0xc0dd7419	-6.920422
30	0x400639cc	2.0972776
31	0x404132cd	3.0187256
32	0x3ff394e6	1.9029815
33	0x408bc75a	4.368085
34	0x3fddeb0a	1.7337353
35	0x406fd6b6	3.74748
36	0x3fcb42ab	1.587972
37	0x40217f73	2.523404
38	0x40cf7396	6.4828596
39	0x40b6c900	5.712036
40	0x3fbfe7b4	1.4992585
41	0x404d90a2	3.2119527
42	0x40688fc1	3.633774
43	0x40327564	2.788415
44	0x40733fa9	3.8007605
45	0x40163d7e	2.3475032
46	0x4029fede	2.6561809
47	0x40022bd9	2.0339262
48	0x4035a70b	2.8383205
49	0x4007fa59	2.124655
50	0x406bcfbb	3.6845539
51	0x3ff16ffa	1.8862298
52	0x40303798	2.7533932
53	0x40636fac	3.553691
54	0x3fc67cda	1.5506852
55	0x403a34a1	2.9094622
56	0x401bde0b	2.4354274
57	0x3fcdd6a4	1.6081128
58	0x407e7d89	3.976412
59	0x40211b9f	2.5173109
60	0x407acd06	3.9187636
61	0x401dfd69	2.468592
62	0x3fc5a79b	1.5441774
63	0x40032ae6	2.0494933

encoder.encoder.cnnblock2.cnnlayer1.cnn_layer.1.bias f4 [64]
0	0xc0372f3c	-2.862258
1	0x3eb8eb91	0.36117223
2	0xbf147038	-0.5798373
3	0xbd5387e6	-0.051643275
4	0xc0208072	-2.5078397
5	0xbea0e77e	-0.31426615
6	0x3dcd6e6d	0.10030828
7	0xbe68890e	-0.22708532
8	0xc0392874	-2.893094
9	0xbef48a66	-0.4776184
10	0xc06d67a3	-3.7094505
11	0xbf9c4f03	-1.2211612
12	0xbfe8ad98	-1.8177977
13	0xbf8e0b0a	-1.1097119
14	0xbfa52269	-1.2901126
15	0xbe11432f	-0.14185785
16	0x3d8ac32d	0.06775508
17	0x3e0c915a	0.13727322
18	0xbd58978a	-0.052878894
19	0xc0bd372f	-5.9129863
20	0x3e548b8d	0.2075636
21	0xc00ad930	-2.169506
22	0x3ea069cd	0.3133072
23	0xbf49d59d	-0.78841573
24	0x3dbf4998	0.09340209
25	0xbcd5e19f	-0.026108561
26	0x3cc43be2	0.023954336
27	0xbfa82d6d	-1.3138863
28	0x3ed62185	0.41822448
29	0xc0867557	-4.2018237
30	0x3fa0b171	1.2554151
31	0xbf35bee0	-0.7099438
32	0x3de50280	0.111821175
33	0xc08a34ce	-4.318946
34	0x3e0c4e7c	0.13701814
35	0xbf87dc7f	-1.0614165
36	0x3eafd811	0.34344533
37	0xbdadcca1	-0.084862955
38	0xc04b08e6	-3.172418
39	0xbfa74fa2	-1.3071177
40	0x3e274f92	0.16338947
41	0x3f8ccccd	1.1
42	0xbede15f2	-0.43376118
43	0x3d7f2bcb	0.062297624
44	0xbfbd61d4	-1.479548
45	0xbc3db43f	-0.011578619
46	0x3e208296	0.15674815
47	0xbf61c2e0	-0.8818798
48	0xbf05ad36	-0.52217424
49	0xbe891f9d	-0.26781932
50	0xbe680789	-0.22659124
51	0xbe428cbc	-0.18998998
52	0xbf9e2b0f	-1.235689
53	0xbf0a251a	-0.5396286
54	0x3d57677e	0.052588932
55	0xbf58a48e	-0.8462609
56	0xbf877c41	-1.0584794
57	0x3ffc3580	1.9703827
58	0xbf85151a	-1.0397065
59	0x3e4e29de	0.20133159
60	0xbf35ea6d	-0.7106083
61	0xbed847b9	-0.4224222
62	0x3e8ae4db	0.27127728
63	0x3d8c7a2d	0.06859241

encoder.encoder.cnnblock2.cnnlayer1.cnn_layer.1.running_mean f4 [64]
0	0xc1ee4a55	-29.786295
1	0x420852b7	34.080776
2	0xc22598d3	-41.399242
3	0xc0d67db1	-6.702843
4	0x40afa369	5.4886975
5	0xc20a76f8	-34.61618
6	0x419d75b7	19.682478
7	0xc0aee2fc	-5.465208
8	0xc25ee6af	-55.725277
9	0xc1ad05bf	-21.627806
10	0x416fe787	14.994025
11	0xc27eeb49	-63.72977
12	0x417ef6a7	15.935218
13	0xc2567ca1	-53.621708
14	0xc243a97f	-48.915524
15	0xc0466892	-3.1001325
16	0xc1b7469b	-22.909475
17	0x41f21bf6	30.263653
18	0x41a1fad8	20.247482
19	0xc29cec6a	-78.46175
20	0x4118d72f	9.552535
21	0xc200e847	-32.226833
22	0x41e15a66	28.16914
23	0xc1831138	-16.383408
24	0x41771521	15.442658
25	0xc0d37a02	-6.6086435
26	0x4111807d	9.093869
27	0x422624b2	41.535835
28	0x41e68d8a	28.81911
29	0x43114ec1	145.30763
30	0x4262063f	56.5061
31	0xc171895f	-15.096038
32	0xbe6158d2	-0.22006539
33	0xc24ec215	-51.689533
34	0x40f38641	7.6101384
35	0xc1c11eb5	-24.139994
36	0x420dbf65	35.43691
37	0xbf6e2ff9	-0.9304195
38	0xc2372fc9	-45.796665
39	0x410227b7	8.134696
40	0x41cd2201	25.641603
41	0xc0c19c01	-6.0502934
42	0x3f0a13ad	0.5393627
43	0x40655c4c	3.5837584
44	0x402c10c2	2.6885228
45	0xc038d291	-2.887852
46	0x41eeab7d	29.833735
47	0xc049e2c1	-3.154465
48	0xc12fc321	-10.985139
49	0xc1b52469	-22.642778
50	0xc28b7289	-69.7237
51	0x40e31ebe	7.0975027
52	0xc244ac28	-49.16812
53	0xc19920f1	-19.141085
54	0x425a8d80	54.638184
55	0xc21bdab7	-38.96359
56	0xc20df0ee	-35.485283
57	0xc2c0b331	-96.34998
58	0xc12d46b6	-10.829763
59	0x40128b0a	2.2897363
60	0xc1d89a71	-27.07541
61	0xc140ae1e	-12.042509
62	0x423c0025	47.00014
63	0xc0ba46f0	-5.8211594

encoder.encoder.cnnblock2.cnnlayer1.cnn_layer.1.running_var f4 [64]
0	0x44f1520a	1930.5637
1	0x467b3227	16076.538
2	0x46780e0a	15875.51
3	0x46279911	10726.267
4	0x44981549	1216.6652
5	0x46b37490	22970.281
6	0x45afc2f8	5624.371
7	0x463ce74b	12089.823
8	0x461ddddc	10103.465
9	0x45d5c9ac	6841.209
10	0x466ef7a3	15293.909
11	0x46721717	15493.772
12	0x460f1e4f	9159.577
13	0x45f328c2	7781.0947
14	0x46bf4508	24482.516
15	0x44e9af49	1869.4777
16	0x458dcb39	4537.403
17	0x46939ac6	18893.387
18	0x45b47166	5774.175
19	0x45b35d28	5739.6445
20	0x45626918	3622.5684
21	0x4513d31a	2365.1938
22	0x4686942a	17226.082
23	0x4613741b	9437.026
24	0x46636ee6	14555.725
25	0x453f6062	3062.024
26	0x45d2a3db	6740.482
27	0x465420ca	13576.197
28	0x4624c280	10544.625
29	0x4731172b	45335.168
30	0x4615a3e2	9576.971
31	0x45bbc8ef	6009.1167
32	0x45f5b32c	7862.3965
33	0x458ee0a4	4572.08
34	0x463f9b36	12262.803
35	0x469242ae	18721.34
36	0x46967c51	19262.158
37	0x44fb19cf	2008.8065
38	0x4607e3b8	8696.93
39	0x449eb2de	1269.5896
40	0x468a1c37	17678.107
41	0x45dd0ac5	7073.346
42	0x4506827d	2152.1555
43	0x45087c53	2183.7703
44	0x459a585e	4939.046
45	0x45193885	2451.5325
46	0x463ac126	11952.287
47	0x463aa8b7	11946.179
48	0x45426785	3110.47
49	0x4686bd2b	17246.584
50	0x470aed50	35565.312
51	0x469f4609	20387.018
52	0x46577d08	13791.258
53	0x4530cb02	2828.688
54	0x46cc3432	26138.098
55	0x4600369e	8205.654
56	0x461402f2	9472.736
57	0x46132e6f	9419.608
58	0x4557931d	3449.1946
59	0x452e7a1f	2791.6326
60	0x46a988e7	21700.451
61	0x455fd25d	3581.1477
62	0x46b59c89	23246.268
63	0x45235b00	2613.6875

encoder.encoder.cnnblock2.cnnlayer2.cnn_layer.0.weight f4 [64, 64, 3, 3]
0	0x3f983cc2	1.1893542
1	0xbec83133	-0.39100036
2	0x3f3fce37	0.74924034
3	0x3ffb2cdb	1.9623064
4	0x405cf127	3.4522188
5	0x4029f37c	2.655486
6	0xbf1544bb	-0.58308
7	0xbec8aceb	-0.39194426
8	0x3f73cc29	0.952334
9	0x3e3853ea	0.1800076
10	0x3e423160	0.18964148
11	0x3f0bd3af	0.5461988
12	0x3de26aa2	0.11055495
13	0x3f69f518	0.9138961
14	0x3fffe08b	1.99904
15	0xbe5fb38d	-0.21845837
16	0xbecc29ad	-0.39875546
17	0xbe436756	-0.19082388
18	0xbe33633c	-0.17518324
19	0xbf2b0bc2	-0.66814816
20	0xbfaa8653	-1.3322242
21	0xbf42824c	-0.7598007
22	0xc086996d	-4.2062287
23	0xc08591ca	-4.1740465
24	0xbebbb71c	-0.3666314
25	0xbfb24eb8	-1.3930273
26	0xbf2fd32f	-0.68681616
27	0xbd32ac11	-0.043621127
28	0xbf999dc4	-1.2001271
29	0x3f731ece	0.9496888
30	0xbef67c01	-0.48141482
31	0xc09936da	-4.7879457
32	0x3e6fcd0f	0.23418067
33	0xbde4bfc6	-0.111693904
34	0xbd39e73c	-0.045386538
35	0xbf9e6e61	-1.2377435
36	0xbf219b59	-0.63127667
37	0xbf8b4b64	-1.0882382
38	0xbeecaaff	-0.4622421
39	0xbfa09455	-1.2545267
40	0xc0b09c35	-5.5190682
41	0xbf0f98fb	-0.56092805
42	0xbf307e70	-0.6894293
43	0xbfbe6d2e	-1.4877069
44	0xbfc0af29	-1.5053455
45	0xbf24fb92	-0.64446366
46	0xbf9cfeef	-1.22653
47	0xc00bb5e8	-2.1829777
48	0xbfa0098b	-1.2502912
49	0xc0d4bccc	-6.6480465
50	0xc0ac6ba8	-5.3881416
51	0xbef62bcd	-0.48080292
52	0xbfe96ffb	-1.8237299
53	0xbfcad379	-1.5845786
54	0x3ec764a5	0.38943973
55	0x3f11f41c	0.57013106
56	0x3f0605c0	0.52352524
57	0x3e8d49db	0.2759541
58	0x3eaf5247	0.3424246
59	0x3ee38c8e	0.44443172
60	0x3e8d6f22	0.2762385
61	0x3e7541fb	0.23950951
62	0x3e8858d3	0.26630268
63	0xbe7d0400	-0.24708557
64	0xbf2cb575	-0.6746438
65	0xbfc1f6f2	-1.5153487
66	0xbd9b4cec	-0.07583031
67	0xc0b833d8	-5.7563286
68	0xc0b44af4	-5.6341496
69	0x3dca37c0	0.09873915
70	0x3e4b0262	0.19825128
71	0xbe1d7656	-0.15377173
72	0xc06e9db9	-3.7283766
73	0xc0f76a7d	-7.731749
74	0xbfe785c0	-1.8087692
75	0x3f459e81	0.7719498
76	0xbf9f5529	-1.2447864
77	0x3e4eeb48	0.2020694
78	0xbe21c14b	-0.15796392
79	0x3dfe955d	0.124308325
80	0x3f11d93a	0.56972086
81	0xbe8b0252	-0.27150208
82	0xbf0201b5	-0.50783855
83	0xbea04302	-0.31301123
84	0xbdad1df4	-0.08452979
85	0xc0035c16	-2.0524955
86	0x406ab58c	3.6673307
87	0x3c86c2e1	0.016450347
88	0xbefbb3ef	-0.49160716
89	0xbe91dfe5	-0.2849113
90	0x3f8d48e4	1.103787
91	0x3fe4ae14	1.7865624
92	0x3f6a90eb	0.9162738
93	0x3e8072ef	0.25087687
94	0x3f9314ad	1.1490685
95	0x3f0b3899	0.54383236
96	0x3f71054a	0.94148695
97	0x3f426725	0.75938636
98	0x4012bcd0	2.2927742
99	0xbf28b932	-0.65907586
100	0xbf738c73	-0.95136184
101	0xbfd497a4	-1.6608777
102	0x3e3f1b8e	0.18662855
103	0xc0da266b	-6.8171897
104	0xc0a4f120	-5.154434
105	0x3c811ce2	0.015760843
106	0x3e630209	0.22168745
107	0xbf3808cd	-0.7188843
108	0xbe0f75b4	-0.14009744
109	0xbea4826a	-0.32130748
110	0x3f5c99e3	0.8617231
111	0xbfa01501	-1.250641
112	0xc05a77aa	-3.4135537
113	0x3d86917d	0.065707184
114	0xbf5f9b48	-0.87346315
115	0xbff38472	-1.9024794
116	0xbff38e5b	-1.9027818
117	0x3ff17be9	1.8865939
118	0x3f923ea8	1.1425371
119	0xbee5cbdf	-0.44882104
120	0x3fe7774a	1.8083279
121	0x400012e8	2.001154
122	0xbf388ebb	-0.7209279
123	0xbf01a988	-0.5064931
124	0x3f8e1bf4	1.1102281
125	0x3ea7d73f	0.32781407
126	0xbf2700bc	-0.65235496
127	0xbfb4e1d6	-1.413142
128	0xc0441f9b	-3.064429
129	0x3ef6a886	0.48175448
130	0xc0c90e45	-6.282992
131	0xc0a848b2	-5.258874
132	0x3ddfe2fd	0.109319665
133	0x3f22a2f4	0.63529897
134	0xbe7c29b8	-0.2462529
135	0xbd0b2d63	-0.03397883
136	0xbd325ca0	-0.043545365
137	0xbe7d511e	-0.24737975
138	0xbe611a31	-0.21982647
139	0x3e9519d1	0.2912126
140	0x3d863789	0.06553561
141	0xbe173543	-0.14766411
142	0x3ef517b6	0.47869653
143	0x3aa422b6	0.0012522552
144	0xbd98280d	-0.07429514
145	0xbf84fec5	-1.039025
146	0x3ea30056	0.31836194
147	0xbf2d11de	-0.6760539
148	0xbfea8ed0	-1.8324833
149	0x3f7c9048	0.98657656
150	0xbe604100	-0.21899796
151	0xbf00a82c	-0.5025661
152	0xbf0ad37a	-0.5422894
153	0x3ecb0411	0.3965154
154	0x3fb62ff0	1.4233379
155	0x3fb47575	1.4098345
156	0x3f1e3fec	0.6181629
157	0x402a2500	2.6585083
158	0x402cba8b	2.6988857
159	0xbddd2a99	-0.107991405
160	0xb99acf42	-0.00029527588
161	0xbec59af7	-0.3859479
162	0xbe37e197	-0.1795715
163	0xbfafcbe1	-1.3734094
164	0xbfa251df	-1.2681235
165	0x3e6e5452	0.23274353
166	0xbacac0aa	-0.0015468795
167	0xbf0cf757	-0.5506491
168	0xbe296f9c	-0.16546482
169	0xbe248b37	-0.16068731
170	0xbf25616b	-0.64601773
171	0x3ed083cf	0.40725562
172	0x3c2cfdfd	0.010558602
173	0x3f177e42	0.5917703
174	0xbde4be51	-0.111691125
175	0x3f998a32	1.1995299
176	0x401204f5	2.2815526
177	0x3d5bce77	0.053663697
178	0x3e828b2d	0.25496808
179	0x3eb43514	0.35196745
180	0xbf50ddff	-0.8158874
181	0xbf75f3f3	-0.9607536
182	0xbf7bf1a9	-0.9841562
183	0x3e76cba1	0.24101116
184	0x3f068910	0.5255289
185	0x3e808438	0.25100875
186	0xbe809c9c	-0.25119483
187	0x3de6bb11	0.11266149
188	0xbe084d10	-0.13310647
189	0xbd3be47f	-0.045872208
190	0x3f244de6	0.64181364
191	0x3f1d41bd	0.61428434
192	0x3dd7ca7a	0.10536666
193	0xbe9acc4c	-0.3023399
194	0xbf6f140c	-0.93389964
195	0xbde5d015	-0.11221329
196	0xbeb313a4	-0.34975922
197	0xbf282c88	-0.6569295
198	0x3eed54f0	0.46353865
199	0x3f3a7ba9	0.7284494
200	0x3f291983	0.6605455
201	0x3f589016	0.8459486
202	0x4039fecd	2.9061768
203	0x40511711	3.2670329
204	0x3ea75556	0.32682294
205	0x3f0bf03d	0.5466345
206	0xbc08e5fc	-0.008355614
207	0x3ec65141	0.38733867
208	0x3fc126ab	1.5089926
209	0x3ff9d2e8	1.9517488
210	0xbdc678bc	-0.09690997
211	0x40beea1c	5.966078
212	0x410451c0	8.2699585
213	0xbf7a3921	-0.9774342
214	0x3ef06fc5	0.46960273
215	0x402def37	2.7177255
216	0x3de8033a	0.113287404
217	0x3e949c77	0.29025623
218	0x3fc9b054	1.5756936
219	0xbea611c5	-0.32435432
220	0x3cc5957c	0.024119131
221	0x408c4196	4.383006
222	0xbebe3058	-0.37146258
223	0xbf020586	-0.5078968
224	0x3dc9cc55	0.09853426
225	0xbe5a9064	-0.21344143
226	0xbeefb7f9	-0.46820047
227	0x3ea539be	0.32270616
228	0x3d5d0682	0.053961284
229	0xbe1bb269	-0.15204777
230	0x3d12e6e4	0.035864726
231	0xbdd3778e	-0.103255376
232	0x3eae83c3	0.340849
233	0x3e681600	0.22664642
234	0x3dcbdaf8	0.09953874
235	0xbe825c44	-0.25461018
236	0xbe33d6d9	-0.17562427
237	0xbdb2917d	-0.08719156
238	0xc0177694	-2.3666124
239	0xbf6c9f82	-0.9243089
240	0x3e1c149d	0.15242238
241	0xbeecc35b	-0.46242794
242	0xbf04c8f0	-0.51869106
243	0x3dd2f29b	0.103001796
244	0x3e494cf9	0.19658269
245	0xbea4deff	-0.32201383
246	0xbf257382	-0.64629376
247	0x3ee528b5	0.4475762
248	0x401f4ea7	2.4891756
249	0xbfb22a44	-1.3919148
250	0xbf4ede69	-0.8080812
251	0x3f18902b	0.5959498
252	0x3ddbbf86	0.107298896
253	0xbc2ceeb9	-0.010554963
254	0x3eca2b94	0.39486372
255	0x3dc694e4	0.096963674

encoder.encoder.cnnblock2.cnnlayer2.cnn_layer.0.bias f4 [64]
0	0x3e6925dc	0.22768348
1	0x3d07e6a9	0.03317896
2	0x3d0c65e6	0.034276865
3	0x3d18b349	0.037280355
4	0xbe38ed81	-0.1805935
5	0xbda038da	-0.078233436
6	0x3e3e03e5	0.18556173
7	0x3eeb1f88	0.45922494
8	0xbe3d2005	-0.18469246
9	0x3dfb54fa	0.12272067
10	0x3e42d89b	0.19027941
11	0x3eb1d078	0.34729362
12	0xbee95f00	-0.45580292
13	0x3e2c1b9c	0.16807407
14	0x3e9fcb94	0.31210005
15	0x3e9a1693	0.30095348
16	0xbe2d781e	-0.16940352
17	0x3df64553	0.12024941
18	0x3e939b42	0.2882939
19	0x3dd67c79	0.1047296
20	0xbe44d131	-0.19220425
21	0x3e711fcc	0.23547286
22	0xbde9942f	-0.11405217
23	0x3e1a43dc	0.15064949
24	0x3e8a5dc8	0.27024674
25	0x3ec81134	0.39075625
26	0x3eb07d7b	0.34470734
27	0xbe226e96	-0.15862498
28	0xbbc5c061	-0.0060348962
29	0xbe4a3986	-0.19748506
30	0x3dbc2a32	0.091877356
31	0xbe4cae5b	-0.19988386
32	0x3e574bde	0.21025035
33	0xbdfb44ff	-0.12269019
34	0x3e794c71	0.24345566
35	0xbe814522	-0.25248057
36	0x3d9f2b19	0.07771892
37	0x3dbc7b16	0.09203164
38	0xbe757439	-0.23970117
39	0xbe97b456	-0.29629773
40	0x3e8dd90e	0.27704662
41	0xbdc2d250	-0.0951277
42	0xbe02c0f2	-0.12768915
43	0x3e5c372c	0.21505421
44	0xbd9c566a	-0.0763367
45	0xbe2e2881	-0.17007639
46	0x3df5b823	0.11998012
47	0x3e97ca76	0.29646653
48	0x3e2f7763	0.17135386
49	0x3d932e2b	0.0718654
50	0xbe8dffd3	-0.2773424
51	0x3e0955b5	0.13411601
52	0x3d544e86	0.0518327
53	0xbc97eb45	-0.018544802
54	0xbe767425	-0.24067743
55	0xbe21f8c9	-0.1581756
56	0x3e0a9e7e	0.13537022
57	0xbde27206	-0.110569045
58	0xbd1424bc	-0.036167845
59	0xbe18da90	-0.14927125
60	0x3de73cc6	0.112908885
61	0x3c0ac702	0.008470299
62	0x3e65f03c	0.22454923
63	0x3e08edea	0.13372007

encoder.encoder.cnnblock2.cnnlayer2.cnn_layer.1.weight f4 [64]
0	0x401222ae	2.2833667
1	0x3fbc782c	1.4724174
2	0x4030fc6e	2.765407
3	0x40058401	2.0861819
4	0x40164b8e	2.3483615
5	0x400c3c04	2.191163
6	0x4027873c	2.617629
7	0x402cecd5	2.701955
8	0x40117b64	2.2731562
9	0x4051e90b	3.2798488
10	0x408965cc	4.2936764
11	0x40151e95	2.3299916
12	0x403547b1	2.8325007
13	0x4004a741	2.0727084
14	0x400115cb	2.0169551
15	0x3fe490c6	1.7856681
16	0x4004ce58	2.0750942
17	0x400b9caf	2.1814382
18	0x3f9bac46	1.2161949
19	0x402625a0	2.5960464
20	0x402bc8a9	2.6841223
21	0x4008afbc	2.135726
22	0x3fae00bd	1.3593975
23	0x3fd19e68	1.6376467
24	0x4016d53a	2.3567643
25	0x4005da0f	2.0914342
26	0x405ffacd	3.4996827
27	0x40fb9a71	7.8626027
28	0x4003b6b1	2.0580256
29	0x401fc2f8	2.496275
30	0x40367b0a	2.8512597
31	0x40256c5e	2.5847392
32	0x3fc3d21a	1.5298493
33	0x402e75ee	2.7259479
34	0x3febdabb	1.8426126
35	0x4044bc1b	3.073981
36	0x405237cf	3.2846563
37	0x40532678	3.299223
38	0x4008f563	2.1399772
39	0x4001b5b3	2.026715
40	0x4014f69e	2.3275523
41	0x3fd3488b	1.6506513
42	0x40043201	2.065552
43	0x3fe0f648	1.7575159
44	0x40baec00	5.8413086
45	0x406a9d7c	3.665862
46	0x40527aa0	3.2887344
47	0x3fe2cdd2	1.7719061
48	0x40408eda	3.008719
49	0x40869784	4.2059956
50	0x4013c360	2.3087997
51	0x40adc7be	5.4306326
52	0x3febbfc8	1.8417902
53	0x400c15ed	2.1888382
54	0x401fbe3c	2.495986
55	0x40797e88	3.8983479
56	0x4035b2fa	2.8390489
57	0x40380ef6	2.8759131
58	0x3ff0ab32	1.8802245
59	0x401c6bf3	2.4440887
60	0x4002f813	2.0463912
61	0x3ffb6733	1.9640869
62	0x4020e810	2.514164
63	0x40147586	2.319673

encoder.encoder.cnnblock2.cnnlayer2.cnn_layer.1.bias f4 [64]
0	0xbda71491	-0.081582196
1	0x3ea848fd	0.32868186
2	0xbf0766a2	-0.5289098
3	0x3ed41d19	0.4142845
4	0x3f564db1	0.837123
5	0xbdb3650e	-0.08759509
6	0x3f70e86e	0.9410466
7	0xbeb6c40f	-0.35696456
8	0x3ec5453c	0.38529384
9	0xc0ed931f	-7.424209
10	0xbf72975e	-0.9476222
11	0x3f5ffd4d	0.8749588
12	0x3f7b54a4	0.98176026
13	0x3f8b8870	1.0901012
14	0x3c7280af	0.014801188
15	0x3f619188	0.8811269
16	0xbe1d2cde	-0.15349147
17	0x3f06441f	0.52447695
18	0x3f12a3cb	0.5728118
19	0xbdcea967	-0.10090905
20	0xbeaf668c	-0.34257925
21	0x3f37c1e6	0.7178024
22	0x3f3e1871	0.74256045
23	0x3f4c758d	0.7986687
24	0xbd529bf9	-0.05141828
25	0xbdf7ba03	-0.12096026
26	0xbf21ad32	-0.631549
27	0xc118e4ac	-9.555828
28	0x3f3f027f	0.74613184
29	0xbf660250	-0.8984728
30	0x3f235a18	0.6380935
31	0x3f6b0d34	0.9181702
32	0x3f73c687	0.95224804
33	0x3f5924c8	0.8482175
34	0x3f80ea40	1.0071487
35	0xc008d349	-2.1378958
36	0xc08a0bc1	-4.313935
37	0x3e8f5aba	0.27998906
38	0xbe29b80c	-0.16574115
39	0x3f430c14	0.76190305
40	0x3f34587d	0.7044752
41	0xbe12d4e3	-0.14339022
42	0x3f3721a3	0.715357
43	0x3e1188ac	0.14212292
44	0x40601c7b	3.5017383
45	0xbf5d7a6e	-0.8651494
46	0xbef23f99	-0.47314146
47	0x3e77507d	0.24151798
48	0x3f0f9f7e	0.5610274
49	0xbf764655	-0.9620107
50	0x3f349388	0.70537615
51	0xbff91433	-1.9459289
52	0x3f9e0a6b	1.2346929
53	0x3f23fc7b	0.6405713
54	0x3ee49b3c	0.44649684
55	0xbe226335	-0.15858157
56	0x3d837d60	0.06420398
57	0x3c370a9e	0.011171965
58	0x3df93125	0.12167577
59	0xbe429619	-0.1900257
60	0x3efc1473	0.49234352
61	0x3ea385f3	0.31938133
62	0x3da9efd8	0.082977
63	0x3d1d96f4	0.03847404

encoder.encoder.cnnblock2.cnnlayer2.cnn_layer.1.running_mean f4 [64]
0	0xc29bf12b	-77.97103
1	0xbfd3bb41	-1.654152
2	0xc2215a8f	-40.338436
3	0x40960733	4.688379
4	0x42cce8b9	102.45454
5	0xc21cb484	-39.176285
6	0x42d94ee9	108.65412
7	0xc29494da	-74.290726
8	0x410c9184	8.785526
9	0xc3d02236	-416.26727
10	0xc25fa064	-55.90663
11	0x42d0d184	104.40921
12	0x421920a1	38.281864
13	0x42a477fb	82.23434
14	0xc1a88cfc	-21.06884
15	0x4231d5e4	44.458878
16	0xc154c113	-13.297137
17	0xc0961a65	-4.690722
18	0x42c22e95	97.09098
19	0xc145c376	-12.36022
20	0xc21d1721	-39.272587
21	0x4290c0b0	72.37634
22	0xc00fd032	-2.2470822
23	0x428d4db3	70.65176
24	0xc1ab88d7	-21.441816
25	0xc22cf225	-43.23647
26	0xc32e1081	-174.06447
27	0xc3b3cb21	-359.58694
28	0x42f6b841	123.35987
29	0xc30311a5	-131.06892
30	0x4160a6ef	14.040755
31	0x429bb755	77.85807
32	0x42a686d8	83.26337
33	0x429d808f	78.75109
34	0x42a54b28	82.64679
35	0xc32a30e3	-170.19096
36	0xc3b1af28	-355.3684
37	0xbfe2924b	-1.7700895
38	0xc218b198	-38.17343
39	0x42d8ef07	108.46685
40	0x4281f364	64.97537
41	0xc1c9d71c	-25.230034
42	0x42bcaac4	94.33353
43	0x41a5b64b	20.71401
44	0x43ae74d0	348.9126
45	0xc201fd4b	-32.497356
46	0xc1eff255	-29.993326
47	0xc22c9216	-43.142662
48	0x412bf67e	10.747679
49	0xc2546276	-53.096153
50	0x428c2dae	70.08922
51	0xc2b11ab2	-88.55214
52	0x42ba514a	93.15877
53	0x429b98c3	77.79836
54	0x4198f820	19.121155
55	0xc36f7b30	-239.4812
56	0x423fa1d8	47.90805
57	0x42ba4856	93.14128
58	0xc2a331cf	-81.59728
59	0xc0a232e4	-5.068712
60	0x41a59da0	20.701965
61	0x423f25aa	47.78678
62	0xc1730664	-15.18906
63	0xc24e0fc4	-51.515396

encoder.encoder.cnnblock2.cnnlayer2.cnn_layer.1.running_var f4 [64]
0	0x473da61d	48550.113
1	0x46a9a9fb	21716.99
2	0x47490d2e	51469.18
3	0x47355aeb	46426.918
4	0x47139998	37785.594
5	0x477f7408	65396.03
6	0x47dac95b	112018.71
7	0x47139643	37782.26
8	0x47386b06	47211.023
9	0x47ac0cee	88089.86
10	0x47716b85	61803.52
11	0x47bc301c	96352.22
12	0x469c3133	19992.6
13	0x46c86712	25651.535
14	0x46dba2db	28113.428
15	0x46bf96d7	24523.42
16	0x473c2465	48164.395
17	0x46bfbcc8	24542.39
18	0x46ded611	28523.033
19	0x474eb8fc	52920.984
20	0x46e60cf0	29446.469
21	0x4792a1f5	75075.914
22	0x4695ea5c	19189.18
23	0x46af8d0c	22470.523
24	0x47145d37	37981.215
25	0x4736f464	46836.39
26	0x477140a5	61760.645
27	0x47d817b0	110639.375
28	0x47c28c10	99608.125
29	0x474b10d1	51984.816
30	0x47061ce6	34332.9
31	0x477cd040	64720.25
32	0x46d5a0fd	27344.494
33	0x479f7ea2	81661.266
34	0x46f9f1dd	31992.932
35	0x47331b14	45851.08
36	0x46bc2261	24081.19
37	0x47470da1	50957.63
38	0x473b3e6a	47934.414
39	0x47aca963	88402.77
40	0x47593e69	55614.41
41	0x4707aa3b	34730.23
42	0x478f5fb7	73407.43
43	0x46b45857	23084.17
44	0x4975263b	1.0041317e+06
45	0x471cdd30	40157.188
46	0x47090c6b	35084.418
47	0x46ddb35a	28377.676
48	0x4723a405	41892.02
49	0x47966fc9	77023.57
50	0x473f153c	48917.234
51	0x479bce07	79772.055
52	0x470315e3	33557.887
53	0x47918070	74496.875
54	0x472c1a06	44058.023
55	0x47b25790	91311.125
56	0x4774dedc	62686.86
57	0x4729f609	43510.035
58	0x46c8873f	25667.623
59	0x4712259c	37413.61
60	0x470b3753	35639.324
61	0x46c15707	24747.514
62	0x474fc1b4	53185.703
63	0x4770179e	61463.617
