best_model_AECNN3_20.pth (torch, 551809 bytes, 48 tensors)

encoder.encoder.cnnblock1.cnnlayer1.cnn_layer.0.weight f4 [32, 3, 3, 3]
000000 65 40 69 bd e3 85 4f bd 09 39 e8 3c a4 a6 9c 3d
       -0.056946177 -0.050664794 0.028347509 0.07648972
000010 86 d4 bb bd 3e e6 94 bc 8c 9d 52 bd 5c 80 21 be
       -0.09171395 -0.018176194 -0.05141978 -0.15771621
000020 83 27 2d bd c1 6e ef 3c 8e 28 04 3c 7e 48 ba bc
       -0.04227401 0.029227616 0.00806631 -0.022739645
000030 4a f3 b3 b7 53 be f5 bd 52 df 0d be a7 a7 76 bd
       -2.1451753e-05 -0.11999192 -0.13854721 -0.06021848
000040 53 94 4d bd 14 d3 1e be 27 1e 3a bd 68 f2 95 3d
       -0.05019028 -0.15510207 -0.04543891 0.07321626
000050 0c 69 a0 3d e3 34 fb ba e5 57 7a bc c7 e8 46 be
       0.07832536 -0.0019165542 -0.015279745 -0.19424735
000060 93 e4 85 3d 53 27 4d be ac 53 1c 3e 20 c5 26 3d
       0.06537738 -0.20034532 0.15266293 0.040715337
000070 5a 50 92 bc 3e 6d 63 bd e6 c9 a4 bb 7c 97 35 bd
       -0.01786058 -0.055524103 -0.005028951 -0.04433392
000080 b4 b4 d6 bd 95 ee 02 bd 7b 9d 62 be 07 99 21 be
       -0.10483685 -0.03196581 -0.22130387 -0.15781032
000090 ef ab 9f 3d d8 63 e5 bd 4f c3 05 bc 27 35 8f bd
       0.077964656 -0.11200684 -0.008164241 -0.0699256
0000a0 a0 a9 7c bd d6 e6 2f 3d 6d 09 cd 3c f9 5a f6 bd
       -0.061685205 0.04294475 0.025028909 -0.120290704
0000b0 2a da c7 3c d6 f9 e8 3d 2c fe a7 bc 22 9b 9d bb
       0.02439602 0.113757774 -0.02050694 -0.004809753
0000c0 33 d6 d0 bd cd 3d f8 3b 0d 85 e5 3c 62 cb cf bc
       -0.10197105 0.0075757266 0.028017545 -0.025365535
0000d0 14 d9 ac bd 4e 9b 1b 3e c1 ca 14 3d 20 fb 41 3d
       -0.08439842 0.15195963 0.036326174 0.047358632
0000e0 f7 37 f9 3c cf 90 a6 3d f2 c3 82 3d 24 fe 63 3d
       0.030422194 0.08133089 0.0638503 0.05566229
0000f0 7e 25 92 3d 57 e2 9d 3d ad 80 d9 3c 1b c3 bc bc
       0.07136057 0.077091865 0.026550615 -0.023042252
000100 79 b7 9f 3d d1 51 a7 3d 7f 4f f4 bc 9d a1 42 3d
       0.077986665 0.08169902 -0.029823063 0.047517408
000110 01 08 b5 bb 72 9a 0d 3d 0f 3f 76 3d 8b d8 8c 3b
       -0.005524636 0.03457112 0.06011873 0.004298275
000120 d4 b2 fa 3c c2 ea 9c 3d 86 ed 43 3d 28 52 23 ba
       0.03060285 0.07661964 0.047833942 -0.0006230199
000130 9b be cc 3c 8a c2 df ba f2 57 cc 3d b9 0c bf 3c
       0.024993232 -0.0017071527 0.09977712 0.023321496
000140 49 86 9e 3d 8a 2a 38 bd e0 d9 0d 3c e0 3a 24 bd
       0.077404566 -0.044962443 0.0086579025 -0.04009521
000150 81 14 85 bc 65 42 aa 3c 8b 72 80 bd ce 5d da bc
       -0.016245129 0.020783613 -0.06271847 -0.026656058
000160 f0 2f 81 bd ea 60 d1 3b fc 1d 66 bd 9f ec a1 bc
       -0.063079715 0.006389727 -0.05618094 -0.01976615
000170 70 45 eb bc fc 2f f5 bc e2 39 50 bd 83 ba e9 bd
       -0.028719634 -0.029930107 -0.05083645 -0.114125274
000180 a2 ff 34 bd 5d 25 41 bd ce 81 15 bc 6b 45 08 3e
       -0.044189103 -0.047154773 -0.009125186 0.13307731
000190 ce 64 b5 3d 7e 8e 5d bd c7 34 be 3d c1 fc 27 3e
       0.088571176 -0.05409097 0.0928741 0.16405012
0001a0 29 0f 2a 3e 42 23 d2 3c 34 03 36 3d f2 17 bc 3d
       0.16607346 0.025651578 0.04443665 0.09184255
0001b0 fc c4 8e 3d a2 b3 89 3d 6e e3 f8 3b 9d ad f4 bc
       0.069711655 0.06723715 0.007595471 -0.029867942
0001c0 de 4c 2d 3d 42 f0 b1 3d c2 19 c7 3d 6e 34 b1 3d
       0.042309634 0.08688404 0.0972171 0.08652578
0001d0 53 3b d8 3d 23 e5 9b 3d db 5d 72 3d c6 96 65 3d
       0.1055819 0.07612064 0.05917154 0.056051992
0001e0 2d 38 6f 3c 19 6b 11 be 25 2f ac 3b 26 e6 61 3b
       0.014600796 -0.14201011 0.0052546435 0.0034469455
0001f0 f9 0e 8a 3d 55 29 fa 3c c8 14 c6 3d 70 76 82 3d
       0.06741137 0.030537287 0.096719325 0.063702464
000200 30 39 d5 3d fa d0 b8 bc ef 94 06 3d 8e 51 e1 bc
       0.10411298 -0.022560585 0.032856878 -0.027504709
000210 52 ab 77 bd 6a 1e f5 bc 9f aa 87 3d e9 23 9a 3d
       -0.06046612 -0.02992173 0.0662434 0.075263806
000220 87 c5 e1 bd 75 5d 05 bd 11 52 85 bd 14 50 30 be
       -0.110240035 -0.03255983 -0.065097935 -0.17218047
000230 94 57 a4 3d 51 24 0d bd 50 28 2e bd 2a 30 8c bd
       0.08024517 -0.034458462 -0.042518914 -0.06845124
000240 a9 ed 93 bd 62 1d 1e bd d8 a6 c3 bc 43 c1 07 be
       -0.072230645 -0.03860224 -0.023883268 -0.13257317
000250 67 b6 3c bd d8 6b 0f be db 71 8d bd ce 44 05 be
       -0.04607239 -0.14005983 -0.06906482 -0.13014528
000260 f9 43 18 be 83 cc 39 3d fc fb 1d be c1 de 03 bd
       -0.1486968 0.045361053 -0.15428156 -0.032194857
000270 3a c3 c6 bd 64 10 e9 3c 1e 8b fb bc 67 72 f3 bb
       -0.09705205 0.028450198 -0.030705985 -0.0074294093
000280 11 2d b0 bd 78 c5 16 3d 35 d2 aa bd 43 ac e9 bd
       -0.08602346 0.036809415 -0.08340875 -0.114098094
000290 42 6f 20 be 99 58 37 be 1d 5d 90 bd ee 83 02 be
       -0.15667441 -0.17904891 -0.0704901 -0.1274564
0002a0 1e fc d2 3c 91 a1 e9 bc 6b ff 49 3b 2c 17 f0 3c
       0.025754984 -0.028519424 0.0030822407 0.029307924
0002b0 79 ca 77 3b d7 11 51 3d 41 40 a8 bc 77 e1 23 bd
       0.0037809892 0.051042404 -0.020538451 -0.040009942
0002c0 a9 37 91 bd e0 3c 0c 3d ca d9 e7 bd e6 f8 24 be
       -0.070906945 0.034237742 -0.11320837 -0.16110572
0002d0 e8 70 33 bc 89 73 84 3c 2b 88 98 3d df 37 28 3e
       -0.010952212 0.016168373 0.07447847 0.16427563
0002e0 fe c0 8b bd b9 db 05 3d c5 2f 1a 3d 85 94 20 bd
       -0.0682392 0.032680247 0.037643213 -0.03920414
0002f0 e8 38 61 bd 5d e0 90 3d 1a 1e e9 bd 4c db 85 bb
       -0.05498591 0.07074044 -0.113826945 -0.00408498
000300 39 44 80 bc 1e 36 5c bd b8 b0 ba 3c 30 17 06 3e
       -0.015657531 -0.053762548 0.022789344 0.13094783
000310 12 b4 ac bb 65 b0 3e be ac 16 8d 3c 4b bb b6 3b
       -0.0052704895 -0.18621977 0.017222725 0.0055765263
000320 a6 c5 ee bc 0f 33 6a 3d bd fe d4 3c c3 34 24 3d
       -0.02914698 0.0571776 0.026000375 0.04008938
000330 72 e0 0c 3e 98 04 f6 bd 84 a7 a7 bd 8b 48 f9 3d
       0.13757494 -0.12012595 -0.08186248 0.121720396
000340 01 81 e6 3d 98 45 98 3c 92 3f 44 3c b2 17 38 bc
       0.11255074 0.018587872 0.011978047 -0.011236118
000350 48 43 1d be be 31 9f 3d ad de 9c bd 0d 93 67 bd
       -0.15357697 0.077731594 -0.076596595 -0.056536723
000360 3f bd bb 3d d5 b4 b1 bc a2 77 1a bd de 2e 9d bd
       0.09166955 -0.021692673 -0.037711747 -0.07674955
000370 af be 8a 3d 32 32 c5 3c 7e bd c3 bd 63 f9 93 3d
       0.06774651 0.024071787 -0.09557627 0.07225301
000380 a6 25 8c 3d 99 ae 40 3d 7d 73 0c be ba 56 b3 bd
       0.06843118 0.04704151 -0.1371593 -0.08756776
000390 b7 79 e6 bd 45 e7 38 bd 88 a7 fb bc 6e 80 66 3e
       -0.11253684 -0.04514243 -0.030719534 0.2250993
0003a0 09 ce b0 3c 2a d2 e4 bc fe 68 8b 3c 26 83 74 3d
       0.02158262 -0.027932245 0.017017838 0.059695385
0003b0 9d 51 cc bd 2f f7 1b 3b e0 83 c3 ba 53 8a a0 3c
       -0.09976504 0.0023798456 -0.0014916621 0.019597208
0003c0 e8 0e 53 3e ab 61 84 bc 0c c2 9c 3d 0c a1 56 3d
       0.20611155 -0.016159853 0.07654199 0.05239968
0003d0 bd 10 2b bd 5c c0 52 3d ea c5 d7 bd e3 70 f8 bd
       -0.04176401 0.05145298 -0.10535796 -0.121309064
0003e0 35 d3 e3 bd 99 bb 61 ba b5 9b 07 bd b3 a7 1b be
       -0.11124269 -0.0008611023 -0.03310748 -0.15200691
0003f0 26 5c 2b be 4f e6 8a bd 37 7f 5f bd 97 b2 8f bd
       -0.1673437 -0.06782209 -0.05456468 -0.07016485

encoder.encoder.cnnblock1.cnnlayer1.cnn_layer.0.bias f4 [32]
000000 1d a9 02 b5 ab e0 8b 36 4b dd f2 34 41 e5 90 36
       -4.8674866e-07 4.1686776e-06 4.5237024e-07 4.318223e-06
000010 d6 e4 51 b5 ab 70 dc b5 25 e5 a9 b4 07 76 dd 33
       -7.819157e-07 -1.6424068e-06 -3.1645428e-07 1.03125835e-07
000020 8c cd 90 34 11 af 02 b6 f7 62 aa 36 f1 6b 7b b5
       2.6971645e-07 -1.9473412e-06 5.077916e-06 -9.366186e-07
000030 56 19 df 35 bb 60 6c b5 8f 9b 24 34 0f c4 50 35
       1.6622168e-06 -8.805761e-07 1.5330282e-07 7.777134e-07
000040 60 56 1a b4 d6 a0 a3 b6 87 1c f3 34 f7 ca 3b 34
       -1.437379e-07 -4.8765023e-06 4.5283034e-07 1.748957e-07
000050 aa 28 60 b4 4a ef 96 35 51 82 b5 35 47 e2 c8 35
       -2.0876419e-07 1.1245513e-06 1.3523478e-06 1.4967017e-06
000060 48 92 7c b6 87 fc da 33 78 8c 81 b5 21 a3 e2 b5
       -3.7636073e-06 1.01973505e-07 -9.652131e-07 -1.6885789e-06
000070 91 91 d5 33 15 4d 0e 35 9d a8 9f b5 16 68 5b 35
       9.945064e-08 5.301129e-07 -1.1895496e-06 8.173532e-07

encoder.encoder.cnnblock1.cnnlayer1.cnn_layer.1.weight f4 [32]
000000 09 04 32 3f 50 fb 36 3f 0e 8b 21 3f 53 5c 65 3f
       0.6953741 0.7147722 0.63102806 0.89594
000010 dd e3 53 3f 45 2d 68 3f 80 a4 60 3f 63 76 f5 3e
       0.82769567 0.90694076 0.8775101 0.47941884
000020 23 7b 18 3f 3e 93 69 3f c4 4d 64 3f 97 c3 09 3f
       0.5956289 0.912403 0.8918116 0.5381407
000030 5f ac 31 3f 93 21 0f 3f 35 80 71 3f 0c 01 1f 3f
       0.6940364 0.55910605 0.94336253 0.6211097
000040 b0 b8 49 3f 0b 56 27 3f 6b ad 45 3f e6 2e 2e 3f
       0.78797436 0.65365666 0.7721774 0.6804031
000050 a3 87 e9 3e 6c 64 57 3f 84 48 5e 3f 7a 84 76 3f
       0.45611295 0.84137607 0.868294 0.96295893
000060 bb 25 4d 3f 69 e5 ed 3e 91 89 4f 3f e7 31 6b 3f
       0.801357 0.4646409 0.81069285 0.9187302
000070 04 f1 31 3f bd 09 14 3f 5a b2 54 3f 7e 61 50 3f
       0.69508386 0.5782736 0.8308464 0.8139876

encoder.encoder.cnnblock1.cnnlayer1.cnn_layer.1.bias f4 [32]
000000 2e a7 b4 3d 11 f0 99 3d d4 af 3a bd af 02 da 3b
       0.088209495 0.07516492 -0.04557784 0.006653152
000010 e6 4e ff bc bf c7 02 3e 60 e9 d4 3d df 32 57 3d
       -0.031165551 0.1277151 0.10396075 0.05253875
000020 78 33 96 bd 90 06 82 3d 8d ff cc 3d a9 f6 84 bd
       -0.07334036 0.06348908 0.1000968 -0.06492359
000030 91 93 55 3d d1 c0 d7 bb 1a a4 95 3d f3 a7 ad ba
       0.052142683 -0.006584265 0.073066905 -0.0013248905
000040 4c ce 9d 3c 95 cb 94 39 18 97 9b bc 33 36 c3 bd
       0.01926341 0.0002838044 -0.018992946 -0.09531822
000050 88 a0 a9 bc 18 a8 49 bd 3a 4d 8d 3d e1 a8 00 3e
       -0.02070643 -0.049232572 0.068994954 0.12564422
000060 65 d7 16 3e f4 d0 6b 3d d5 2e df 3d e4 13 c6 3d
       0.14730604 0.05757232 0.108976044 0.096717626
000070 21 df e2 3a 4b b2 c4 bd 92 0c 33 bd 79 ad 89 bd
       0.0017308929 -0.09604319 -0.04371316 -0.067225404

encoder.encoder.cnnblock1.cnnlayer1.cnn_layer.1.running_mean f4 [32]
000000 8a e4 53 bf 3d d8 1e bf ca f4 80 3f 81 2e 35 3e
       -0.827706 -0.62048703 1.0074704 0.17693521
000010 e0 1d 52 3f e5 02 a2 bf e9 f7 3a bf 9d d6 27 bd
       0.82076836 -1.2657133 -0.7303453 -0.040976156
000020 90 27 4a 3e 3f e7 93 bf d6 9d ef be 81 07 ad 3f
       0.19741654 -1.1554946 -0.46800107 1.3517915
000030 9f e0 9e bf 6f b5 a6 3f e8 d0 91 bf 26 4b e7 3e
       -1.2412299 1.3024119 -1.1391878 0.4517452
000040 8c a5 2a 3f e7 d3 14 be 45 dc 96 bf 94 4c bc 3f
       0.66658854 -0.1453396 -1.1785971 1.471087
000050 4f 94 cb 3f b0 ba b2 3f c9 ac 68 bf e5 35 b3 bf
       1.5904635 1.3963223 -0.9088865 -1.4000822
000060 b3 6a 44 bf 1d 45 82 bf 54 6e 9a bf b2 c0 a9 bf
       -0.7672531 -1.0177342 -1.206492 -1.3261931
000070 ed 5f 5f 3f 4b bd 77 3f 04 54 71 3f 7b c2 a6 3f
       0.87255746 0.96773213 0.9426882 1.3028101

encoder.encoder.cnnblock1.cnnlayer1.cnn_layer.1.running_var f4 [32]
000000 48 27 bc 3b f2 2c 8f 3b e1 f1 03 3c 83 9b 33 3a
       0.0057419874 0.0043693716 0.008053274 0.0006851481
000010 55 66 e4 3b 5a 5f 3b 3c eb a9 d3 3b 8b b2 0c 3b
       0.0069702067 0.011436308 0.006459465 0.0021468725
000020 28 3e c7 3a bc 61 21 3c f0 ea 17 3b 9e bd 73 3c
       0.0015201019 0.009849962 0.0023180805 0.014876751
000030 c8 0b 53 3c 8e 13 64 3c 62 39 28 3c e8 0a 9a 3b
       0.012881227 0.013920678 0.010267587 0.004701007
000040 55 d6 6a 3b cd f8 e5 3a 28 e1 43 3c 4b 26 93 3c
       0.0035833318 0.0017545462 0.011955537 0.017962595
000050 0a 06 98 3c 64 ff 72 3c a1 94 cf 3b eb d6 60 3c
       0.018557567 0.014831398 0.0063348566 0.013723115
000060 35 c7 8f 3b c1 84 01 3c 0e cf 42 3c 7d 18 53 3c
       0.004387761 0.007905186 0.011890186 0.012884256
000070 c0 8e 05 3c a9 d1 e1 3b f4 4f 02 3c d9 4d 46 3c
       0.00815171 0.0068914485 0.007953633 0.012103521

encoder.encoder.cnnblock1.cnnlayer2.cnn_layer.0.weight f4 [32, 32, 3, 3]
000000 a6 9f 5f 3d f5 4c b2 3d 9a 50 98 bd d3 b3 dd 3d
       0.054595612 0.08706085 -0.074372485 0.108253144
000010 98 64 ff 3d 2b bd 9d 3c a5 e8 cd 3c bb 72 27 bd
       0.124703586 0.019255241 0.025135348 -0.0408809
000020 77 b0 0f 3d 11 9e 11 bc 15 db ba 3c 97 24 1b 3c
       0.0350804 -0.008887784 0.022809545 0.009469173
000030 03 aa f5 3c 96 42 1b 3d 50 e1 98 3d c9 bd 9e bd
       0.029988294 0.0379053 0.0746485 -0.077510424
000040 fc c3 87 bc 56 a1 d0 bd eb 0d 92 bc 4d 84 9a 3c
       -0.016572945 -0.101870224 -0.017828902 0.018861914
000050 70 80 2c bc d5 ef 2d bd 34 18 17 3c 45 ff 30 bd
       -0.010528669 -0.04246505 0.009222079 -0.043212194
000060 bc 9c 62 bc 0f 78 05 bd bd 6d 0b bc 18 ae bb bc
       -0.013831314 -0.0325852 -0.00851005 -0.022910163
000070 21 c0 31 bc 40 d3 e7 bc 25 00 05 bd ac 34 04 bd
       -0.01084903 -0.028298974 -0.03247084 -0.032276794
000080 cb 22 a7 bc ff 3f 3f 3a 84 23 0d bd 17 3f 71 bb
       -0.020402333 0.0007295608 -0.0344577 -0.0036811286
000090 94 14 69 bc 20 50 c6 ba d6 81 5c bc 67 71 78 bc
       -0.014226098 -0.001513008 -0.01345869 -0.015163756
0000a0 a9 a7 8e bc 18 3f 9c bc 65 4c 04 bc d4 05 d8 bc
       -0.017413931 -0.019073054 -0.0080748545 -0.026369967
0000b0 25 92 e9 bc 7f f3 8c 3c 6e 84 b9 3d 57 2e 8e 3c
       -0.02851207 0.017205952 0.09058462 0.017356081
0000c0 22 5b a0 bc 98 52 ab 3d 2c 71 01 3e 01 0d cc 3b
       -0.019574706 0.08365363 0.12640828 0.006227136
0000d0 70 0d c8 bc 9b 3d 0f bb c6 f5 6b 3d 89 e7 37 3d
       -0.02442047 -0.0021856788 0.057607435 0.044898544
0000e0 a5 fd a7 3c da 39 b2 bc 47 f8 98 3d fc 78 03 3e
       0.02050669 -0.021756101 0.0746923 0.1283912
0000f0 9f f5 80 3d 14 97 85 bb 4a fc c1 3d eb 51 9f 3b
       0.062968485 -0.004076848 0.094719484 0.0048620603
000100 cd 22 bd bc f2 3a 72 bd f3 1e cc 3c 18 45 0c bc
       -0.023087883 -0.059138246 0.024917101 -0.008561395
000110 11 27 42 bd f0 9f 23 bd ba 84 8b bd b8 7f 99 bd
       -0.047400538 -0.03994745 -0.06812425 -0.074950635
000120 e6 17 78 bc 85 5f b1 bc 7c 6c 92 bc 6e c9 62 3b
       -0.015142417 -0.021651993 -0.017873995 0.0034604925
000130 23 ab 14 bc 25 08 6f bc ef 0b c3 3b 60 bb 1e bd
       -0.009074005 -0.014589344 0.0059523503 -0.038752913
000140 4f b8 f8 bc 14 59 d3 3d 42 d5 a3 bc f5 70 5f 3d
       -0.030361323 0.10319725 -0.01999915 0.054551084
000150 1c 41 ec 3d 36 00 20 3e 03 33 78 3d e3 65 22 3d
       0.11535856 0.1562508 0.060595524 0.039647948
000160 0a ff bc 3d 57 17 2b 3d 11 9d 2c bd ad 9a e7 3d
       0.09228332 0.041770305 -0.042141978 0.11308799
000170 e0 d4 2b 3e 2b 6c 72 3d 03 91 81 bc 3d f8 c8 3b
       0.16780424 0.05918519 -0.015816217 0.006133108
000180 65 bd bc bc 5e fd b9 3d c3 cb d2 3d d2 3c bb bc
       -0.02303953 0.09081529 0.10292771 -0.02285615
000190 8c b6 03 bd f1 01 57 bd b4 cb 09 bc 39 a4 fa bc
       -0.032156512 -0.052492086 -0.008410383 -0.030595886
0001a0 92 01 b1 bb de cb 8e bc e9 92 af bc be 32 84 bb
       -0.0054017985 -0.017431196 -0.021432357 -0.0040343693
0001b0 8e 3d 81 3d e9 7d ea 3c 1b 8e ee 3d 8a 46 23 bc
       0.06310569 0.028624492 0.11648198 -0.009965548
0001c0 49 69 79 bd 7e 71 e6 3c 3c 9a fc bd c5 01 0a 3c
       -0.060891423 0.02813029 -0.12334105 0.008423273
0001d0 9b 48 3a 3c d2 55 13 3c 57 cd 5d bb d0 dd fd 39
       0.01136985 0.008992629 -0.0033844316 0.00048421184
0001e0 5f da 93 bd d1 b6 c9 bd 22 77 26 bd 29 27 a4 3c
       -0.07219385 -0.098493226 -0.040640958 0.020038204
0001f0 0f cd 10 bc b6 1f db 3c 69 5f 4f 3d 8e 4c 08 bc
       -0.008837952 0.02674852 0.0506281 -0.008319033
000200 61 70 14 3d 14 6f 18 bd 1f ae ee 3d 76 7d 15 3e
       0.036239985 -0.037215307 0.11654305 0.14598641
000210 ff 9e 95 3d 80 b6 17 3e 2b 60 92 3d cb e9 9d ba
       0.07305717 0.14815712 0.07147249 -0.0012047825
000220 42 79 1e ba 63 63 f8 3c 0c a5 96 bd 27 19 18 bc
       -0.00060452905 0.030320829 -0.07355699 -0.009283341
000230 a9 01 98 bd 74 48 a4 bc bf 20 78 bb a0 d5 c6 3c
       -0.07422192 -0.02005408 -0.0037861315 0.024271786
000240 ba 0d 9d bc 95 99 d4 bc 70 62 e6 bc fd 90 7e bc
       -0.019171584 -0.02595214 -0.02812311 -0.015537498
000250 0a c9 16 bd 5f d6 f1 bc 86 80 aa bc 59 9e 02 bc
       -0.03681282 -0.029521165 -0.020813238 -0.007972323
000260 34 c8 8e bb 59 78 ee 3b 96 c3 8e 3d 56 55 94 bd
       -0.004357362 0.00727753 0.06970899 -0.07242839
000270 24 d0 0a bc 4e 48 fc bc 3f cb eb bd 8b c9 db bb
       -0.008472476 -0.030796196 -0.115133755 -0.0067073754
000280 5a 94 f7 bc 42 07 50 3c 8d 38 f1 bb 98 00 54 bd
       -0.030222107 0.012697043 -0.0073614777 -0.05175838
000290 25 63 31 bb 3d 9f 8a bd 5c c7 9c bc f9 0e 71 bd
       -0.0027067151 -0.067686535 -0.01913803 -0.05885217
0002a0 93 44 d7 3b 0a 31 0f bd 08 c9 df 3c b4 d8 08 bd
       0.006569454 -0.034958877 0.027317539 -0.03340979
0002b0 dd c8 a9 bc 96 fb 97 bd b4 dd b7 bd 9e 2d 04 bd
       -0.020725662 -0.07421033 -0.089778334 -0.032270066
0002c0 5d a3 c4 bd 98 1b 28 bc b3 eb f2 bc 56 6a 3a bd
       -0.096014716 -0.010260485 -0.029653406 -0.045511566
0002d0 72 4f 48 bc c2 67 ef bc a2 73 1f bc 7a a1 82 bd
       -0.0122259725 -0.02922428 -0.009732159 -0.063784555
0002e0 56 ac ce 3b 82 cc 8c bd 52 53 da ba 92 cb d0 3b
       0.006307165 -0.06874944 -0.0016656911 0.0063719237
0002f0 4b 07 56 ba 23 df d5 bc 9a 2e 1b 3c aa 98 7e bc
       -0.0008164539 -0.026107376 0.00947156 -0.015539328
000300 e7 31 07 bd ee 62 d9 3b 52 4e 1d bd b2 6b 82 bb
       -0.033006575 0.006634108 -0.03840477 -0.0039801234
000310 0e 73 a2 bd 90 42 4f 3a da 74 cc 3c 5c 72 f5 3b
       -0.07932101 0.0007906342 0.024958063 0.0074904393
000320 39 6f 86 3d 53 3a 28 3d 13 22 12 3c 08 a7 60 3d
       0.06564183 0.041071247 0.008919257 0.054846793
000330 20 91 06 3c 8f cc b4 3c c9 40 79 bd ea c9 23 3c
       0.008213311 0.022070197 -0.0608528 0.0099968705
000340 e3 7c da bc b0 17 ae 3d 5e 57 b2 3d f2 5e 33 3d
       -0.026670879 0.08500612 0.0870807 0.04379172
000350 b6 86 b3 bc 11 37 3d 3d 2c a6 93 3d d4 a0 4f 3d
       -0.021914821 0.046195094 0.07209429 0.050690487
000360 bc c0 f7 3d f8 36 b6 bc df 1d b4 3d b1 19 f0 3c
       0.12097308 -0.022243008 0.0879476 0.029309126
000370 56 18 db 3d f4 9f 94 3c 63 69 d0 3a 7c c1 ad 3d
       0.10698001 0.018142678 0.0015900548 0.0848417
000380 92 84 bd 3d 2b 65 a9 3a 82 d8 91 bb aa c2 77 bc
       0.092538014 0.0012923827 -0.0044508586 -0.015122095
000390 da 70 ab bc c2 43 6c bd 36 4f fc bc 65 4c a2 3c
       -0.020927835 -0.057681806 -0.03079949 0.019811818
0003a0 89 23 bf bb 2b 69 0d 3d 52 03 01 3d 33 01 af 3c
       -0.0058330935 0.034524124 0.031497307 0.021362877
0003b0 ff 64 6d bc 30 34 8d 3d 33 4f 9f 3d 48 3a da 3c
       -0.014489411 0.068947196 0.07778778 0.026639119
0003c0 f1 0c 20 3c e9 61 7e 3d e2 dd 9a 3c f9 85 7d bd
       0.0097687105 0.062105093 0.01890463 -0.061895344
0003d0 2d 3f 85 bd cd 71 0e 3e 27 8f 89 3d 2d b6 c6 3d
       -0.065061904 0.13910599 0.06716757 0.09702716
0003e0 8b 4a a9 3d 40 55 8e 3c b4 b9 41 3d 13 df 11 3e
       0.08266171 0.017374635 0.04729624 0.14245252
0003f0 e6 8e 4e bd 65 bf e5 bc cf 1b 52 bd 54 57 b7 bd
       -0.050429247 -0.028045366 -0.05129605 -0.089522034

encoder.encoder.cnnblock1.cnnlayer2.cnn_layer.0.bias f4 [32]
000000 9e c9 a5 b2 c4 9a 15 b3 e8 e1 f1 32 f9 c0 14 b2
       -1.9300213e-08 -3.4832524e-08 2.8158823e-08 -8.658611e-09
000010 10 ce 45 32 50 21 9d b2 31 ff eb 2d 9a 54 31 32
       1.1513762e-08 -1.8292354e-08 2.6829735e-11 1.0321992e-08
000020 1b 9d 3b b3 a9 25 a1 b2 32 78 f6 b2 a3 c2 92 34
       -4.3682217e-08 -1.8759993e-08 -2.8692828e-08 2.7336236e-07
000030 7f 20 79 30 7d f7 13 b0 30 3a 88 b3 8e 57 de b2
       9.063185e-10 -5.382999e-10 -6.343578e-08 -2.5884017e-08
000040 58 34 a2 33 19 37 04 b0 78 84 fe 32 8a a3 5f b2
       7.553234e-08 -4.809962e-10 2.9629732e-08 -1.3017493e-08
000050 11 26 79 b1 64 4f c4 b2 e8 63 20 32 b6 dc db b2
       -3.6255907e-09 -2.2853506e-08 9.335942e-09 -2.5595323e-08
000060 ca 72 8f 32 25 3e 63 b1 de 32 16 33 f8 56 b1 b0
       1.6699591e-08 -3.3068173e-09 3.497086e-08 -1.2903163e-09
000070 81 a2 8d 33 1f bd 25 b1 f3 63 c5 32 a7 e5 1b 30
       6.5953834e-08 -2.4118163e-09 2.297927e-08 5.6715027e-10

encoder.encoder.cnnblock1.cnnlayer2.cnn_layer.1.weight f4 [32]
000000 df b8 5c 3f 39 7f 63 3f 0e 71 43 3f 72 60 6c 3f
       0.8621959 0.88866 0.7634438 0.92334664
000010 8f bc 68 3f dd ab 40 3f 3c 22 3d 3f 5a a0 49 3f
       0.9091272 0.7526224 0.7388036 0.787603
000020 51 e0 2a 3f 82 03 27 3f 53 e3 54 3f 99 64 61 3f
       0.6674853 0.6523973 0.8315937 0.88044125
000030 8d d5 2a 3f c1 c6 6e 3f ee 10 1c 3f 71 ef 81 3f
       0.667321 0.93272024 0.6096333 1.0151197
000040 3a e7 46 3f 9c be 44 3f 61 a1 64 3f b1 b5 46 3f
       0.77696574 0.76853347 0.89308745 0.7762099
000050 82 9c 39 3f 28 3f 52 3f de e6 6d 3f 08 e8 09 3f
       0.72504437 0.8212762 0.929304 0.53869677
000060 9d c8 4f 3f f1 7b 2a 3f 66 db 4b 3f e4 55 33 3f
       0.81165487 0.6659537 0.7963165 0.70052934
000070 7a 01 49 3f 31 0e 49 3f d0 e7 43 3f 3d f2 3a 3f
       0.7851788 0.7853728 0.7652559 0.73025876

encoder.encoder.cnnblock1.cnnlayer2.cnn_layer.1.bias f4 [32]
000000 54 1a b7 3d 39 ad 39 bd 39 4a f0 3d ea 3b 0e 3e
       0.089405686 -0.045331214 0.11732907 0.13890043
000010 ed b6 d4 bc 69 de a0 3d d3 d1 85 3d fa 7e bc bd
       -0.025966132 0.07854921 0.065341614 -0.09203906
000020 a6 cc 92 3b 2f 0d 95 3d 36 d3 cd bd 13 6d 93 3d
       0.0044799624 0.07277905 -0.10050051 0.07198539
000030 18 fb dd bd c6 f4 a6 3c da a1 b5 ba f3 cb cf 3d
       -0.10838908 0.020380389 -0.001385744 0.10146322
000040 c5 c2 92 bd 33 7b 8c 3d e1 23 40 3c aa 89 8c bd
       -0.071660556 0.06859436 0.011727304 -0.06862195
000050 cf 5b 11 be 57 07 16 bd 59 7d d1 3d 9a fe 53 3c
       -0.14195178 -0.036628094 0.10228986 0.01293912
000060 cc 99 c0 bb 6e 8b ba bc 3b 00 f3 bb fd b9 5a 3c
       -0.005877709 -0.022771563 -0.007415799 0.013350007
000070 77 23 1a bd 70 53 b3 bd 9a 80 59 bd 02 10 dc bd
       -0.03763148 -0.08756149 -0.05310116 -0.10745241

encoder.encoder.cnnblock1.cnnlayer2.cnn_layer.1.running_mean f4 [32]
000000 16 82 48 3f 58 cd c3 3f 3e 37 c8 3d bc 44 38 be
       0.78323495 1.5297041 0.097761616 -0.1799497
000010 b5 91 00 40 e5 bf 95 3f c4 de 28 3f 49 e5 d8 bf
       2.0088933 1.1699187 0.65964913 -1.6944972
000020 60 7a b2 bf 39 11 fb 3e 3e ec 8f bf 48 d7 25 be
       -1.3943596 0.49036577 -1.124397 -0.16195405
000030 50 cb 80 bf 59 e6 f8 3f 04 68 61 3e a3 a3 f0 3d
       -1.0062046 1.9445297 0.22012335 0.11749961
000040 a2 ce 5a 3f 93 3a 87 3f 04 05 d4 3f 46 25 68 bf
       0.85471547 1.056475 1.6564031 -0.90681875
000050 0b a6 bd bf bc f2 ce 3d 7f 51 28 3e 10 50 6d bf
       -1.4816297 0.10104892 0.16437338 -0.9270029
000060 10 e2 6a 3f d4 a9 a2 3e b3 ae 01 3f 42 ef 85 3e
       0.91751194 0.31770194 0.50657195 0.26159102
000070 8d 09 5a 3d be 15 3a bf 34 0d 10 be d6 ca bb bf
       0.053231765 -0.72689426 -0.14067537 -1.4671276

encoder.encoder.cnnblock1.cnnlayer2.cnn_layer.1.running_var f4 [32]
000000 0d a1 23 41 85 4b 81 41 05 3f 32 41 b3 49 d8 40
       10.226819 16.161875 11.140386 6.7589965
000010 63 6e 63 41 b9 dc 08 41 45 d6 3a 41 b1 b8 50 41
       14.21445 8.553887 11.677312 13.045091
000020 cf 17 37 40 a0 5e 6c 41 b5 1c 3e 41 d6 13 19 3f
       2.8608282 14.773102 11.882009 0.5979589
000030 56 27 a4 40 c8 8f 9b 41 fa 55 78 3e 4f 88 46 41
       5.1298018 19.445206 0.24251547 12.408278
000040 18 14 43 3f c9 a0 96 40 6e 3e 22 41 42 bc 55 40
       0.76202536 4.707127 10.140242 3.3396153
000050 cf 97 6d 41 ca ea f9 3f d6 46 53 41 e1 01 82 40
       14.849563 1.9524777 13.204794 4.0627294
000060 7b c2 d5 40 6d 81 1a 41 80 db e6 40 7d 8d 98 40
       6.6799903 9.656598 7.2142944 4.7672715
000070 7d 0e af 3e bd 48 b2 40 21 2f 18 41 6b 5f 42 41
       0.3419074 5.571379 9.511506 12.148295

encoder.encoder.cnnblock2.cnnlayer1.cnn_layer.0.weight f4 [64, 32, 3, 3]
000000 41 24 3d bc 07 58 f2 bc 8e b9 d3 bb b2 bd 1c bd
       -0.011544288 -0.02958299 -0.006461329 -0.038266845
000010 ef ee 21 3c 4c 60 13 3c f1 f5 d4 bc 61 a1 f7 bb
       0.009883626 0.008995127 -0.02599618 -0.0075570797
000020 80 bb 88 bc 5f 05 d2 3b 78 89 b6 3b 90 d9 d8 3a
       -0.01669097 0.0064093317 0.005570587 0.0016544331
000030 31 8e ad 3b 5d 16 77 3c 04 72 2c 3d 5c ad b2 bb
       0.0052964916 0.015081015 0.04210092 -0.005452795
000040 75 87 81 3c ae 51 51 3b 94 75 b4 ba 7a 34 09 bd
       0.015811661 0.0031939554 -0.0013767951 -0.03349731
000050 36 53 45 bb 67 9a f2 bc 6d 85 c6 3a f2 df b2 3b
       -0.0030109412 -0.02961464 0.0015145965 0.0054588253
000060 c1 39 6c bd fb d7 4a 3d a6 bc 77 3c 82 3b af bc
       -0.057672266 0.04952238 0.015120661 -0.02139068
000070 3e f8 b5 bb ee 6c c4 bc db 67 b3 3c 72 57 cd bb
       -0.0055532744 -0.023977723 0.021900108 -0.006266528
000080 d6 a6 54 3c bb 51 71 3b b2 88 3b bd 1f 29 73 3d
       0.01297923 0.0036822397 -0.04578466 0.059365388
000090 cf b8 82 bc 22 be 14 bc 15 9b 99 bc e2 cc c7 bc
       -0.015957264 -0.009078534 -0.018750707 -0.024389688
0000a0 5b f8 1a bb b8 81 54 3d 8c a3 89 bc f1 20 61 bc
       -0.0023646567 0.051881522 -0.016801618 -0.013740764
0000b0 c3 cb 90 bc aa f9 09 bd 5f a5 f5 3c 68 2a 0f bd
       -0.017675286 -0.033685364 0.029986082 -0.03495255
0000c0 c4 36 b8 bc 45 1b 41 3d e7 00 56 3c 32 1e c1 bc
       -0.022487052 0.047145147 0.013061739 -0.023573969
0000d0 b7 1c ff 3c 4f 1f d9 3c e8 e1 57 bd 26 56 a9 3b
       0.031141622 0.026504187 -0.052705675 0.0051677404
0000e0 f8 28 17 3d 87 cb 0b bc 22 c8 49 3d 86 3e 1f 3d
       0.036904305 -0.008532411 0.049263127 0.038877986
0000f0 f1 2a 56 bc 29 dd fc bb cc 54 cd bb ed f9 87 3c
       -0.0130717615 -0.007716794 -0.006266212 0.016598666
000100 3a 39 1c ba 4a 22 b5 bc 8d c9 cf 3b df 10 ac 3c
       -0.0005959455 -0.022111077 0.0063411654 0.021004139
000110 f5 85 aa ba 5d 37 af 3c ea a3 ef 3c 05 e1 5a bb
       -0.0013009893 0.021388704 0.029252965 -0.0033398282
000120 c0 05 bb bb c9 3e 5b bc 7d 05 35 bc 06 39 7f bb
       -0.0057074726 -0.013381668 -0.011048672 -0.00389439
000130 bd 45 b4 bb 10 2c 11 bc e1 3d 8e 3b dc 70 81 bb
       -0.0055014775 -0.008860603 0.0043408726 -0.0039502215
000140 42 26 5d 3b c3 8c 35 3c 43 cb ba 3c fc 9a a5 3c
       0.0033744727 0.0110809235 0.022802 0.020215504
000150 a3 04 9c bb e3 72 ce 3c c6 61 04 3d 74 07 ab 3a
       -0.004761295 0.025201267 0.032319807 0.0013048486
000160 56 c5 c9 3c f7 2f b3 3c fc ac 8b 3b e0 33 0d 3b
       0.02463023 0.021873457 0.0042625647 0.0021545812
000170 df 22 da bb 53 f3 2e bd ec 70 38 bc b5 da 03 bd
       -0.006656989 -0.04271252 -0.011257391 -0.032190997
000180 31 80 95 bc 53 cf 6e 3c 67 f4 8f 3c 58 0e c0 3c
       -0.018249603 0.014575797 0.017572595 0.02344434
000190 6b 17 92 3c 8b 5d 0a 3d 9d 93 17 3d 1f fc 71 3d
       0.017833432 0.033780616 0.03700601 0.059078332
0001a0 b6 6c 93 3d 0c db 90 3d 1c 30 82 3d ef 51 ec 3d
       0.07198469 0.0707303 0.063568324 0.11539065
0001b0 9f 7d fa 3c 5e 13 54 bc 48 5d fc ba 3a a6 96 3b
       0.030577479 -0.012944071 -0.0019253874 0.0045974525
0001c0 8e 9a 59 bc 33 01 a6 bc d0 8f a3 3b 0f 6b 1e bd
       -0.013281478 -0.020264244 0.004991509 -0.038676318
0001d0 ac 8b 50 bd e0 e6 6b bc 16 40 05 bd 5d 80 79 ba
       -0.05091445 -0.014398307 -0.03253182 -0.0009517724
0001e0 8b e8 10 bc c5 83 aa bc b4 7d 33 bc 0f d4 20 bd
       -0.008844505 -0.020814786 -0.010955263 -0.039264735
0001f0 7f e4 92 bc ba e5 b4 bc 28 18 ea 3c 07 31 e9 3b
       -0.017931221 -0.022082198 0.028575972 0.00711644
000200 b7 16 9f bb d3 b7 02 3d 13 30 8e 3c c5 6d 81 3b
       -0.0048550027 0.03191359 0.017356908 0.003949853
000210 00 41 0b 3d d1 58 a7 3c 8b 76 2e 3c b7 12 0a bd
       0.033997536 0.020428093 0.01064838 -0.033709254
000220 5c 87 69 bb f8 35 6c 3c 4c 41 3d bd 24 5f ad 3d
       -0.003563366 0.014417164 -0.04620485 0.08465412
000230 d8 72 4e bc 23 7c fc bb 6e bc c5 3b 43 ff 8e bb
       -0.012600623 -0.007705228 0.0060344255 -0.0043639257
000240 ed 9c 21 3d be 90 98 3c bf e6 f8 3b 7a 0c 9a 3c
       0.039456297 0.018623706 0.0075958665 0.018804777
000250 8f 2c a5 bb ec d8 f8 3b 74 22 68 3c 14 fe 04 bc
       -0.005040712 0.0075942185 0.0141683705 -0.008117218
000260 9f d9 28 bc 59 88 77 bd 35 da 6e 3c 22 c1 a8 3b
       -0.010305791 -0.060432766 0.014578392 0.0051499764
000270 9b 66 91 bc 10 fb f7 ba d1 14 15 3d 56 99 3e bb
       -0.017749121 -0.0018919427 0.036396805 -0.0029083095
000280 cd c4 ee 3c 48 23 70 3c 3f 87 9c bc 3b 89 90 bc
       0.029146576 0.014656849 -0.01910746 -0.017643562
000290 37 0f b5 bc 59 39 06 bd 29 9d 17 bc cc 56 d0 bb
       -0.022101982 -0.032769535 -0.0092537785 -0.0063580032
0002a0 80 01 02 3d 5d 15 72 bd 37 f4 e9 bc 77 75 a6 3b
       0.03173971 -0.059102405 -0.028558834 0.005079921
0002b0 23 26 21 bd 54 b1 6a bd 3a 17 5d 3c 02 07 69 bc
       -0.03934301 -0.05729802 0.013494307 -0.014222862
0002c0 7b d2 69 3b 3a 5a ba bc 1d 50 83 bb d0 fd 8c bb
       0.0035678435 -0.022748102 -0.004007353 -0.0043027177
0002d0 91 41 fc 3b 8b 3c 2c bd 5c 76 95 bb 36 88 70 3d
       0.007698246 -0.042049926 -0.0045612287 0.05872365
0002e0 e6 37 4b 3d 64 aa 95 3d 3f 5a 0c 3d 61 ab 9e bb
       0.049613856 0.0730789 0.034265753 -0.0048422073
0002f0 5d cd 3a 3c 48 07 d8 bc 22 55 6c bc 06 98 0e 3c
       0.0114015015 -0.02637066 -0.014424594 0.008703237
000300 95 dc 66 bc 2e bd f7 bc ab 5d 44 3c ed e9 43 3c
       -0.014090677 -0.030241575 0.011985223 0.011957628
000310 6c 97 fe bb f3 c8 eb 3c 14 28 33 3b 71 c6 62 3b
       -0.0077695157 0.028782343 0.002733712 0.0034603144
000320 c0 e0 1d 3c cb 25 b9 ba c5 87 54 3c 5d f1 fa 3b
       0.009636104 -0.0014125643 0.012971823 0.0076581673
000330 21 d4 14 bd 35 d6 a1 3b d5 17 41 bd 44 9b 81 3b
       -0.036335114 0.0049388655 -0.04714187 0.0039552767
000340 13 66 23 bc e0 8b fc bb a1 d6 98 3b e4 c7 af bb
       -0.009973067 -0.007707104 0.0046642576 -0.005364405
000350 dd e0 94 bc 50 cd dd 3b 81 79 7a ba df ae 36 bb
       -0.01817363 0.00676886 -0.00095548487 -0.0027875227
000360 75 46 af 3c e4 d3 08 3d 21 25 05 3d 56 36 8f bc
       0.021395901 0.0334052 0.032506112 -0.017481964
000370 d7 b2 30 3d 8c e9 36 3d ed 4c 42 3c 73 85 60 3c
       0.043139305 0.04465632 0.011859161 0.013703692
000380 8e 84 82 3d 2a f8 a7 3b 49 6f 37 3a 2a 40 47 3c
       0.06372939 0.005126019 0.0006997479 0.012161294
000390 df 5e 02 3c be b2 cb 3c af a3 a2 3d 87 9c ab bc
       0.007957189 0.024865504 0.079413764 -0.020948661
0003a0 81 38 a0 3c f9 02 bf 3d 11 b7 db 3b 51 b4 d3 b9
       0.019558193 0.09326739 0.006705173 -0.00040379402
0003b0 7e e7 88 3a 97 57 6d bd 50 4b 5d bd de 57 2f 3c
       0.0010444967 -0.05794486 -0.0540269 0.0107021015
0003c0 a6 2a 94 bd a2 27 01 3b a3 f4 11 bc c5 c1 8f 3c
       -0.07234697 0.001970746 -0.008908424 0.017548451
0003d0 50 98 4d bb ab a9 1a bc 56 19 a1 bc 6a 23 ae bc
       -0.0031371303 -0.009439866 -0.019665401 -0.021257121
0003e0 af ce 2d bc aa f6 22 bc fb 96 6a b8 19 ae 5a bc
       -0.010608359 -0.009946505 -5.593056e-05 -0.013347172
0003f0 74 ef ac 3c 6c 96 0a 3c f3 04 1c 3b 9d e6 51 3c
       0.021110274 0.008458715 0.002380666 0.01281133

encoder.encoder.cnnblock2.cnnlayer1.cnn_layer.0.bias f4 [64]
000000 92 4c ce b2 7c f7 c2 31 c7 36 42 32 47 3d 67 32
       -2.4016376e-08 5.674279e-09 1.1304741e-08 1.34599025e-08
000010 53 2b 74 33 91 2d d0 33 0a 57 e2 31 3e 6b 9b 32
       5.685008e-08 9.694043e-08 6.587361e-09 1.8093143e-08
000020 6c cc e7 32 f1 e5 c0 32 47 31 10 32 66 12 f1 b1
       2.69849e-08 2.2456307e-08 8.3931075e-09 -7.016115e-09
000030 fa e9 10 30 b5 c7 77 31 b7 4e 88 b2 2e a9 65 32
       5.2719396e-10 3.605675e-09 -1.586828e-08 1.3368021e-08
000040 ef 6f 7d 33 9f ad 8b 32 3f 67 bb b0 a5 44 0f 33
       5.9007956e-08 1.6260683e-08 -1.3635385e-09 3.3357214e-08
000050 7a d8 4d 32 a2 30 91 32 3b 50 5d b2 14 c7 3b 33
       1.1981792e-08 1.6902337e-08 -1.2882135e-08 4.372039e-08
000060 e7 fc ba b1 77 a0 2b b3 2e c1 f1 b2 b9 3c af 32
       -5.442064e-09 -3.9959982e-08 -2.814394e-08 2.0400295e-08
000070 70 c7 15 32 ab 5f 1e 2f 10 89 a5 33 8e 86 de b3
       8.718288e-09 1.4404004e-10 7.708343e-08 -1.0362156e-07
000080 2e 37 74 32 40 05 af 32 90 57 12 b2 9e 11 81 b2
       1.4215216e-08 2.0375069e-08 -8.518228e-09 -1.5025588e-08
000090 57 5c c8 b3 9b a7 b0 b2 65 eb e1 31 9c 88 d3 31
       -9.330022e-08 -2.0565315e-08 6.575123e-09 6.156439e-09
0000a0 f8 a8 0d b3 ea 2d 3a 32 2b e8 c0 32 45 ea 21 32
       -3.2982797e-08 1.0837065e-08 2.245732e-08 9.4247e-09
0000b0 c0 7b 82 b3 4a f0 8c b1 ed 7d 38 b3 44 2e 49 b2
       -6.076107e-08 -4.101854e-09 -4.2955367e-08 -1.1710259e-08
0000c0 f1 0c d7 30 79 71 9c b1 cb 7a 19 32 d6 09 e6 b0
       1.5646987e-09 -4.553098e-09 8.933692e-09 -1.6737498e-09
0000d0 e3 70 55 b2 46 86 a4 b0 de 32 7a 33 40 b8 c5 2f
       -1.2423899e-08 -1.1970733e-09 5.8253924e-08 3.596501e-10
0000e0 fa ab 11 b3 c5 14 a3 31 9e 0b 84 b3 9b 20 93 30
       -3.3916855e-08 4.7462856e-09 -6.148842e-08 1.0704925e-09
0000f0 39 25 e3 31 57 76 d5 31 a2 c5 18 b3 ef f8 92 b2
       6.6108012e-09 6.2125696e-09 -3.5570004e-08 -1.7109839e-08

encoder.encoder.cnnblock2.cnnlayer1.cnn_layer.1.weight f4 [64]
000000 24 6a 2b 3f 7c 48 c9 3e d6 1f 01 3f af 44 25 3f
       0.6695883 0.39313114 0.504392 0.6455793
000010 92 b2 22 3f 07 be 5d 3f 96 32 c7 3e 48 c0 4a 3f
       0.63553727 0.86618084 0.38905782 0.7919965
000020 2f eb b2 3e 51 90 0f 3f 54 0a 3b 3f dd 22 2e 3f
       0.34945056 0.56079584 0.73062634 0.6802195
000030 8b 52 53 3f f7 fe f4 3e 26 1b bb 3e bc 33 20 3f
       0.82547826 0.47850773 0.3654415 0.6257894
000040 47 07 20 3f 46 77 e5 3e 08 70 53 3f 68 86 2c 3f
       0.62511104 0.4481756 0.8259282 0.6739259
000050 1f fd 25 3f bf c1 e2 3e 9d 8d e4 3e a8 3d 1a 3f
       0.6483936 0.44288442 0.44639292 0.6025033
000060 0e 48 34 3f 94 44 14 3f 5e 56 13 3f cc d4 26 3f
       0.70422447 0.5791714 0.5755366 0.6516845
000070 a8 0b be 3e 5c a0 1d 3f 94 00 1b 3f da d6 68 3f
       0.37118268 0.61572814 0.6054776 0.9095284
000080 05 06 47 3f 6a 32 42 3f 5e 48 53 3f 08 57 37 3f
       0.7774356 0.75858176 0.825323 0.71617174
000090 6d 59 fa 3e 94 5c 2e 3f 59 1c 36 3f 88 49 9e 3e
       0.4889635 0.68110013 0.71137005 0.30915475
0000a0 c7 90 16 3f 80 a3 03 3f 67 bb 04 3f b0 b9 dc 3e
       0.5881466 0.51421356 0.51848453 0.43110418
0000b0 8a 39 34 3f d2 f0 04 3f 71 d3 25 3f 51 f7 ab 3e
       0.704003 0.5192996 0.6477576 0.33587125
0000c0 7a 09 f1 3e 6a c3 28 3f 43 1b 53 3f a6 cb 23 3f
       0.47077543 0.6592318 0.82463473 0.6398262
0000d0 50 a1 3c 3f d5 6e 13 3f 2d e8 ae 3e e5 2d 08 3f
       0.73683643 0.5759099 0.3416151 0.5319503
0000e0 c6 fd 4c 3f 0a 63 d8 3e 17 77 3b 3f 31 db cc 3e
       0.8007473 0.4226306 0.7322859 0.4001098
0000f0 bd 84 01 3f 82 aa 46 3f eb 17 f1 3e 1c d3 35 3f
       0.5059317 0.77603924 0.4708856 0.7102525

encoder.encoder.cnnblock2.cnnlayer1.cnn_layer.1.bias f4 [64]
000000 36 bc a1 3c 3d 04 c5 3c 79 95 0e bd 72 e3 7d bd
       0.019743066 0.024049873 -0.034810517 -0.061984487
000010 25 4b d4 3c e6 01 c1 3d e7 b5 05 bd 42 d6 80 3d
       0.025914738 0.0942419 -0.03264418 0.062908664
000020 f5 82 89 3d 9b f8 47 3d 4e 2d e0 3b 4f b0 56 bd
       0.06714431 0.048821073 0.0068413382 -0.052414235
000030 9c 77 7b 3d a8 12 c9 bd b9 fc 9f 3c a0 97 bf 3d
       0.061393365 -0.098180115 0.019529687 0.09355092
000040 84 ce b2 3d 1e be c3 3d b6 43 03 3d 22 4c 0f 3d
       0.08730796 0.09557746 0.032046996 0.034984715
000050 5b 0d 6e 3d 9c fa 72 3d b2 91 27 3d 4a c7 83 3d
       0.058118206 0.05932103 0.04091043 0.06434496
000060 70 51 5f 3d a7 24 50 bb 06 1c bb 3d 3b 04 53 bd
       0.054521024 -0.0031760128 0.091362044 -0.051517706
000070 30 42 52 3c e9 2f 99 3d 99 06 e4 3d c7 87 61 3d
       0.012833163 0.07479841 0.11134071 0.055061128
000080 c7 f9 60 bd 50 64 ee 3b 22 f8 83 3c 9f 7e 52 3c
       -0.054925706 0.007275142 0.01610953 0.012847572
000090 95 9a 9e bd 7a 35 8c 3d 9b f8 8d 3d 2a 38 e3 3d
       -0.07744328 0.06846137 0.06932183 0.11094697
0000a0 1a a3 75 3c d8 73 43 3d 60 9a b9 3d 5c ae aa 3d
       0.0149925 0.0477179 0.09062648 0.08334038
0000b0 c9 83 ae 3d 6f ff 28 3d 4f 41 ba 3d e8 20 e3 3d
       0.0852123 0.041259225 0.09094488 0.11090261
0000c0 13 28 04 3e 1e b4 5a 3d 72 a8 46 bd 1f 37 4d bd
       0.12905912 0.05339443 -0.048500486 -0.050101396
0000d0 81 8d 85 3d 54 b6 55 bd fd b9 8b 3d 29 7c 3b bc
       0.0652113 -0.052175835 0.06822584 -0.011443176
0000e0 05 44 33 3d 47 3f 4a bc 83 b1 c2 3d d1 7c 82 3d
       0.04376604 -0.012344188 0.09506514 0.06371463
0000f0 7e 0d 68 3d 78 ec 17 bc 16 14 fe bc 1c 29 a6 3d
       0.056653492 -0.009272687 -0.031015437 0.0811331

encoder.encoder.cnnblock2.cnnlayer1.cnn_layer.1.running_mean f4 [64]
000000 e3 3b 0f 3e be fe 11 3f d5 70 6d bf a4 6f 35 bf
       0.13987689 0.5702933 -0.92750293 -0.70873475
000010 a2 f6 82 be 24 f5 16 bf 24 01 a6 bf 86 c8 0d 3f
       -0.2557879 -0.58967805 -1.2969098 0.553841
000020 cd f7 24 be c4 7c c9 bc 8f 82 fb 3e 26 c1 c4 bf
       -0.16110153 -0.024595626 0.49123046 -1.5371444
000030 a5 17 2e 3f f0 6c 99 bf 65 9c ab bf ca 14 3a 3f
       0.6800483 -1.198637 -1.3407103 0.7268797
000040 f7 d0 7b bf fa e4 88 3d 9c 20 ac 3f 3d de 8e 3d
       -0.9836573 0.06684299 1.3447452 0.06975982
000050 65 77 2d 3f 65 eb 11 3d 73 54 c5 bf 82 4a 2c bf
       0.67760307 0.03562488 -1.5416397 -0.6730119
000060 ba eb 8d 3f ef f7 f5 bc 10 0a f5 be 18 2d a6 bf
       1.1087563 -0.03002545 -0.4785924 -1.2982512
000070 c2 da d0 bd e2 04 fe be 0e ce ff be 16 e4 24 3e
       -0.10197975 -0.496131 -0.49961895 0.16102633
000080 c8 cf 83 3f 9e 6b f5 3d 4b 4e d0 3f e2 78 d7 3c
       1.0297785 0.11983417 1.6273893 0.026302759
000090 da e9 d4 3e da 1d a9 3f ca ca 04 3f 63 42 af 3e
       0.41584665 1.3212235 0.5187193 0.34230337
0000a0 17 c1 98 be d0 7f 5a be 5a 67 95 bf 7e 68 5f 3f
       -0.29834816 -0.21337819 -1.1672165 0.8726882
0000b0 ab 95 6b bf ab a5 f7 3e f6 d8 90 3e 3b 87 06 be
       -0.9202525 0.48368582 0.28290528 -0.13137524
0000c0 ef 1a 05 3e 9b fa cc 3e af 78 ab bf 03 31 a1 bf
       0.12998556 0.40034947 -1.3396205 -1.2593082
0000d0 47 49 0b 3e e5 91 b4 bf 72 ab 87 bc d7 3b 23 bf
       0.13602172 -1.4107023 -0.016561244 -0.63763183
0000e0 2f 65 4e 3f af 75 8a bf f1 72 a9 be 02 7e 9e 3e
       0.80623144 -1.0817164 -0.33095506 0.3095551
0000f0 dd 05 74 3e b6 9e a4 3f f8 0c 00 bc 3a 32 6f be
       0.23830362 1.2860935 -0.007815592 -0.23359004

encoder.encoder.cnnblock2.cnnlayer1.cnn_layer.1.running_var f4 [64]
000000 ec 2e 09 3e 59 16 2b 41 c5 66 70 40 0a 93 e9 3f
       0.13396806 10.692956 3.7562726 1.8247998
000010 63 2a 66 3e 9e f0 49 3e 98 06 a8 40 c9 d6 3d 41
       0.22477107 0.19720694 5.250805 11.864938
000020 52 ca 0a 3f 25 41 c3 3e 05 be a4 40 03 b0 d6 40
       0.54214966 0.3813564 5.1481957 6.708986
000030 70 4f d9 40 92 dc 92 40 2d 25 f0 3f 12 08 2c 41
       6.790947 4.589425 1.8761345 10.75197
000040 d4 29 08 3f ae 49 84 40 cf 45 83 41 63 ad 27 3f
       0.53188825 4.133994 16.409086 0.6549894
000050 f3 ac 31 41 2d bf c4 3d 5b 44 0c 41 38 d1 a1 3e
       11.104724 0.096067764 8.766688 0.31604934
000060 c7 fd 77 41 38 3d 81 3d 17 02 f4 3d 0d 43 c2 40
       15.499457 0.06310505 0.11914461 6.070685
000070 86 45 c2 3f bc b2 9c 3e 00 af 9f 3e 97 be 97 3f
       1.5177467 0.30605114 0.31188202 1.1855038
000080 66 55 e6 40 c4 74 1a 40 78 97 66 41 aa 7f d8 3e
       7.1979246 2.4133768 14.41198 0.422849
000090 af 89 3b 3e 33 0a a8 40 5d 1b 0d 41 e1 06 cc 40
       0.18314241 5.251245 8.8191805 6.3758397
0000a0 9b fd 00 40 91 e4 4b 3f d2 4f 17 40 ad b5 49 41
       2.0154788 0.7964564 2.3642468 12.606854
0000b0 68 43 92 3e 83 e9 ec 40 d5 f9 fb 3f b4 7e 92 40
       0.28567052 7.403505 1.9685618 4.5779667
0000c0 40 c0 8f 40 c3 9e 2b 41 e4 46 7e 40 54 e8 88 40
       4.492218 10.72626 3.9730768 4.2783604
0000d0 cd 8f 4c 3e ce 4e b3 40 4d 16 17 3e db ef 74 40
       0.1997673 5.6033697 0.14754601 3.8271396
0000e0 65 5e 71 41 01 54 13 40 72 fe 18 3f 9d 53 99 40
       15.085546 2.3020022 0.5976325 4.7914567
0000f0 4d b8 52 40 22 b7 e8 40 9f c0 be 3d 0c 2d 7a 40
       3.2924988 7.272355 0.09314083 3.9089994

encoder.encoder.cnnblock2.cnnlayer2.cnn_layer.0.weight f4 [64, 64, 3, 3]
000000 87 ea 6d bc ae 5c fc bb 43 fc e6 bc 76 68 b3 bc
       -0.014521248 -0.007701478 -0.02819646 -0.021900397
000010 b4 9c 9e bb df cc 7b bb 91 db cd bc 26 9d 90 bb
       -0.004840458 -0.0038421673 -0.025129111 -0.004413265
000020 c2 06 a7 bc 59 54 a5 bd 97 b9 52 bc 32 22 4b bd
       -0.020388965 -0.08072729 -0.012861631 -0.049593158
000030 42 8b a8 bd 00 a4 8b bd 8c 6b 2b bd d8 78 c4 bd
       -0.08229686 -0.0681839 -0.04185061 -0.095933616
000040 df e8 d9 bd b2 68 7a bd 05 8f 39 bc f4 54 8d bb
       -0.1064012 -0.061135 -0.011325602 -0.0043131057
000050 5d a8 c8 b9 9d e0 13 3a 20 1f 08 bc 1f aa 62 bc
       -0.00038272413 0.0005641075 -0.008308202 -0.013834505
000060 ea 83 9d 3a e9 10 91 bc 50 ce f3 bc 45 7d 91 bc
       0.0012017463 -0.017708259 -0.029761463 -0.017759928
000070 d7 1c 17 bd 04 ae 49 bc 2c 2d 3c bd 54 b5 1e bd
       -0.03689274 -0.012309555 -0.045941517 -0.038747147
000080 fe 01 00 bc e5 2f 79 bd da c9 87 3c 99 1c 17 bd
       -0.007812975 -0.06083669 0.016575743 -0.036892507
000090 2f 71 03 bb 49 f0 d1 3c 01 30 c8 3c 7b 2e 0a bd
       -0.0020056476 0.025627272 0.024436953 -0.033735733
0000a0 ec f4 02 bd a6 d4 ac bc 0b 7c 0a 3d 1d a5 38 3d
       -0.031971857 -0.021097492 0.033809703 0.04507934
0000b0 94 cb 93 3d 50 e6 55 bd 10 e5 ab bb 3a d3 04 3c
       0.07216564 -0.052221596 -0.0052458122 0.008107001
0000c0 a8 1f 91 bc 29 3f 1d bc d1 89 b8 bb 6f 70 1a bd
       -0.01771529 -0.009597578 -0.0056316634 -0.03770488
0000d0 53 97 b4 bb 6b 4f fc 3c 88 68 2e bd 24 b1 d2 bc
       -0.0055112033 0.030799588 -0.042580158 -0.025719233
0000e0 5d c9 1a bd ed e9 f2 bc 85 fa 9c bc 7f a5 26 bd
       -0.03778969 -0.02965256 -0.019162426 -0.040685173
0000f0 90 5c 04 bc 5a 78 2d bc 41 d1 c3 3b 0a 38 89 bb
       -0.008078709 -0.010587776 0.0059758727 -0.0041875886
000100 69 af 59 3b 9a 5e 5c 3c b4 ed c1 bc 4f 49 0a bd
       0.0033216125 0.013450289 -0.023672916 -0.03376132
000110 ca 9e 17 3d 6c d5 8b bd 72 2e f6 bc 1a 4f 35 3d
       0.037016667 -0.06827816 -0.030051444 0.04426489
000120 49 00 03 bd 79 d4 82 bd 69 ea 91 bd ad 5b 0e bd
       -0.031982694 -0.06388182 -0.07124788 -0.034755398
000130 2b 6c 5d bd 64 34 39 bd 5e af d5 3b 64 cf 87 bc
       -0.054058235 -0.04521598 0.0065211495 -0.016578384
000140 a2 41 02 bd 8a c4 c6 bd ff ad fe bb 8a 3e 65 bc
       -0.031800874 -0.097054556 -0.007772207 -0.013991961
000150 be 9d 40 bb b6 b8 27 bd c9 27 b6 bc bf af 4f bd
       -0.0029390897 -0.04094764 -0.022235768 -0.050704714
000160 5e 8f 2d bc 9c 03 2a bb 8a 64 a8 bd 75 8e 5c bd
       -0.010593263 -0.0025942093 -0.08222301 -0.053846795
000170 5a 1b 90 bd 74 a5 2c bd 40 73 9e bd 66 3a 85 bd
       -0.07036467 -0.042149976 -0.07736826 -0.06505279
000180 21 a3 80 bd d8 60 90 bd de bb 9d bd 2a 7d b5 bc
       -0.06281114 -0.070497215 -0.077018484 -0.02215441
000190 a8 1b 0e bd 63 72 63 bc 21 24 4d bc 08 9d c9 bc
       -0.034694344 -0.013882252 -0.012520821 -0.024611011
0001a0 89 af f8 bc 57 2d d4 ba f6 1b bb bc 85 cb 16 bd
       -0.03035714 -0.0016187829 -0.022840481 -0.036815185
0001b0 bd e0 8e ba f5 eb 58 bc 30 c4 6b 3d eb f5 2c bd
       -0.0010900717 -0.01323985 0.057560146 -0.042226713
0001c0 88 ab ce 3d 2d 33 cc 3c e8 b3 ff bc 39 b4 1a 3d
       0.10091311 0.024926746 -0.031213716 0.03776953
0001d0 69 77 99 3c e8 84 c1 bc ca 40 43 bc 89 73 9c 3c
       0.018733697 -0.023622945 -0.011917302 0.01909806
0001e0 19 7b eb 3b ea 89 b4 bc e0 65 79 bc ef ad 35 bb
       0.0071863052 -0.022038419 -0.015222043 -0.002772208
0001f0 c0 32 99 3a 6b de a9 ba 9d ed aa bb 92 ae 87 bc
       0.0011688098 -0.0012959962 -0.005216314 -0.016562734
000200 6e db 27 bb af 62 17 bc 05 6a 85 bc a3 95 0e bb
       -0.0025612968 -0.009239837 -0.016285906 -0.002175667
000210 87 90 1f bc dd 13 49 bc 1c 81 e6 ba 3e 8b 5f bc
       -0.009739048 -0.012272802 -0.0017586085 -0.013644038
000220 21 0d ef bc 67 94 1d bc fb 39 ce bd ee 43 f4 bc
       -0.029181065 -0.009617901 -0.10069653 -0.029817548
000230 0c da 6f 3d 75 56 a3 bd 4b 10 8d bd ec 18 0f bd
       0.058557555 -0.07975475 -0.06887873 -0.034935877
000240 b2 d4 55 bd 65 82 65 bd 9c 70 82 bd 69 f0 85 bd
       -0.052204795 -0.056032557 -0.06369135 -0.06539995
000250 bf 3f 42 bd 99 db 09 bd c2 bc 9a bd 3d 57 1e bd
       -0.047424074 -0.03365669 -0.07555534 -0.038657416
000260 15 1b ae bd c8 ab 59 bd cd 8d 1e bc 61 4a fa bc
       -0.08501259 -0.05314234 -0.009677363 -0.030553045
000270 88 51 f5 bc 61 31 98 bc 55 7c b7 bc 1f 26 85 bd
       -0.029946104 -0.018578233 -0.022398153 -0.06501412
000280 e5 f6 05 bd ab b7 71 bd 84 6c 03 bd c3 0c 3a 3b
       -0.03270616 -0.05901305 -0.03208591 0.0028388954
000290 0a 52 b0 3c f1 b4 af bd 9a 09 57 bd e8 c1 0d bc
       0.021523494 -0.08579434 -0.05249939 -0.008652188
0002a0 c9 14 ee bd 53 fd c4 bd 0b 02 4f bd fd f9 1a bd
       -0.11625058 -0.0961863 -0.050539058 -0.037836064
0002b0 b9 ef ba bd 62 75 51 bd a4 c6 a9 bd fe 80 3d bd
       -0.09127755 -0.051137336 -0.08289841 -0.046265595
0002c0 7d c6 c3 bc 72 f1 d7 bd bd e9 60 bd ab 68 41 bc
       -0.023898358 -0.10544099 -0.05491041 -0.01180474
0002d0 f3 cd c7 bc ba 29 dd bc 2e 67 84 bd a9 a2 28 bd
       -0.024390196 -0.026997436 -0.064649925 -0.04117075
0002e0 ee 27 44 3d 7e e3 18 3c 07 af 71 bd 01 a3 80 bc
       0.047889642 0.009331582 -0.05900481 -0.015702726
0002f0 d6 0c 47 bd 93 84 7a bb 89 04 f6 bc cf 2e 2c bb
       -0.048596226 -0.0038225993 -0.03003146 -0.0026273017
000300 af ef 65 bc 78 40 47 bc 67 bf c7 bc f5 f1 68 3c
       -0.014034196 -0.012161367 -0.02438326 0.014217843
000310 6c 40 51 bb 0e 20 8b bc 87 11 25 3d 94 a6 d3 3c
       -0.0031929268 -0.016983058 0.04029992 0.025836267
000320 d1 2e 98 3c 30 62 05 3d f9 a1 01 3d 2b 4e 98 bb
       0.018577011 0.032564342 0.03164861 -0.00464799
000330 be 2e 22 3d 05 73 e0 3c 07 1d 0e 3d 7b 50 11 bc
       0.039595358 0.027398596 0.03469565 -0.008869286
000340 13 1b a9 bc 06 70 0a bd 78 d8 7b 39 be 2e f1 bc
       -0.020642793 -0.03379824 0.00024017866 -0.029441234
000350 f8 91 00 bc 3d 17 64 bc 7b ed 95 bc fa 72 bb 3c
       -0.007847302 -0.013921556 -0.018301716 0.022881974
000360 ba e2 61 bd 79 a6 01 bd 52 3b e1 3b e1 2e 75 bd
       -0.055147864 -0.0316529 0.0068735266 -0.05985916
000370 10 a1 8c bd cd 9b 10 bb 95 4c fc bd 69 7c 1e bc
       -0.06866658 -0.002206552 -0.12319294 -0.009673216
000380 e0 10 8e bc 03 91 40 bc 30 6d d5 bb 5b df 83 bc
       -0.017342031 -0.0117533235 -0.0065132603 -0.016097715
000390 74 d4 41 bd e6 bd 6a bc ac 09 9b bb f4 e8 73 bc
       -0.04732175 -0.014327502 -0.0047313776 -0.014887083
0003a0 47 fd 87 3b 92 2f dc bc 9b d5 14 bd 70 d8 c6 bb
       0.004150066 -0.026878152 -0.036336523 -0.006068282
0003b0 48 25 e8 ba b2 4f 82 bd a7 89 f1 3c 53 ab be bc
       -0.0017711306 -0.06362857 0.029484583 -0.023275053
0003c0 6f 4d f4 bc 89 2f 17 bd 63 be 74 bc 77 79 5a bc
       -0.02982208 -0.036910567 -0.01493797 -0.013334624
0003d0 6e a3 f7 bb e2 4c 57 bd 18 4e 07 bc ff 2b ea bb
       -0.007557324 -0.052563556 -0.008258365 -0.007146358
0003e0 30 2b 72 3c 3b 97 7b bd b9 c7 82 bd 3c 9f fa bc
       0.0147808045 -0.06142352 -0.0638575 -0.030593507
0003f0 b9 2a 83 bd cf fa d8 bc 72 8f 1d bd 19 25 19 bd
       -0.06404633 -0.026486782 -0.03846688 -0.037388895

encoder.encoder.cnnblock2.cnnlayer2.cnn_layer.0.bias f4 [64]
000000 45 0e 48 b0 7d 59 19 b2 17 a5 0b b2 5a 06 d3 b0
       -7.2779854e-10 -8.926119e-09 -8.128402e-09 -1.5354076e-09
000010 e3 cd 95 b3 eb 26 a0 b1 0d f1 5f b1 3a 35 d2 31
       -6.975804e-08 -4.6610373e-09 -3.2587792e-09 6.1178556e-09
000020 a8 77 29 b2 70 00 84 b1 c7 29 82 32 f3 cc 4c b0
       -9.864301e-09 -3.8417554e-09 1.515299e-08 -7.450602e-10
000030 b4 5d 08 b2 5b 1d 2d 33 18 5d e7 b1 cf fb 23 32
       -7.9375475e-09 4.03064e-08 -6.7335684e-09 9.545103e-09
000040 19 0b 99 32 74 a9 e1 b2 27 1c 90 31 86 43 63 b0
       1.781659e-08 -2.6270506e-08 4.194152e-09 -8.2678075e-10
000050 d4 4d aa 33 0a bc 09 b0 2c 08 e6 31 1e 55 c4 b1
       7.930399e-08 -5.010753e-10 6.69481e-09 -5.7140275e-09
000060 0c cb 6b 31 50 b4 a2 b2 e4 16 52 31 ae fc 3e b2
       3.431242e-09 -1.8941279e-08 3.0572034e-09 -1.1116908e-08
000070 c1 01 53 31 81 b8 7e 32 71 58 9f 31 8c f9 68 30
       3.0705538e-09 1.4826697e-08 4.6375637e-09 8.4755736e-10
000080 87 b2 dc b2 48 d1 3c 31 e6 8c 12 b3 7d 6c b9 b2
       -2.5692556e-08 2.7476563e-09 -3.412142e-08 -2.158617e-08
000090 68 27 a1 b2 c8 d8 c5 b1 0d 04 62 b2 bd 78 80 af
       -1.8760787e-08 -5.7580998e-09 -1.3155852e-08 -2.3368854e-10
0000a0 b6 a7 1b 31 3d 8c 34 b2 e7 f5 98 b2 bd 49 ef 32
       2.2650801e-09 -1.05092655e-08 -1.7806952e-08 2.7856794e-08
0000b0 6a 49 7b 33 fc db e3 31 2d da 9c 31 aa a8 54 33
       5.850726e-08 6.631579e-09 4.5650013e-09 4.9513496e-08
0000c0 c4 86 96 33 7f 2d 5a 33 7a 25 70 b1 5e 80 b1 b3
       7.009433e-08 5.079846e-08 -3.49459e-09 -8.2655546e-08
0000d0 f2 06 86 b1 18 0a 68 31 e7 6c 5f 32 1b 38 85 31
       -3.900703e-09 3.376618e-09 1.300507e-08 3.877188e-09
0000e0 c5 ca 31 32 43 02 4d b2 21 d3 60 31 bf e3 30 32
       1.034886e-08 -1.1933085e-08 3.2716303e-09 1.0296332e-08
0000f0 27 8f cf b1 e5 cd 9a b1 40 cf 96 2f e5 bd a9 b1
       -6.0407674e-09 -4.5053974e-09 2.74321e-10 -4.940136e-09

encoder.encoder.cnnblock2.cnnlayer2.cnn_layer.1.weight f4 [64]
000000 46 4f 38 3f aa 17 bf 3e f6 65 15 3f 27 5d 08 3f
       0.7199596 0.37322742 0.58358705 0.5326714
000010 81 eb 53 3f 64 80 d8 3e b8 b0 1a 3f 60 b4 03 3f
       0.82781225 0.42285454 0.604259 0.51447105
000020 b3 28 fb 3e 19 58 12 3f 39 53 2c 3f f6 3c 2e 3f
       0.4905449 0.57165676 0.6731449 0.6806177
000030 e4 02 4d 3f 33 be 2c 3f 5b e4 55 3f e2 65 43 3f
       0.80082536 0.6747772 0.8355157 0.76327336
000040 a0 a1 30 3f 50 24 bc 3e 23 a0 45 3f 14 52 38 3f
       0.6899662 0.36746454 0.77197474 0.7200024
000050 45 f4 ea 3e 13 34 1f 3f 32 50 10 3f cb 68 10 3f
       0.45889488 0.62188834 0.5637237 0.564099
000060 93 2c f8 3e f8 bc 02 3f 1e f0 1f 3f e6 f1 01 3f
       0.48471507 0.51069593 0.62475765 0.5075973
000070 8e 4c 18 3f d2 37 4d 3f 1f 58 35 3f c2 3b 4a 3f
       0.59491813 0.801633 0.7083759 0.78997433
000080 6f 71 cd 3e 47 68 15 3f a5 e5 34 3f 61 5a f9 3e
       0.40125605 0.5836224 0.7066291 0.48701766
000090 01 7b 20 3f 64 2a 31 3f 03 06 0f 3f 71 d9 19 3f
       0.6268769 0.6920531 0.5586855 0.60097414
0000a0 3f f6 19 3f 5e b2 32 3f 29 95 05 3f b3 23 3d 3f
       0.60141367 0.69803417 0.52180725 0.738826
0000b0 ee a6 08 3f 06 6e 1b 3f a4 29 3a 3f 7b 23 35 3f
       0.53379714 0.6071476 0.7271979 0.70757264
0000c0 77 d8 bc 3e 27 2b 1e 3f c2 8a 1a 3f 70 1f 3b 3f
       0.368839 0.61784595 0.6036798 0.73094845
0000d0 f5 9d e0 3e 70 00 f5 3e 36 cd 12 3f 02 f6 dd 3e
       0.43870512 0.47851896 0.5734438 0.43351752
0000e0 e9 8e 1a 3f 34 3b 07 3f 19 3f cd 3e ad d8 1d 3f
       0.60374314 0.5282471 0.40087202 0.61658746
0000f0 ec 42 03 3f 2a bc d7 3e 5c 0a 5d 3f 54 c7 12 3f
       0.5127399 0.42135745 0.8634393 0.573354
