model_proves.pth (torch, 551339 bytes, 48 tensors)

encoder.encoder.cnnblock1.cnnlayer1.cnn_layer.0.weight f4 [32, 3, 3, 3]
0	0xbe515b32	-0.20444945
1	0xbea643df	-0.32473657
2	0xbe2f506f	-0.17120527
3	0xbeec2267	-0.46119997
4	0xbec13610	-0.3773656
5	0xbe884d90	-0.26621675
6	0xbea9375f	-0.33050057
7	0xbe415c8b	-0.18882959
8	0xbe1f00af	-0.15527605
9	0xbe7f1d3f	-0.249135
10	0xbeb22f61	-0.34801772
11	0xbe7b1926	-0.24521312
12	0xbef81aa5	-0.48457828
13	0xbf0a0774	-0.5391762
14	0xbf3dc319	-0.7412582
15	0xbf18be7d	-0.5966566
16	0xbefb118c	-0.49036825
17	0xbe9e849f	-0.30960557
18	0xbdf16810	-0.117874265
19	0xbe1da658	-0.15395486
20	0x3d49b7cb	0.049247544
21	0xbce326cd	-0.027728463
22	0xbe5c0a2e	-0.21488258
23	0xbe8b23ec	-0.27175844
24	0x3ca8d94b	0.020611426
25	0xbe482a53	-0.19547395
26	0xbe0ac027	-0.13549863
27	0xbec26431	-0.37967065
28	0xbf0fcd85	-0.5617297
29	0xbe94b38d	-0.29043236
30	0xbed8515f	-0.4224958
31	0xbed1fab1	-0.41011575
32	0xbef01d43	-0.46897325
33	0xbed7b17a	-0.4212759
34	0xbf0e6592	-0.55623734
35	0xbec5bfe4	-0.38622963
36	0xbdd8f56a	-0.10593684
37	0xbeb718a7	-0.35760996
38	0xbdf49fba	-0.11944528
39	0xbec92827	-0.39288446
40	0xbf00fab5	-0.5038255
41	0xbeb1b076	-0.34704942
42	0xbe7f165c	-0.24910873
43	0xbed77299	-0.4207962
44	0xbeab6b23	-0.33480176
45	0x3e67001e	0.22558638
46	0xbdec160e	-0.11527644
47	0x3e0ad961	0.13559486
48	0xbe651c18	-0.22373998
49	0x3cfb49fc	0.030674927
50	0x3d85a915	0.065263905
51	0xbc814a01	-0.015782358
52	0xbd60b88b	-0.054863494
53	0xbbda03b6	-0.0066532744
54	0xbe9d6db2	-0.30747753
55	0xbe8db8d1	-0.27680066
56	0xbee53141	-0.4476414
57	0xbef451e3	-0.47718725
58	0xbeecafcb	-0.4622787
59	0xbf02a572	-0.510337
60	0xbeda428d	-0.426289
61	0xbef13e66	-0.4711792
62	0xbe8888a7	-0.26666757
63	0xbe81870f	-0.25298354
64	0xbe63329c	-0.22187275
65	0xbe01c151	-0.126714
66	0xbebd41f1	-0.36964372
67	0xbee8ab8b	-0.45443377
68	0xbed3f1e1	-0.41395476
69	0xbeb5ff3c	-0.3554629
70	0xbf24d99f	-0.64394563
71	0xbe4a4e92	-0.19756535
72	0xbe2a2bf3	-0.16618328
73	0xbdb35a1c	-0.087574214
74	0x3d81760f	0.06321346
75	0xbe5c92c2	-0.21540359
76	0xbeb7c55d	-0.35892764
77	0xbdf34784	-0.11878875
78	0xbe60f577	-0.21968637
79	0xbe8e0dab	-0.27744803
80	0xbd97878c	-0.073989004
81	0xbea7052e	-0.3262114
82	0xbe8b0d71	-0.27158692
83	0xbe70258e	-0.23451826
84	0xbf120613	-0.5704052
85	0xbefbf71f	-0.49211976
86	0xbebd01be	-0.36915392
87	0xbef8e170	-0.48609495
88	0xbf0aa01d	-0.54150563
89	0xbe801448	-0.25015473
90	0xbe016026	-0.12634334
91	0xbec5b3a2	-0.3861361
92	0xbde2068c	-0.11036405
93	0xbee9a625	-0.4563457
94	0xbedf6171	-0.4362903
95	0xbebdf3ea	-0.37100154
96	0xbe9b5bc2	-0.30343443
97	0xbf04c1a8	-0.51857996
98	0xbe482e37	-0.1954888
99	0xbdac6497	-0.084176235
100	0xbda0f113	-0.07858481
101	0x3d359b55	0.04433759
102	0xbe1b284b	-0.1515209
103	0xbe851eaf	-0.25999972
104	0xbd201fcd	-0.039092828
105	0xbd822a94	-0.063557774
106	0xbda5bc22	-0.08092524
107	0x3cb7dbd6	0.022443693
108	0x3e416d15	0.18889268
109	0x3dc82987	0.09773546
110	0x3e742059	0.23840465
111	0x3ddab98b	0.10679921
112	0xbe3778c7	-0.17917167
113	0xbea309f4	-0.3184353
114	0xbea3a92d	-0.31965008
115	0xbebb36c4	-0.3656522
116	0xbebd28e2	-0.36945254
117	0xbd3db06e	-0.046310835
118	0xbe8e9caa	-0.278539
119	0xbd008d40	-0.031384706
120	0xbe76a81d	-0.24087568
121	0xbea8dfe2	-0.3298331
122	0xbe8592c4	-0.26088536
123	0xbebd8508	-0.37015557
124	0xbed04cdb	-0.40683636
125	0xbed14f32	-0.40880734
126	0xbe3c0710	-0.18362069
127	0xbe4a6bf6	-0.19767746
128	0xbe3164f2	-0.17323664
129	0xbe024dab	-0.1272494
130	0xbeb87e5a	-0.360339
131	0xbe8edd5f	-0.27903268
132	0xbeadf71e	-0.33977598
133	0xbea7a0a3	-0.32739744
134	0xbec30e1b	-0.380967
135	0xbe3e44db	-0.18580954
136	0xbea512ef	-0.32241008
137	0xbeb3f07c	-0.35144413
138	0xbe915f99	-0.28393248
139	0xbdebb363	-0.11508825
140	0xbe5ad877	-0.21371637
141	0x3dc4c3b4	0.0960764
142	0x3e87130f	0.26381728
143	0xbe24c840	-0.16092014
144	0xbe97ff5b	-0.29687008
145	0xbe8a2ea6	-0.26988715
146	0xbe757b01	-0.23972704
147	0xbe6f321d	-0.2335896
148	0xbe28b13f	-0.16473864
149	0xbe031dd9	-0.12804355
150	0x3d1424f8	0.03616807
151	0x3e3b7b21	0.18308689
152	0xbe342bcf	-0.17594837
153	0xbed127d8	-0.4085071
154	0xbef3ffdc	-0.47656143
155	0xbec50b37	-0.3848512
156	0xbebf6985	-0.37385193
157	0xbef52dee	-0.47886604
158	0xbeac9ec0	-0.33714867
159	0xbc3d0f8e	-0.011539353
160	0x3b8d65ae	0.0043150997
161	0xbecf38ce	-0.40473026
162	0x3eb51ae2	0.35372072
163	0x3ecc1456	0.39859265
164	0x3e9273a2	0.28603846
165	0x3edd9486	0.43277377
166	0x3ebb3115	0.36560884
167	0x3e560215	0.20899232
168	0x3ec95741	0.39324382
169	0x3ed7c735	0.4214417
170	0x3ee38f5a	0.44445306
171	0x3ebef1ee	0.37293953
172	0x3edd155c	0.43180358
173	0x3ed7d212	0.42152458
174	0x3e99b500	0.30020905
175	0x3ea68f2d	0.3253111
176	0x3ee79115	0.45227876
177	0x3ebbe440	0.36697578
178	0x3eba64a8	0.3640492
179	0x3e9e3559	0.30900076
180	0x3eb429d1	0.35188153
181	0x3e230df5	0.15923293
182	0x3dfc04be	0.12305592
183	0x3e96b4a5	0.29434696
184	0x3d96f4a2	0.07370879
185	0x3e767b82	0.24070552
186	0x3eb45422	0.35220438
187	0x3e54d802	0.20785525
188	0x3e65a54f	0.22426341
189	0x3eaca706	0.3372118
190	0x3ec94875	0.39313093
191	0x3ea3b6b2	0.31975323
192	0x3e30eec6	0.17278585
193	0x3df8b891	0.12144578
194	0x3e8b27f1	0.2717891
195	0x3ea14632	0.31498867
196	0x3e517eb5	0.20458491
197	0x3ec218d9	0.37909582
198	0x3e6bb803	0.23019414
199	0x3e818a54	0.25300848
200	0x3ebf4b5a	0.37362176
201	0x3e7cc588	0.24684727
202	0x3e48238f	0.19544815
203	0x3e901d95	0.2814757
204	0x3eba509d	0.36389628
205	0x3ee5b276	0.44862717
206	0x3e7f37cf	0.24923633
207	0x3e1c507e	0.1526508
208	0x3e79085a	0.24319592
209	0x3e5aa152	0.21350601
210	0xbd97fdff	-0.07421493
211	0x3d23525b	0.039873462
212	0x3dd92647	0.10603004
213	0x3ce304f1	0.027712317
214	0x3e914978	0.28376365
215	0x3eaea7bb	0.34112343
216	0x3eb0e83d	0.34552184
217	0x3e5cef71	0.21575715
218	0x3e9bb731	0.304132
219	0x3e14f105	0.14545067
220	0x3e6e6925	0.23282297
221	0x3eb1e73b	0.34746727
222	0x3e96b293	0.29433116
223	0x3e7b0a99	0.24515761
224	0x3e4f8cd9	0.20268573
225	0x3eb74538	0.35794997
226	0x3ebf679a	0.3738373
227	0x3ecf87df	0.4053335
228	0x3ea33f36	0.31884164
229	0x3dd970c7	0.10617214
230	0x3eb33ab6	0.3500573
231	0x3e3c5919	0.18393363
232	0x3d28fe16	0.04125794
233	0x3e890060	0.267581
234	0x3ebd93eb	0.37026915
235	0x3ee63be1	0.4496756
236	0x3ed57d3d	0.41697112
237	0x3e73ac80	0.23796272
238	0xbc4f7127	-0.012661255
239	0x3ed4003c	0.4140643
240	0xb86ecdba	-5.693522e-05
241	0xbd9cae25	-0.07650403
242	0x3ea07285	0.3133737
243	0x3d2ced07	0.042218234
244	0xbdc10c6b	-0.09426197
245	0x3d40411b	0.04693709
246	0x3e31c412	0.17359951
247	0x3ea4753e	0.321207
248	0x3ed2f575	0.41202894
249	0x3e94dc0d	0.29074135
250	0x3f05e8c2	0.52308285
251	0x3ef5e969	0.4802964
252	0x3ee39df0	0.44456434
253	0x3d0d9bf7	0.034572568
254	0x3e53615d	0.2064261
255	0x3e818cd6	0.25302762

encoder.encoder.cnnblock1.cnnlayer1.cnn_layer.0.bias f4 [32]
0	0x3e0f62a9	0.1400248
1	0xbdc860bc	-0.097840756
2	0xbdaa25c8	-0.083079875
3	0x3d5dd3a5	0.054156918
4	0xbb7ae187	-0.0038281397
5	0x3dc0ccec	0.09414086
6	0xbe5a5579	-0.21321668
7	0xbd551de1	-0.052030448
8	0xbe203734	-0.15646058
9	0x3e20dc3b	0.15709011
10	0x3e667e3c	0.22509092
11	0x3e1037d6	0.140838
12	0xbc8a9743	-0.01691783
13	0x3e1de101	0.15417863
14	0x3de0f5ce	0.109843835
15	0x3d4822f4	0.04886146
16	0x3ce457c5	0.027873883
17	0xbdd31af4	-0.10307875
18	0xbe450469	-0.19239964
19	0x3dd7ec6f	0.10543143
20	0x3d453b20	0.04815209
21	0xbe3b3b13	-0.18284254
22	0xbe24dfd2	-0.16101006
23	0x3e0d338d	0.13789196
24	0xbe669fa2	-0.22521833
25	0x3cf8d3f6	0.030374508
26	0x3d1fd787	0.039023902
27	0xbe5f346b	-0.2179734
28	0xbd9a982d	-0.075485565
29	0xbe8a0fac	-0.26965082
30	0x3c802be1	0.015645923
31	0xbd8e5937	-0.0695061

encoder.encoder.cnnblock1.cnnlayer1.cnn_layer.1.weight f4 [32]
0	0x3f8eee69	1.1166507
1	0x3fa1defe	1.2646177
2	0x3f933d28	1.1503038
3	0x3fb1faa4	1.3904614
4	0x3f66c37a	0.90142024
5	0x3f6a721e	0.9158038
6	0x3f424ccc	0.7589843
7	0x3eed3b78	0.46334434
8	0x3f11f6e3	0.57017344
9	0x3f2ab136	0.6667665
10	0x3f4f1e29	0.80905396
11	0x3fb00884	1.3752599
12	0x3f6cf554	0.9256184
13	0x3fb4a9a3	1.4114269
14	0x3fadd075	1.3579241
15	0x3f3f260d	0.74667436
16	0x3fc73079	1.5561668
17	0x3f4a7376	0.7908243
18	0x3f0050b9	0.50123173
19	0x3f70cb81	0.9406052
20	0x3fadf3d2	1.3590033
21	0x3f9a0bcf	1.2034854
22	0x3f9693fb	1.176391
23	0x3f18c31d	0.5967272
24	0x3f9f1ee3	1.2431301
25	0x3f1c8a6e	0.61148727
26	0x3f57df6e	0.843253
27	0x3f90d112	1.1313803
28	0x3f149189	0.5803457
29	0x3fad6a4c	1.3548064
30	0x3f61879a	0.88097537
31	0x3fa8f7ad	1.3200585

encoder.encoder.cnnblock1.cnnlayer1.cnn_layer.1.bias f4 [32]
0	0x3ec38990	0.3819089
1	0x3eeabffe	0.45849603
2	0x3f16e457	0.5894217
3	0x3f0e420d	0.55569535
4	0xbe6ed61f	-0.23323868
5	0xbe5f19d7	-0.21787201
6	0xbeb4749c	-0.35245216
7	0xbf118bf8	-0.568542
8	0xbeedc678	-0.46440482
9	0xbe93b4b3	-0.288488
10	0xbe76c4f6	-0.24098572
11	0x3e8d7ea2	0.27635676
12	0x3ece57a7	0.40301248
13	0x3ea4c6ad	0.32182828
14	0x3e8043f1	0.25051835
15	0xbefb1de6	-0.49046248
16	0x3eb9182d	0.36151257
17	0x3c452431	0.0120325545
18	0x3e65d3f8	0.22444141
19	0xbd795732	-0.06087417
20	0x3eab3a09	0.33442715
21	0x3eff6d55	0.498881
22	0x3f173fea	0.590819
23	0xbcd9cce4	-0.026586957
24	0xbf008d5c	-0.502157
25	0xbeb2e6d7	-0.34941742
26	0xbea7553e	-0.32682222
27	0x3e9bb575	0.30411878
28	0xbec557c5	-0.38543525
29	0x3eed7b34	0.4638306
30	0xbe1413ce	-0.1446068
31	0x3d621c59	0.055202816

encoder.encoder.cnnblock1.cnnlayer1.cnn_layer.1.running_mean f4 [32]
0	0xc4a6eded	-1335.4352
1	0xc491fe7b	-1167.9525
2	0xc4b44035	-1442.0065
3	0xc49cff79	-1255.9835
4	0xc48b3de3	-1113.934
5	0xc483a3c7	-1053.118
6	0x44ca3c68	1617.8877
7	0x4499b65b	1229.6986
8	0x44a09a76	1284.8269
9	0x44851c70	1064.8887
10	0xc461203c	-900.50366
11	0x448a7585	1107.6725
12	0xc4a0baa8	-1285.833
13	0x44b4fe44	1447.9458
14	0x44b41561	1440.6681
15	0x449356f5	1178.7174
16	0x44d3fe0c	1695.939
17	0xc4ae0feb	-1392.4974
18	0x44933127	1177.536
19	0x44907d4d	1155.9156
20	0xc48e5a1a	-1138.8157
21	0xc4a30ea0	-1304.457
22	0xc4a6963c	-1332.6948
23	0xc4de68c6	-1779.2742
24	0xc4ad8a41	-1388.3204
25	0x43d86387	432.77756
26	0x44473bd2	796.9347
27	0xc48a9fb1	-1108.9904
28	0x44c3e5c0	1567.1797
29	0xc475baa1	-982.9161
30	0xc46ed08c	-955.25854
31	0xc49828ad	-1217.2711

encoder.encoder.cnnblock1.cnnlayer1.cnn_layer.1.running_var f4 [32]
0	0x468f65f1	18354.97
1	0x46866d25	17206.572
2	0x46b0c4f8	22626.484
3	0x468ce820	18036.062
4	0x462e15cf	11141.452
5	0x461a2fba	9867.932
6	0x46d2771a	26939.55
7	0x4679d2d6	15988.709
8	0x46838750	16835.656
9	0x4643b80f	12526.015
10	0x4602b767	8365.851
11	0x465f3189	14284.384
12	0x46832123	16784.568
13	0x4690227d	18449.244
14	0x468481b9	16960.861
15	0x466ab6eb	15021.7295
16	0x46dc48d8	28196.422
17	0x4684f5c0	17018.875
18	0x46892fe6	17559.95
19	0x462b7a78	10974.617
20	0x4638cba6	11826.912
21	0x466dad35	15211.302
22	0x46b0a505	22610.51
23	0x46ff6c9e	32694.309
24	0x4689c361	17633.69
25	0x454f6e3c	3318.8896
26	0x45b27983	5711.189
27	0x465bb629	14061.54
28	0x46b14ca0	22694.312
29	0x4647f32e	12796.795
30	0x45fa23ed	8004.4907
31	0x46857033	17080.1

encoder.encoder.cnnblock1.cnnlayer2.cnn_layer.0.weight f4 [32, 32, 3, 3]
0	0xbebdfb09	-0.37105587
1	0xbee356b6	-0.44402093
2	0xbed67232	-0.41884
3	0xbea15b0b	-0.31514773
4	0xbec5938f	-0.3858914
5	0xbed9d535	-0.42545477
6	0xbee2f9d3	-0.44331226
7	0xbee2da93	-0.44307384
8	0xbea7a29e	-0.32741255
9	0xbf06a565	-0.5259612
10	0xbeb27ac7	-0.34859297
11	0xbe8f00d3	-0.27930316
12	0xbe9a66d6	-0.30156583
13	0xbec66650	-0.38749933
14	0xbeccbb62	-0.39986712
15	0xbed73d21	-0.42038825
16	0xbea903b3	-0.33010635
17	0xbeaaea4e	-0.33381885
18	0xbec36bc4	-0.38168156
19	0xbedac988	-0.4273188
20	0xbee51ebd	-0.44750014
21	0xbec24aca	-0.37947685
22	0xbebca70d	-0.368462
23	0xbe8cf2ee	-0.2752909
24	0xbea53fa7	-0.32275125
25	0xbee7e7b0	-0.4529395
26	0xbecbf55c	-0.39835632
27	0xbed45e05	-0.4147798
28	0xbece5db9	-0.4030588
29	0xbecc1960	-0.3986311
30	0xbeaa3e20	-0.33250523
31	0xbefa366e	-0.48869652
32	0xbecf4073	-0.40478858
33	0xbeac49e2	-0.33650118
34	0xbecacd9b	-0.3960999
35	0xbec769d8	-0.3894794
36	0xbeb2c635	-0.34916845
37	0xbe438005	-0.19091804
38	0xbecea130	-0.4035735
39	0xbea7daa0	-0.32783985
40	0xbe9082b0	-0.28224707
41	0xbe8f554c	-0.27994764
42	0xbea644c7	-0.32474348
43	0xbe9cc590	-0.30619478
44	0xbea7c723	-0.32769117
45	0xbdce6f18	-0.10079783
46	0x3be498ca	0.0069762217
47	0xbde75538	-0.11295551
48	0xbdcff973	-0.101550005
49	0xbe2b771c	-0.16744655
50	0xbd79adcd	-0.060956765
51	0xbe1517f7	-0.14559923
52	0xbe2b8760	-0.1675086
53	0xbe1daebe	-0.1539869
54	0xbd22e137	-0.039765563
55	0xbd60d743	-0.05489279
56	0x3d1198ec	0.03554623
57	0xbcace99c	-0.021107487
58	0xbdaae19e	-0.08343814
59	0xbd8f4c14	-0.069969326
60	0xbe0b7470	-0.13618636
61	0xbd74546b	-0.05965082
62	0x3d856076	0.06512539
63	0xbe352308	-0.17689145
64	0xbe3e89cf	-0.18607257
65	0xbd8223d6	-0.063544914
66	0xbb782078	-0.003786115
67	0xbe2ed8a5	-0.17074831
68	0xbde8ce25	-0.11367444
69	0x3d9accf6	0.075586244
70	0xbe0e229f	-0.13880394
71	0xbcdb2096	-0.026748937
72	0xbe2269b7	-0.1586064
73	0xbe471ce7	-0.19444619
74	0x3cd47bc9	0.025937932
75	0xbd4123a5	-0.047153134
76	0xbe195696	-0.14974436
77	0xbe0f620a	-0.14002243
78	0xbc1aec87	-0.009455807
79	0xbcda1760	-0.026622474
80	0xbdb67675	-0.08909313
81	0x3e04d375	0.1297129
82	0x3de02768	0.10945016
83	0x3e02801d	0.12744184
84	0xbee378e3	-0.44428167
85	0xbf05b748	-0.5223279
86	0xbf07e144	-0.53078103
87	0x3ecc03f6	0.39846772
88	0x3ebaedd0	0.36509562
89	0x3e829b75	0.2550923
90	0xbea1f6d4	-0.31633627
91	0xbe9695f3	-0.29411277
92	0xbe017de9	-0.12645687
93	0xbea37f0f	-0.31932876
94	0xbe33fd82	-0.17577174
95	0xbe87c13d	-0.26514617
96	0xbe8ace74	-0.27110636
97	0xbed0c66c	-0.40776384
98	0xbea13dbf	-0.3149242
99	0x3ee20936	0.44147652
100	0x3ee656b9	0.4498804
101	0x3ed0148a	0.4064067
102	0x3e9a9c86	0.30197543
103	0x3ec11383	0.377102
104	0x3ea8d862	0.32977587
105	0x3ebb4269	0.36574104
106	0x3ecd44fb	0.4009169
107	0x3ec1cb94	0.3785063
108	0xbe322584	-0.17397124
109	0xbe9bc4e2	-0.30423647
110	0xbe0a980c	-0.13534564
111	0xbde1155c	-0.10990402
112	0xbed1b516	-0.4095847
113	0xbdaecadd	-0.08534787
114	0xbe1b73af	-0.15180849
115	0xbe475df8	-0.1946944
116	0xbe2f6d22	-0.17131475
117	0x3ed04fb2	0.40685803
118	0x3e9c6d7f	0.3055229
119	0x3ece9cef	0.40354106
120	0x3edaf683	0.427662
121	0x3ee00934	0.4375702
122	0x3ea0dd12	0.31418663
123	0x3ecfa3d6	0.40554684
124	0x3edc6b2b	0.43050513
125	0x3ecb3f66	0.39696807
126	0x3ea4a059	0.32153586
127	0x3ed20d90	0.41025972
128	0x3e2dcdce	0.1697304
129	0x3ed4241a	0.41433793
130	0x3e599b93	0.21250753
131	0x3ec22881	0.37921527
132	0x3eedb41d	0.46426478
133	0x3efd6641	0.49492076
134	0x3ed54048	0.41650605
135	0xbe8537aa	-0.2601903
136	0xbe729320	-0.23688936
137	0xbd12f0d6	-0.03587421
138	0xbe98aee2	-0.29820925
139	0xbe6586b2	-0.22414663
140	0xbdeeaacb	-0.1165367
141	0xbe8548ed	-0.260322
142	0xbe49220f	-0.19641899
143	0xbe3c2013	-0.1837161
144	0x3eb5e572	0.35526615
145	0x3ed9c1cb	0.42530665
146	0x3e929888	0.28631997
147	0x3ea4dbcd	0.32198945
148	0x3ee24a5a	0.4419735
149	0x3ecafced	0.39646092
150	0x3ea15f6d	0.31518117
151	0x3e8100e2	0.25195986
152	0x3ea088b2	0.3135429
153	0xbe561039	-0.20904626
154	0xbe827bfb	-0.25485215
155	0xbe17e20a	-0.14832321
156	0xbeb34da4	-0.35020173
157	0xbec822fc	-0.3908919
158	0xbdefdaa9	-0.11711628
159	0xbe1867ea	-0.1488339
160	0xbe5aafc4	-0.21356112
161	0xbdce202d	-0.10064731
162	0xbc84ed37	-0.016226394
163	0xbdaf4a77	-0.08559125
164	0x3ec61f15	0.3869559
165	0x3c8e04e7	0.017336322
166	0x3e019dad	0.12657805
167	0x3e8f0666	0.2793457
168	0x3ec1af8c	0.37829244
169	0x3ec91741	0.39275554
170	0x3ec1b1ed	0.3783106
171	0x3db792e4	0.08963564
172	0x3e65905a	0.22418347
173	0x3e2a76a4	0.1664682
174	0x3e1799f0	0.14804816
175	0x3d9aa965	0.07551841
176	0x3e35836d	0.17725916
177	0x3e95c6d5	0.2925326
178	0x3e86a09f	0.2629442
179	0x3e570e68	0.2100159
180	0xbef8c6de	-0.48589224
181	0xbead8b99	-0.33895567
182	0xbeea0bf8	-0.45712256
183	0xbee4dd32	-0.4470001
184	0xbeede058	-0.46460223
185	0xbeb1deab	-0.34740195
186	0xbe6a3f47	-0.22875701
187	0xbe81246f	-0.2522311
188	0xbe085a7f	-0.13315772
189	0xbd6bd4d0	-0.057576
190	0xbe4a4763	-0.19753794
191	0xbe5f64bc	-0.21815771
192	0xbe07eb31	-0.13273312
193	0xbe0e55a2	-0.13899854
194	0xbe59021d	-0.21192212
195	0xbe32035b	-0.17384093
196	0xbe5704d6	-0.20997939
197	0xbe21ff90	-0.15820146
198	0xbeb36107	-0.35034963
199	0xbec87955	-0.3915507
200	0xbec621e3	-0.3869773
201	0xbedea4f1	-0.43485215
202	0xbedbbd19	-0.42917708
203	0xbebd586c	-0.36981523
204	0xbee6a0fc	-0.45044696
205	0xbeaba8bd	-0.33527175
206	0xbe8fcdb8	-0.28086638
207	0x3ecbc817	0.39801094
208	0x3eac8d41	0.33701518
209	0x3eaace18	0.33360362
210	0x3ed2c48f	0.41165587
211	0x3ec2dffd	0.38061514
212	0x3e850018	0.25976634
213	0x3e8fa566	0.28055876
214	0x3e7521b3	0.23938636
215	0x3e87ff97	0.26562187
216	0xbc5ef55b	-0.013608302
217	0xbd9ba7bb	-0.076003514
218	0x3c1d98c2	0.00961894
219	0xbe60bff3	-0.21948223
220	0xbe821e0d	-0.25413552
221	0xbea00678	-0.31254935
222	0xbe0c8321	-0.13721897
223	0xb945afd8	-0.00018852891
224	0xbe604987	-0.21903048
225	0xbe011de4	-0.12609059
226	0xbe506cf8	-0.20354068
227	0x3cefdf7c	0.02928137
228	0xbceb0120	-0.02868706
229	0xbdfb0855	-0.122574486
230	0x3e8b179a	0.27166444
231	0xbe0a3280	-0.13495827
232	0xbdb8c9e8	-0.090228856
233	0x3e6da488	0.23207295
234	0xbdb37391	-0.08762277
235	0xbdd6e96d	-0.10493741
236	0x3d6dc5cc	0.058049962
237	0xbe8d20db	-0.2756413
238	0xbdb2cd0d	-0.087305166
239	0x3cf67e83	0.030089622
240	0x3e2c48a4	0.16824585
241	0x3de2a324	0.11066273
242	0x3e4e92a5	0.20173128
243	0xbee686a7	-0.45024607
244	0xbeb2944d	-0.3487877
245	0xbed5498c	-0.41657674
246	0xbeac4a70	-0.3365054
247	0xbf0208e3	-0.5079481
248	0xbea99ff4	-0.33129847
249	0xbea6ed93	-0.3260313
250	0xbeaedf13	-0.34154567
251	0xbe83271e	-0.25615782
252	0xbe27bbd5	-0.16380246
253	0x3ce2955c	0.02765911
254	0xbcdaa8e3	-0.02669186
255	0x3c754ef8	0.014972441

encoder.encoder.cnnblock1.cnnlayer2.cnn_layer.0.bias f4 [32]
0	0x3e755931	0.23959805
1	0x3e7c0886	0.24612626
2	0xbe79ddaa	-0.24400964
3	0x3e857f27	0.26073572
4	0xbe990317	-0.2988517
5	0xbd8ec345	-0.069708385
6	0xbde79cfc	-0.11309239
7	0xbe8a72ef	-0.27040812
8	0x3e6c49e6	0.23075065
9	0x3e91a4e9	0.2844613
10	0x3e8533d9	0.2601612
11	0x3e887d2d	0.26658002
12	0xbd429003	-0.04750062
13	0x3e8a9eac	0.27074182
14	0x3e752bf2	0.23942545
15	0xbe98224c	-0.29713666
16	0xbe667d51	-0.22508742
17	0xbe35e0c9	-0.1776153
18	0xbe4858c1	-0.19565107
19	0x3e87fcf8	0.26560187
20	0x3e4c3878	0.19943416
21	0xbe854b89	-0.2603419
22	0x3e8013e8	0.25015187
23	0x3e841e9f	0.25804612
24	0x3e829fe0	0.255126
25	0xbe111783	-0.14169125
26	0x3e841354	0.25795996
27	0x3e7e0190	0.24805284
28	0x3dca0334	0.09863892
29	0x3e4dd90d	0.2010233
30	0xbe6e2821	-0.23257495
31	0xbe8f85f2	-0.2803188

encoder.encoder.cnnblock1.cnnlayer2.cnn_layer.1.weight f4 [32]
0	0x3f2641aa	0.64943945
1	0x3f2689d0	0.65054035
2	0x3f9693da	1.1763871
3	0x3f69b91f	0.912981
4	0x3f1f574a	0.6224257
5	0x3f82af16	1.0209682
6	0x3fa13d88	1.2596903
7	0x3f9d4190	1.2285633
8	0x3fa87f69	1.3163882
9	0x3fb0a10a	1.3799145
10	0x3f3b41c3	0.7314722
11	0x3f67cd9a	0.905481
12	0x3f6a6e91	0.9157496
13	0x3f2e0d97	0.67989486
14	0x3f80bd75	1.0057818
15	0x3fafd019	1.3735381
16	0x3faf17ab	1.3679098
17	0x3f64058d	0.8907097
18	0x3f3ec9f2	0.74526894
19	0x3f684385	0.90728027
20	0x3f2c8f32	0.67406
21	0x3fb67621	1.42548
22	0x3f3d06ea	0.73838675
23	0x3fd182b5	1.6368014
24	0x3f4b0b95	0.7931455
25	0x3fce115b	1.6099046
26	0x3f499033	0.78735656
27	0x3f2a550a	0.6653601
28	0x3f77917b	0.9670636
29	0x3ef1e5a0	0.47245502
30	0x3f97fed0	1.1874638
31	0x3fa7230c	1.305757

encoder.encoder.cnnblock1.cnnlayer2.cnn_layer.1.bias f4 [32]
0	0xbe284458	-0.16432321
1	0xbebb4fd4	-0.36584342
2	0x3f02bd21	0.5106984
3	0x3e819f95	0.25317064
4	0x3ed30d44	0.41221058
5	0x3eae2781	0.34014514
6	0x3efaa9b9	0.48957613
7	0x3e022dd0	0.12712789
8	0x3d7312c3	0.059344064
9	0x3ed516bf	0.41618916
10	0xbedd9504	-0.43277752
11	0xbde78c6e	-0.11306082
12	0x3d32f82c	0.043693706
13	0xbea6ad61	-0.32554153
14	0x3dc3a757	0.09553402
15	0x3efd9ee9	0.495353
16	0x3ec3d728	0.3825009
17	0xbd1c4cdc	-0.038159236
18	0xbe9d9b20	-0.30782413
19	0x3e0d9913	0.13827924
20	0xbebd425b	-0.36964688
21	0x3eb13a86	0.34614962
22	0x3e9aff55	0.30272928
23	0x3eb41c3e	0.35177797
24	0xbe4eb5c4	-0.20186526
25	0x3ec7246a	0.3889497
26	0xbdbfc708	-0.09364134
27	0xbe846256	-0.25856274
28	0x3d9127d2	0.07087673
29	0xbf072542	-0.52791226
30	0x3ec603bf	0.38674733
31	0x3f007329	0.5017572

encoder.encoder.cnnblock1.cnnlayer2.cnn_layer.1.running_mean f4 [32]
0	0xc0f784d4	-7.7349644
1	0x4181a162	16.2038
2	0x4102a629	8.165566
3	0x412e30a8	10.886879
4	0x4127947a	10.473749
5	0x4158dcb0	13.553879
6	0x3f977624	1.1832929
7	0x40a5a945	5.176913
8	0xc0b146c0	-5.5398865
9	0x40c96e12	6.2946863
10	0x410483bc	8.282162
11	0xc09d4518	-4.9146843
12	0xc1aacd03	-21.350103
13	0xc0e39664	-7.112108
14	0xc18879fb	-17.05956
15	0x40866f40	4.2010803
16	0x3fc160e2	1.5107691
17	0xc1187220	-9.527863
18	0xc14448e2	-12.267794
19	0x41231925	10.193639
20	0xc06d2c22	-3.7058187
21	0x4083c5b2	4.1178827
22	0x41160287	9.375617
23	0x412a2f00	10.636475
24	0xc1742cd1	-15.2609415
25	0x40c483c0	6.141083
26	0xc1acd6cf	-21.604887
27	0x3fb056b8	1.3776464
28	0x40b28138	5.578274
29	0xc1661224	-14.379429
30	0x40d62975	6.6925607
31	0x3e66d6fe	0.2254295

encoder.encoder.cnnblock1.cnnlayer2.cnn_layer.1.running_var f4 [32]
0	0x449f68c4	1275.2739
1	0x44146394	593.5559
2	0x444e6414	825.5637
3	0x4408bf14	546.9856
4	0x447e6b5e	1017.6776
5	0x44796e74	997.7258
6	0x4460ac3d	898.6912
7	0x44898161	1100.0431
8	0x448caa4a	1125.3215
9	0x449d95ce	1260.6814
10	0x449395a5	1180.6764
11	0x428e5a56	71.17644
12	0x4374deaf	244.86986
13	0x42620578	56.50534
14	0x43443b70	196.23218
15	0x44b1a553	1421.1664
16	0x447f0532	1020.0812
17	0x42d31355	105.53776
18	0x4446574e	793.36414
19	0x4495a643	1197.1957
20	0x44315f75	709.4915
21	0x447b3c98	1004.9468
22	0x44683105	928.7659
23	0x441980ae	614.0106
24	0x443ef982	763.89856
25	0x44586040	865.5039
26	0x44d87da9	1731.9269
27	0x4389a67b	275.30063
28	0x445e63f7	889.56195
29	0x4445e945	791.64484
30	0x44988fe9	1220.4972
31	0x445e4f8b	889.24286

encoder.encoder.cnnblock2.cnnlayer1.cnn_layer.0.weight f4 [64, 32, 3, 3]
0	0xbe6e55b8	-0.23274887
1	0xbebfd606	-0.37467974
2	0xbeaf3ede	-0.3422765
3	0xbe93c187	-0.28858587
4	0xbe8fbbbd	-0.2807292
5	0xbe9a744d	-0.30166855
6	0xbeadab93	-0.33919963
7	0xbea7d249	-0.32777622
8	0xbea8e738	-0.32988906
9	0xbea0a18a	-0.31373245
10	0xbe8479f2	-0.25874287
11	0xb9d82829	-0.00041228652
12	0xbdd3a267	-0.1033371
13	0xbe3af7b1	-0.1825855
14	0xbe986233	-0.2976242
15	0xbe19eff9	-0.15032949
16	0xbe3672c2	-0.17817214
17	0xbde05cca	-0.10955198
18	0x3ea1252c	0.31473672
19	0x3ec5d4ec	0.3863901
20	0x3eb38fc2	0.35070616
21	0x3f0348cf	0.5128297
22	0x3e850605	0.25981155
23	0x3edae846	0.42755336
24	0x3edf21d4	0.43580496
25	0x3ef9fd95	0.4882628
26	0x3ee49912	0.44648033
27	0x3ead0219	0.33790663
28	0x3eb89ac9	0.36055592
29	0x3ea1415e	0.31495184
30	0x3ebbbb55	0.3666636
31	0x3ed80882	0.4219399
32	0x3eac7dd3	0.33689746
33	0x3e976a46	0.29573268
34	0x3eb65900	0.35614777
35	0x3ed5f093	0.41785106
36	0xbe6e7916	-0.23288378
37	0xbe863300	-0.26210785
38	0xbe934703	-0.28765115
39	0xbe22929b	-0.15876238
40	0xbe54e98b	-0.20792215
41	0xbe0d7aef	-0.13816427
42	0xbe3fc863	-0.18728785
43	0xbe1f9fc8	-0.15588295
44	0xbde63dc4	-0.112422496
45	0xbdbeea63	-0.093220495
46	0xbe17ace7	-0.14812051
47	0xbe00a591	-0.12563159
48	0xbe5cfedb	-0.21581595
49	0x3da164e3	0.07880571
50	0xbd5b1808	-0.053489715
51	0xbc256e82	-0.010097148
52	0xbd115e54	-0.03549035
53	0xbce3ac31	-0.027792068
54	0xbe1f41a3	-0.15552382
55	0xbdc274d5	-0.0949494
56	0xbe59aa60	-0.21256399
57	0xbde94cdf	-0.11391615
58	0xbd7d0e20	-0.06178105
59	0xbe0e2c44	-0.13884073
60	0xbdc684fb	-0.09693333
61	0xbcbbb014	-0.022911109
62	0xbe54bce7	-0.20775186
63	0x3e829ace	0.25508732
64	0x3ea6314d	0.3245949
65	0x3ecae6fb	0.3962935
66	0x3eca2c26	0.39486808
67	0x3f009b48	0.5023694
68	0x3ed3f6d0	0.4139924
69	0x3f068a60	0.52554893
70	0x3f0c1667	0.54721683
71	0x3edd9eb8	0.43285155
72	0x3e9fd144	0.31214345
73	0x3ebc1634	0.3673569
74	0x3e874550	0.2642007
75	0x3eaeffbe	0.3417949
76	0x3ea29f50	0.3176217
77	0x3ea37e05	0.31932083
78	0x3e72cdb0	0.23711276
79	0x3ecd4825	0.40094104
80	0x3eaa12be	0.33217424
81	0xbe91115f	-0.28333566
82	0xbe0da9c6	-0.13834295
83	0xbe680e57	-0.2266172
84	0xbdb21281	-0.086949356
85	0xbd573417	-0.05253991
86	0xbddff83a	-0.10936017
87	0xbd9181eb	-0.07104858
88	0x3b291050	0.0025797077
89	0xbdddf851	-0.10838378
90	0x3c65b86d	0.014021021
91	0x3e6f405d	0.23364396
92	0x3de57d4c	0.11205539
93	0x3e7126ea	0.23550001
94	0x3e4fc33f	0.20289324
95	0x3e5d128c	0.21589106
96	0x3e896494	0.26834548
97	0x3e4d7b2d	0.20066519
98	0x3e3c5304	0.18391043
99	0x3c920134	0.01782284
100	0xbec732b3	-0.38905868
101	0xbed66459	-0.41873434
102	0x3d996b2d	0.07491145
103	0xbf0d18b8	-0.5511584
104	0xbed591cf	-0.41712806
105	0xbdbdcd05	-0.0926762
106	0xbe94a273	-0.2903019
107	0xbed54264	-0.41652215
108	0xbec05254	-0.3756281
109	0xbe8aa00b	-0.27075228
110	0xbe6193b4	-0.22029
111	0xbeb45bee	-0.35226387
112	0xbe7bb401	-0.24580385
113	0xbe903a99	-0.28169706
114	0xbe900951	-0.28132108
115	0xbea8effc	-0.32995594
116	0xbe730e12	-0.23735836
117	0xbe97eefc	-0.29674518
118	0xbe982b21	-0.29720405
119	0xbec5642c	-0.38552988
120	0xbe8863af	-0.26638553
121	0xbebfa62e	-0.37431473
122	0xbeb7d2bf	-0.35902974
123	0xbecb2d8f	-0.39683196
124	0xbe8b49cd	-0.27204743
125	0xbe950a2f	-0.29109332
126	0xbe4e8a0c	-0.20169848
127	0xbe4d7845	-0.2006541
128	0xbe46d3ed	-0.19416781
129	0xbe988622	-0.29789835
130	0xbe57e590	-0.21083665
131	0xbea937c3	-0.33050355
132	0xbe43498b	-0.19071023
133	0xbe517718	-0.20455587
134	0xbe810f9c	-0.25207222
135	0xbe6e8df4	-0.23296338
136	0xbd6b50c1	-0.05745006
137	0xbdcbddd0	-0.09954417
138	0xbdde07cf	-0.10841333
139	0xbd4ef07a	-0.050522305
140	0xbde4b91e	-0.11168121
141	0xbe1b42ec	-0.15162247
142	0xbdb4fd9b	-0.08837434
143	0xbddeb77e	-0.10874842
144	0x3ea22a95	0.31673113
145	0x3ec7a0e6	0.38989943
146	0x3e832e60	0.2562132
147	0x3ed93c3e	0.42428774
148	0x3ef7389d	0.4828538
149	0x3ed6b429	0.41934326
150	0x3ee1cd07	0.44101736
151	0x3f070259	0.5273796
152	0x3ee34919	0.44391707
153	0xbea583c1	-0.32327083
154	0xbedd756e	-0.43253654
155	0xbebbd011	-0.3668218
156	0xbea8bc6c	-0.32956254
157	0xbf03130c	-0.5120094
158	0xbecebac7	-0.40376875
159	0xbef17fa9	-0.4716771
160	0xbee407e6	-0.44537276
161	0xbeef1107	-0.46692678
162	0xbe971993	-0.295117
163	0xbebcd39b	-0.36880192
164	0xbe9951c3	-0.29945192
165	0xbe282f9b	-0.1642441
166	0xbd58b665	-0.05290832
167	0xbe86ec98	-0.26352382
168	0xbe267d94	-0.16258842
169	0xbe8447b6	-0.2583596
170	0xbe09fd8a	-0.13475624
171	0x3ea94a47	0.33064482
172	0x3ec8ceaf	0.39220187
173	0x3ea3dd38	0.32004714
174	0x3ee7eb2c	0.4529661
175	0x3f00ab1b	0.50261086
176	0x3ee65257	0.44984695
177	0x3ef5c1a6	0.47999305
178	0x3f089776	0.5335611
179	0x3f076d1f	0.5290088
180	0x3e39779f	0.18112038
181	0xbe1a42ba	-0.15064517
182	0xbe7c2c74	-0.24626333
183	0xbe08f049	-0.13372912
184	0xbe907121	-0.2821131
185	0xbebbda2c	-0.3668989
186	0xbe2d2b62	-0.1691108
187	0xbe5179bb	-0.20456593
188	0xbe8613d0	-0.2618699
189	0x3e6d4cb5	0.23173793
190	0x3ea591a5	0.3233768
191	0x3ea55721	0.32293037
192	0x3efd787f	0.49505994
193	0x3f04a0b2	0.518077
194	0x3efec549	0.49759892
195	0x3f08714b	0.5329787
196	0x3ee91103	0.4552079
197	0x3ed0cec3	0.40782747
198	0xbe3be86f	-0.18350385
199	0xbd03821f	-0.032106515
200	0xbe69b08c	-0.22821254
201	0xbe16160c	-0.14656848
202	0xbe109cd3	-0.14122324
203	0xbd987be0	-0.07445502
204	0xbd6ac0d4	-0.0573128
205	0xbdcd059d	-0.10010836
206	0xbc95c0b0	-0.018280357
207	0x3e9b9226	0.3038494
208	0x3edfd798	0.43719172
209	0x3ecff82a	0.40619022
210	0x3ef1ca4e	0.4722466
211	0x3ed2e6f3	0.41191825
212	0x3f039926	0.5140556
213	0x3ee68d95	0.45029894
214	0x3f05d86a	0.52283347
215	0x3eed6e68	0.46373296
216	0x3ec2086f	0.3789706
217	0x3d536b96	0.051616274
218	0xbe9b86a5	-0.30376163
219	0x3e9d5696	0.30730122
220	0x3def6169	0.116885014
221	0xbe94897e	-0.29011148
222	0x3ea3b4af	0.31973788
223	0x3e165667	0.14681397
224	0xbe92a7dd	-0.28643695
225	0x3e9d1a81	0.30684283
226	0x3eb44ddf	0.3521566
227	0x3ec38e50	0.38194513
228	0x3edeb2ee	0.43495888
229	0x3ef15f5b	0.47143063
230	0x3ebfdd32	0.37473446
231	0x3eebb4b6	0.4603631
232	0x3ef72610	0.48271227
233	0x3ef608d0	0.48053598
234	0x3e50f8fc	0.2040748
235	0x3e14bcf5	0.14525206
236	0x3e3e5047	0.18585311
237	0x3e176a1e	0.14786574
238	0x3e761583	0.24031644
239	0x3e4586b2	0.19289663
240	0x3e3e3cd6	0.18577895
241	0x3d9e6685	0.07734398
242	0x3dd978a9	0.10618717
243	0xbe738ff5	-0.23785384
244	0xbe3238bb	-0.17404453
245	0xbe1d09e8	-0.1533581
246	0xbe389112	-0.1802409
247	0xbe514aa8	-0.20438635
248	0xbe9b35ac	-0.30314386
249	0xbeb28f07	-0.34874746
250	0xbeac7bc4	-0.33688176
251	0xbe660e61	-0.22466423
252	0x3ed0de71	0.4079471
253	0x3ed7722f	0.42079303
254	0x3ed0f00d	0.40808144
255	0x3ed266f0	0.4109416

encoder.encoder.cnnblock2.cnnlayer1.cnn_layer.0.bias f4 [64]
0	0xbdbaf63f	-0.09128999
1	0xbe1509bf	-0.14554499
2	0xbcdeaa9f	-0.027180968
3	0x3e5a189d	0.21298452
4	0x3e28d2dc	0.16486686
5	0x3e4fba95	0.20286019
6	0xbe41478a	-0.18874946
7	0xbe4d2d1b	-0.20036738
8	0xbe53a434	-0.20668107
9	0xbe083dad	-0.13304777
10	0x3e7943bf	0.2434225
11	0xbe8f7c6b	-0.2802461
12	0x3e518181	0.20459558
13	0xbe7b3016	-0.24530062
14	0xbe57f62e	-0.21090004
15	0xbe744890	-0.23855805
16	0xbe4f2c91	-0.20231844
17	0xbe616852	-0.22012451
18	0xbe5813b5	-0.21101268
19	0xbe5f476d	-0.2180459
20	0xbe85f029	-0.2615979
21	0xbe797441	-0.24360754
22	0x3e5a293f	0.21304797
23	0x3e5a5ae4	0.21323735
24	0xbe82fb55	-0.25582376
25	0xbe433b80	-0.19065666
26	0x3e719ea6	0.23595676
27	0x3e4f16c1	0.20223524
28	0x3e7ee345	0.24891384
29	0xbe747133	-0.23871307
30	0x3e569225	0.20954187
31	0x3dd29bc9	0.1028362
32	0xbe825ce1	-0.25461486
33	0xbe812101	-0.25220492
34	0x3e33ef09	0.17571653
35	0xbe788ac2	-0.24271682
36	0x3e54dc03	0.20787053
37	0x3e2893ac	0.16462582
38	0x3dd04c95	0.10170857
39	0xbe3aa651	-0.18227507
40	0xbe5cb29c	-0.21552509
41	0xbe7413ea	-0.23835722
42	0x3e7c676d	0.24648829
43	0x3e43c67a	0.19118682
44	0xbe567674	-0.20943624
45	0x3e6c44e5	0.23073156
46	0x3e25ea3e	0.16202638
47	0x3e802b7f	0.25033185
48	0xbe5cbc27	-0.2155615
49	0x3e51bb32	0.20481566
50	0x3e64a038	0.22326744
51	0xbe769b9f	-0.24082802
52	0x3e54e24a	0.20789447
53	0x3e7d5555	0.24739583
54	0xbe7efdfa	-0.24901572
55	0x3e782ff5	0.24237044
56	0x3e178bf5	0.14799483
57	0x3e6ad750	0.22933698
58	0x3e7da246	0.24768934
59	0xbd930426	-0.071785256
60	0x3e34126f	0.17585157
61	0x3e28de6f	0.16491102
62	0xbe49a120	-0.1969037
63	0x3e83d759	0.25750235

encoder.encoder.cnnblock2.cnnlayer1.cnn_layer.1.weight f4 [64]
0	0x3f70aa9c	0.9401033
1	0x3f472cca	0.7780272
2	0x3f432389	0.762261
3	0x3f84748b	1.0348066
4	0x3f4b0abc	0.79313254
5	0x3f8e51b1	1.111868
6	0x3f65a0af	0.8969831
7	0x3f59e4a2	0.8511449
8	0x3f96ae7f	1.1772002
9	0x3f54a0f2	0.83058083
10	0x3fbff957	1.4997967
11	0x3fae9ec3	1.36422
12	0x3fa96f2d	1.3237053
13	0x3f5b5417	0.85675186
14	0x3fab9db1	1.3407499
15	0x3f81b377	1.0132893
16	0x3f82d4d6	1.0221202
17	0x3f9f4e8d	1.2445847
18	0x3f2624b9	0.64899784
19	0x3faa5f86	1.3310401
20	0x3f8edf8f	1.1161975
21	0x3f9e4bd3	1.236689
22	0x3f952c18	1.1654081
23	0x3f8ee3b5	1.1163241
24	0x3fa8c409	1.3184825
25	0x3f50527d	0.8137587
26	0x3f9bcbd4	1.2171578
27	0x3f88721a	1.0659821
28	0x3f49fb6f	0.7889928
29	0x3f96ef0a	1.1791699
30	0x3f1ac0b3	0.60450286
31	0x3f964b26	1.1741683
32	0x3f7eefa4	0.9958441
33	0x3f69e995	0.9137204
34	0x3fa198f4	1.2624803
35	0x3f186620	0.5953083
36	0x3fa4ca78	1.2874289
37	0x3fab0f03	1.3363956
38	0x3facc530	1.3497677
39	0x3f66f3b4	0.9021561
40	0x3fbe233e	1.4854505
41	0x3fb7b1ce	1.4351137
42	0x3f2e8e83	0.68186206
43	0x3f48575a	0.7825829
44	0x3f14a79a	0.5806824
45	0x3f9a0822	1.2033732
46	0x3f95323f	1.1655959
47	0x3f41adaf	0.75655645
48	0x3f66df90	0.9018488
49	0x3f38d721	0.7220326
50	0x3f821105	1.0161444
51	0x3f512f1d	0.81712514
52	0x3f8fddd8	1.1239576
53	0x3f09e202	0.53860486
54	0x3fb82778	1.4387045
55	0x3f8fea6c	1.1243415
56	0x3f934429	1.1505176
57	0x3f32c7e5	0.69836265
58	0x3f983a1c	1.1892734
59	0x3f8a53db	1.0806841
60	0x3f529b5f	0.8226833
61	0x3f56a1bf	0.83840555
62	0x3f941d33	1.1571411
63	0x3f0de7a3	0.55431575

encoder.encoder.cnnblock2.cnnlayer1.cnn_layer.1.bias f4 [64]
0	0x3eb787e0	0.35845852
1	0x3d8e2cd6	0.069421455
2	0x3d2bdeb5	0.041960437
3	0xbdcc008a	-0.0996104
4	0xbe1e9c63	-0.15489344
5	0x3e0eb44a	0.13935962
6	0xbd56369b	-0.05229817
7	0xbdd8089b	-0.10548516
8	0x3e942a63	0.28938589
9	0xbdb5cb2b	-0.08876642
10	0x3ecfa939	0.40558794
11	0x3ec0a46e	0.3762545
12	0x3ee853e2	0.45376498
13	0xbec8317f	-0.39100263
14	0x3eb008b9	0.34381655
15	0x3e3b4cfb	0.18291084
16	0xbe01fce4	-0.12694126
17	0x3f1e689a	0.6187836
18	0xbe9fb945	-0.31196037
19	0x3e83114d	0.25599137
20	0x3f065015	0.52465945
21	0x3e674d87	0.22588168
22	0x3e976431	0.29568627
23	0x3e88985d	0.26678744
24	0x3ef2f3ff	0.4745178
25	0xbe5c0fb0	-0.2149036
26	0x3eeee943	0.4666234
27	0x3ec3828f	0.38185546
28	0xbe6d0416	-0.2314609
29	0x3eb1780e	0.34661907
30	0xbed4a443	-0.41531572
31	0x3ef4f62d	0.47844067
32	0xbd30f2b9	-0.04320023
33	0x3cdeeb1c	0.027211718
34	0x3ef0dbc7	0.47042677
35	0xbdc84b39	-0.097799726
36	0x3f04507c	0.5168531
37	0x3eb0ec0d	0.34555092
38	0x3ea38b09	0.31942013
39	0x3dbf0f0d	0.093290426
40	0x3ed1ce1d	0.40977564
41	0x3f002538	0.5005679
42	0xbeabac67	-0.3352997
43	0xbe6929d8	-0.22769868
44	0x3aa415ca	0.0012518701
45	0x3ebd04ab	0.36917624
46	0x3e9c6ae1	0.30550292
47	0xbe91c93d	-0.28473845
48	0xbd6c798c	-0.057733104
49	0xbe272771	-0.1632364
50	0xbcee0045	-0.029052863
51	0xbe7a930a	-0.24470153
52	0x3e9a70a0	0.3016405
53	0x3f113800	0.56726074
54	0x3ee05f3c	0.43822658
55	0x3ecf1f3e	0.40453523
56	0x3e879c75	0.26486555
57	0xbe2977b7	-0.16549574
58	0xbdbb8eed	-0.0915812
59	0x3e714201	0.23560335
60	0xbe4a4e49	-0.19756426
61	0x3f338ef3	0.7014
62	0x3ef6d1d4	0.4820696
63	0xbed04eb8	-0.40685058

encoder.encoder.cnnblock2.cnnlayer1.cnn_layer.1.running_mean f4 [64]
0	0x411b8736	9.7205105
1	0x418044e0	16.03363
2	0x409141f4	4.539301
3	0xc0ae65dc	-5.449934
4	0xc16e163a	-14.880426
5	0xc197079b	-18.878714
6	0x4172c58d	15.17323
7	0xc103657c	-8.212276
8	0x4113cb6d	9.2371645
9	0x412934b6	10.575369
10	0xc17ca710	-15.790787
11	0xc003dba7	-2.0602815
12	0x4162f0ec	14.183819
13	0xc1491aa8	-12.569008
14	0x414b1fc7	12.695258
15	0x41233e3e	10.202696
16	0x40ca0246	6.3127775
17	0x3fe80d18	1.8128996
18	0x41446f6f	12.277205
19	0xc0114004	-2.2695322
20	0x4185892e	16.691982
21	0xc0ff37af	-7.9755473
22	0x4129cf3b	10.613093
23	0x412b5da3	10.710361
24	0x419a1c1b	19.263723
25	0xc0d104b0	-6.531822
26	0x4188cc48	17.099747
27	0xc135ae60	-11.355072
28	0xc182268e	-16.268826
29	0x4110e90f	9.056899
30	0xc14d1c30	-12.819382
31	0x41504a91	13.018205
32	0xbfb4e575	-1.4132525
33	0xc18fb555	-17.963541
34	0x4189bcfe	17.217281
35	0x410f5db5	8.960378
36	0x416e1bf2	14.881823
37	0xc1599447	-13.598701
38	0x41aa986d	21.324427
39	0xc1abe587	-21.487074
40	0xc197ab18	-18.958542
41	0xc1329724	-11.1619
42	0xc12678e7	-10.404517
43	0x4181d95a	16.231129
44	0xc172eff9	-15.183587
45	0x41480d45	12.50324
46	0x411e5389	9.895394
47	0xc10abea5	-8.671544
48	0xc1038196	-8.219137
49	0x411493dc	9.2860985
50	0xc15d69d9	-13.838342
51	0xc16d9eea	-14.851297
52	0x413fafc2	11.98041
53	0x416085f1	14.032701
54	0xbec41060	-0.38293743
55	0x4159c88e	13.611464
56	0x41733baf	15.202071
57	0x414e963a	12.911676
58	0xc1954e05	-18.663095
59	0x4145f541	12.372376
60	0xc0fc52a8	-7.88509
61	0x418122ea	16.142048
62	0x4189b0ad	17.211267
63	0xc1526eec	-13.152081

encoder.encoder.cnnblock2.cnnlayer1.cnn_layer.1.running_var f4 [64]
0	0x440986ab	550.1042
1	0x4476e442	987.5665
2	0x42976db7	75.71429
3	0x427b2eef	62.795834
4	0x44771b0d	988.42267
5	0x445bc7f8	879.1245
6	0x43a8e740	337.80664
7	0x43caa099	405.25467
8	0x446b006f	940.0068
9	0x43b045ff	352.54684
10	0x43f9f1b7	499.8884
11	0x421235ad	36.552418
12	0x4492fd53	1175.9164
13	0x439258db	292.69418
14	0x4481d292	1038.5803
15	0x4430fe63	707.9748
16	0x41d6d101	26.852053
17	0x424b9a71	50.90082
18	0x4402b082	522.75793
19	0x422ba41e	42.91027
20	0x4472006d	968.00665
21	0x430e6038	142.37585
22	0x4461acb2	902.69836
23	0x4450467a	833.1012
24	0x44a43d3d	1313.9137
25	0x438183b8	259.02905
26	0x44a13dd6	1289.9324
27	0x441a70d2	617.7628
28	0x446c931e	946.2987
29	0x43c79d43	399.2286
30	0x43a1dc57	323.7214
31	0x449583b6	1196.116
32	0x42945213	74.1603
33	0x44971094	1208.5181
34	0x449a5e85	1234.9537
35	0x444d2566	820.58435
36	0x44981fb8	1216.9912
37	0x447fd6a0	1023.3535
38	0x44ace824	1383.2544
39	0x448c715e	1123.5427
40	0x4484aa9b	1061.3314
41	0x430c38fc	140.2226
42	0x445c4b57	881.1772
43	0x4433bce1	718.95123
44	0x444ffe67	831.97504
45	0x446147ae	901.12
46	0x44502b94	832.6809
47	0x4401a68c	518.6023
48	0x43a900f5	338.00748
49	0x437b507f	251.31444
50	0x443b5755	749.36456
51	0x44553019	852.7515
52	0x44810003	1032.0004
53	0x44857fa2	1067.9885
54	0x4257e562	53.974007
55	0x448460c9	1059.0245
56	0x448788ff	1084.2811
57	0x44024846	521.1293
58	0x44624a87	905.1645
59	0x447aaadd	1002.66974
60	0x439341e9	294.51492
61	0x44962bab	1201.3646
62	0x448c6ffc	1123.4995
63	0x430bf327	139.94981

encoder.encoder.cnnblock2.cnnlayer2.cnn_layer.0.weight f4 [64, 64, 3, 3]
0	0x3d5512ea	0.05201999
1	0x3d88995c	0.06669876
2	0x3e570779	0.20998944
3	0x3e7399c5	0.23789127
4	0x3d5fcaef	0.054636892
5	0x3e81e59a	0.25370485
6	0x3e2d1173	0.16901188
7	0xbde29d09	-0.11065108
8	0x3eba787b	0.36420044
9	0x3e8276b8	0.254812
10	0xbe4c8456	-0.19972357
11	0x3eaa46d3	0.3325716
12	0xbe904d1f	-0.2818384
13	0xbe9e5415	-0.30923524
14	0x3ec06587	0.3757746
15	0xbed8c274	-0.42335856
16	0xbe5c0974	-0.21487981
17	0x3d96be79	0.073605485
18	0x3ea01e91	0.3127332
19	0xbe6409cd	-0.22269364
20	0x3eba5641	0.36393932
21	0x3d9c2baf	0.076255195
22	0xbeabac71	-0.3353
23	0x3d1c9f9b	0.03823815
24	0x397dbd3a	0.00024198453
25	0xbebb047d	-0.36526862
26	0xbea632fa	-0.32460767
27	0xbc81f675	-0.01586459
28	0x3d1e787f	0.038689133
29	0xbd36835f	-0.04455888
30	0x3c85fb1e	0.016355094
31	0xbc3adcab	-0.01140515
32	0x3d878980	0.06618023
33	0xbe3ff910	-0.18747354
34	0xbcfdbbaf	-0.030973284
35	0x3acc3f4a	0.0015582826
36	0x3e090480	0.13380623
37	0x3d8a131d	0.06741927
38	0x3e45c0cc	0.19311827
39	0x3e6fbe2c	0.23412389
40	0xbcbb99f5	-0.02290056
41	0x3e33dca7	0.17564641
42	0x3e4c1b87	0.19932376
43	0x3dfa30a2	0.12216307
44	0x3e81a9ac	0.25324762
45	0xbec57409	-0.3856509
46	0xbecd38a3	-0.40082273
47	0xbec80bf0	-0.39071608
48	0xbede8910	-0.43463945
49	0xbefefcba	-0.4980219
50	0xbed3b8da	-0.41351968
51	0xbe255af8	-0.16147983
52	0xbee3bf63	-0.44481954
53	0xbec964f9	-0.3933485
54	0x3e133b91	0.14378192
55	0x3d449c8d	0.04800086
56	0x3de87b31	0.11351622
57	0x3db8cacf	0.09023058
58	0x3b864561	0.004097626
59	0x3e0c9695	0.13729317
60	0x3d38ebd6	0.045146786
61	0x3d8f6825	0.07002286
62	0x3e123c91	0.14280917
63	0x3ed39c55	0.4133021
64	0x3e9c6238	0.30543685
65	0x3eafd645	0.34343162
66	0x3e974f8b	0.29552874
67	0x3e84d032	0.2594009
68	0x3e90bc4f	0.28268668
69	0xbd890100	-0.06689644
70	0xbdeff8f7	-0.11717408
71	0xbdbdd70d	-0.09269533
72	0x3e9d65bd	0.30741683
73	0x3e84ea42	0.25959975
74	0x3eb6cd4e	0.3570351
75	0x3e8a315c	0.26990783
76	0x3ed87332	0.42275387
77	0x3f01bd56	0.5067953
78	0x3ee2666f	0.44218776
79	0x3d8a2658	0.06745595
80	0x3ed26398	0.4109161
81	0x3e0cf128	0.13763869
82	0x3d6bc43e	0.057560198
83	0x3b87ced2	0.004144528
84	0x3d106d3d	0.035260428
85	0xbd92c3ae	-0.07166229
86	0xbd8f5c6d	-0.07000051
87	0xbdcb2447	-0.09919029
88	0xbc9016c8	-0.017588988
89	0xbce7726c	-0.028252803
90	0xbeecc483	-0.46243677
91	0xbe762e79	-0.24041165
92	0xbec9b632	-0.39396816
93	0xbea39b3b	-0.3195437
94	0xbe8bbaea	-0.27291042
95	0xbecc6139	-0.39917925
96	0xbe894bbe	-0.268156
97	0xbe89c25f	-0.26906106
98	0xbe93bdb1	-0.2885566
99	0xbedace9b	-0.42735752
100	0xbec1e391	-0.37868932
101	0xbedbe80f	-0.42950484
102	0xbed8db74	-0.4235493
103	0xbecaa170	-0.39576292
104	0xbec8cc84	-0.39218533
105	0xbebdd1c6	-0.37074107
106	0xbee4bc54	-0.44674933
107	0xbeaaed7b	-0.33384308
108	0x3ea0cea0	0.31407642
109	0x3ebb3bba	0.36569005
110	0x3eba9aa9	0.3644612
111	0x3edb44af	0.4282584
112	0x3eb87bc9	0.3603194
113	0x3ebb8486	0.36624545
114	0x3eb84087	0.3598673
115	0x3eb7d813	0.3590704
116	0x3ee62e28	0.4495709
117	0x3ce360a2	0.027756039
118	0xbebcfaff	-0.36910245
119	0x3e456f50	0.19280744
120	0x3e91b6f0	0.28459883
121	0x3e7f58e7	0.24936257
122	0xbf01b87e	-0.5067214
123	0xbe70135d	-0.23444887
124	0xbe8da5d3	-0.27665576
125	0xbea285bc	-0.31742656
126	0x3e835851	0.25653318
127	0x3eb03e84	0.34422696
128	0x3ec25b6a	0.37960368
129	0x3ebc166c	0.36735857
130	0x3e947938	0.28998733
131	0x3edb939c	0.42886055
132	0x3eac3fb2	0.33642346
133	0x3ec4f3c0	0.38467216
134	0x3ed2156b	0.41031966
135	0x3eb8c18f	0.36085173
136	0x3ed1a30a	0.409447
137	0x3ec9f8aa	0.39447528
138	0x3eb567d0	0.35430765
139	0x3ed71b9d	0.42013255
140	0x3ec4f919	0.38471296
141	0x3ea79aa0	0.32735157
142	0x3ecd45dd	0.40092364
143	0x3eebd845	0.46063438
144	0x3e06ced7	0.1316484
145	0x3e141a32	0.14463118
146	0xbd237a42	-0.039911516
147	0x3d9d736d	0.07688031
148	0x3dab110a	0.08352859
149	0xbcc4191b	-0.023937752
150	0x3e22f215	0.1591266
151	0x3e128ab9	0.14310731
152	0x3cf636e4	0.03005547
153	0xbe48fa94	-0.19626838
154	0xbed2e92b	-0.41193518
155	0xbebd1223	-0.369279
156	0xbee46bcb	-0.4461349
157	0xbeedbb5d	-0.4643201
158	0xbeb2524a	-0.34828407
159	0xbe14e63c	-0.14540952
160	0xbec67bf3	-0.3876644
161	0xbeb363a4	-0.35036957
162	0x3e7a95be	0.24471185
163	0x3ebee4f0	0.3728404
164	0x3ecb8406	0.39749163
165	0x3e2a4f0f	0.16631721
166	0x3e485517	0.19563709
167	0x3ebffe4b	0.37498698
168	0x3cdb6c1b	0.026784947
169	0x3e048a7d	0.12943454
170	0x3e5e8535	0.21730502
171	0xbe3f7efe	-0.18700787
172	0xbe72359f	-0.23653267
173	0x3f19a0a9	0.6001077
174	0xbdfa7a90	-0.12230408
175	0xbdc6f7f7	-0.09715264
176	0x3ecf8c25	0.4053661
177	0xbe36a7f3	-0.17837505
178	0xbe8c9e00	-0.27464294
179	0x3f0a1f71	0.53954226
180	0xbecc49a4	-0.39899933
181	0xbedd63f5	-0.43240324
182	0xbed2aa04	-0.41145337
183	0xbec22e5a	-0.37925988
184	0xbee01b03	-0.43770608
185	0xbed35269	-0.4127381
186	0xbee675af	-0.4501166
187	0xbec4dfd2	-0.3845201
188	0xbeab360f	-0.3343968
189	0xbec33b28	-0.3813107
190	0xbeef4215	-0.46730104
191	0xbed00a51	-0.4063287
192	0xbeeed697	-0.46648094
193	0xbedc9ed9	-0.4308994
194	0xbeb60c76	-0.35556382
195	0xbec5e686	-0.38652438
196	0xbefd71e1	-0.49500945
197	0xbed13789	-0.40862682
198	0x3ed09708	0.40740228
199	0x3ecd54fd	0.40103903
200	0x3ece1f00	0.40258026
201	0x3ebfdb29	0.37471893
202	0x3eaf611f	0.34253785
203	0x3e818954	0.25300086
204	0x3eac7533	0.33683166
205	0x3eae006c	0.33984697
206	0x3e4fd25c	0.2029509
207	0x3ed15df7	0.40892002
208	0x3ebd398f	0.36957976
209	0x3ece5a53	0.40303287
210	0x3eab7794	0.33489668
211	0x3eb0e874	0.34552348
212	0x3e9e086d	0.30865803
213	0x3eaab15a	0.33338434
214	0x3eb75e21	0.35814002
215	0x3ebce3a7	0.36892435
216	0x3e22b1a5	0.15888079
217	0x3d4f3b42	0.050593622
218	0x3db495ff	0.08817672
219	0xbd56f7cd	-0.052482415
220	0x3d16287f	0.036659714
221	0x3ce9168c	0.028453134
222	0xbb28b0fd	-0.002574026
223	0x3dcaebd2	0.099082604
224	0x3d0f9d53	0.035062145
225	0x3eb1400b	0.34619173
226	0x3e839204	0.2569734
227	0xbe6b9fab	-0.23010127
228	0x3da9f8a0	0.082993746
229	0x3e77fa3d	0.24216552
230	0xbe8fc02e	-0.2807631
231	0x3dca33a8	0.09873134
232	0x3bd491b9	0.006487098
233	0xbec0614b	-0.3757423
234	0x3e61b14e	0.22040293
235	0x3ecdd0fd	0.40198508
236	0x3ed4d6cd	0.4157013
237	0x3ea93b0c	0.33052862
238	0x3de07483	0.10959723
239	0x3e0865c8	0.13320076
240	0xbe417256	-0.18891272
241	0xbe8cf6bd	-0.27531996
242	0xbdd454c2	-0.10367729
243	0xbd6b57a5	-0.05745663
244	0xbdd0809c	-0.1018078
245	0xbe30cc1b	-0.1726536
246	0x3b524462	0.0032084216
247	0xbe1f374c	-0.15548438
248	0xbe649659	-0.22322978
249	0xbe09f048	-0.13470566
250	0xbdaf8093	-0.085694455
251	0xbe4aec39	-0.19816674
252	0xbebabef1	-0.36473802
253	0xbe94fc1a	-0.29098588
254	0xbe93d402	-0.28872687
255	0xbe8a1720	-0.26970768

encoder.encoder.cnnblock2.cnnlayer2.cnn_layer.0.bias f4 [64]
0	0xbe42c3e9	-0.19020046
1	0x3e4b8d17	0.1987804
2	0x3dbb1510	0.09134877
3	0xbda5d280	-0.0809679
4	0xbe044253	-0.12915926
5	0xbde8d6a1	-0.11369062
6	0x3b7acaff	0.0038267968
7	0x3e6fb842	0.23410133
8	0x3e499b54	0.19688159
9	0xbe1ad93c	-0.15121931
10	0x3e135025	0.14386041
11	0xbe4a9e84	-0.19787031
12	0xbc0d3115	-0.008617659
13	0x3e5a9c22	0.21348622
14	0xbe3ec5f2	-0.18630198
15	0x3dcb0133	0.09912338
16	0x3e38e311	0.18055369
17	0xbe2c8b56	-0.16850027
18	0x3e49cb80	0.19706535
19	0xbdc3a6fa	-0.095533326
20	0x3e183712	0.14864758
21	0x3e0349f9	0.12821187
22	0x3e15f7c5	0.14645298
23	0x3e5d61e7	0.21619378
24	0xbe521659	-0.20516337
25	0x3e1cbb46	0.15305814
26	0x3e454b4f	0.19267009
27	0x3e45b315	0.19306596
28	0x3e4062cc	0.18787688
29	0x3e07fd57	0.13280235
30	0x3e375221	0.17902423
31	0xbe2cae69	-0.16863407
32	0xbe3bf420	-0.18354845
33	0x3d8b8eac	0.06814322
34	0xbe1213f0	-0.14265418
35	0xbdaf838c	-0.085700125
36	0xbe3c99c7	-0.18418036
37	0xbe529334	-0.20563966
38	0x3e2d77f3	0.16940288
39	0x3dfe9090	0.12429917
40	0x3e611949	0.21982302
41	0x3e436a92	0.19083622
42	0xbe4e8027	-0.20166074
43	0xbe29cc7b	-0.1658191
44	0x3e2beccb	0.16789548
45	0xbda653f7	-0.08121484
46	0x3e17a675	0.14809592
47	0xbe5d112a	-0.21588579
48	0xbe51803f	-0.20459078
49	0xbe5f08dc	-0.21780723
50	0xbe062169	-0.13098682
51	0xbe10090d	-0.14065953
52	0xbe203ecf	-0.1564896
53	0x3e51b3b8	0.20478714
54	0xbe5baff3	-0.21453838
55	0x3e1b0f34	0.15142518
56	0x3e32e258	0.17469156
57	0xbdfc4f92	-0.12319864
58	0x3e3acb47	0.18241607
59	0x3e368773	0.17825107
60	0x3e374c3e	0.17900178
61	0xbd4066c1	-0.046972994
62	0xbcc252a9	-0.023721056
63	0x3e16a11a	0.14709893

encoder.encoder.cnnblock2.cnnlayer2.cnn_layer.1.weight f4 [64]
0	0x3efadb91	0.4899564
1	0x3f174333	0.5908691
2	0x3f5ac697	0.85459274
3	0x3f23f886	0.6405109
4	0x3f96ef29	1.1791736
5	0x3f819352	1.0123084
6	0x3f3ab3de	0.72930706
7	0x3fb22ef6	1.3920581
8	0x3f784053	0.9697315
9	0x3fbeecd9	1.491603
10	0x3fb76d7e	1.4330289
11	0x3faf1fdf	1.3681601
12	0x3f98a24e	1.1924531
13	0x3fbba71a	1.466037
14	0x3f63b624	0.889498
15	0x3fa4943a	1.2857735
16	0x3f8b0bf4	1.0863023
17	0x3f7eb138	0.99489164
18	0x3f97578b	1.1823591
19	0x3fa2b9e1	1.2712976
20	0x3f957852	1.1677344
21	0x3f920e37	1.1410588
22	0x3fa28172	1.2695754
23	0x3f9c3893	1.2204765
24	0x3f56cd61	0.83907133
25	0x3f1efed6	0.621076
26	0x3f0e038f	0.5547418
27	0x3f639344	0.88896585
28	0x3f5bd70d	0.85875016
29	0x3f15a4d7	0.5845465
30	0x3f89b6d1	1.0758916
31	0x3fa2f585	1.2731177
32	0x3f146018	0.5795913
33	0x3f9cd023	1.2251018
34	0x3f988ba8	1.191762
35	0x3f9ed521	1.2408792
36	0x3f6797d1	0.9046603
37	0x3ef6e454	0.48221076
38	0x3fab4efa	1.3383477
39	0x3f3ef7c7	0.7459683
40	0x3f66d21f	0.9016437
41	0x3fa5ea92	1.296221
42	0x3fa0c2e0	1.2559471
43	0x3f518f78	0.8185954
44	0x3f8c17c3	1.0944752
45	0x3f997274	1.1988053
46	0x3f8a484c	1.0803313
47	0x3fc189e7	1.512021
48	0x3f9f19fc	1.2429805
49	0x3fbd21a4	1.4775891
50	0x3f07b7b7	0.530147
51	0x3f4133cc	0.7546966
52	0x3f907aee	1.1287515
53	0x3fa715cb	1.3053526
54	0x3f902229	1.1260425
55	0x3faccb5a	1.3499558
56	0x3f1b6875	0.60706264
57	0x3f045e9a	0.5170685
58	0x3f90d5da	1.1315262
59	0x3f6663a5	0.89995795
60	0x3f99a1ba	1.200248
61	0x3f66c8a2	0.9014989
62	0x3f18f06a	0.5974184
63	0x3f468c78	0.7755809

encoder.encoder.cnnblock2.cnnlayer2.cnn_layer.1.bias f4 [64]
0	0x3ed89c46	0.42306727
1	0xbea3e6ed	-0.3201212
2	0x3f05d9f9	0.52285725
3	0xbc8f8087	-0.017517341
4	0x3f016cb2	0.5055648
5	0xbe535ef1	-0.20641686
6	0xbeb8c661	-0.3608885
7	0x3ebdd94d	0.3707985
8	0x3efdd7eb	0.49578795
9	0x3dddd4b6	0.10831587
10	0x3e4a57a1	0.1975999
11	0x3eeb0cde	0.45908254
12	0xbd1d913a	-0.038468577
13	0x3e8eda44	0.27900898
14	0xbdd68230	-0.1047405
15	0x3ef910e9	0.48645714
16	0x3f0461e8	0.51711893
17	0xbe67b3e6	-0.2262722
18	0x3f0f3317	0.5593733
19	0x3ef812c5	0.4845182
20	0x3e583d44	0.21117121
21	0xbe0db584	-0.13838774
22	0x3f017eab	0.50583905
23	0x3de17901	0.11009408
24	0xbea75b19	-0.3268669
25	0xbeb03b28	-0.34420133
26	0xbea99742	-0.33123213
27	0x3dfa8b40	0.12233591
28	0xbe0c07dc	-0.13674873
29	0xbefbfcee	-0.49216408
30	0x3eef851c	0.46781242
31	0x3e9c2fe1	0.3050528
32	0xbeb8e300	-0.36110687
33	0x3ef69db3	0.4816719
34	0x3e2dff69	0.16991962
35	0x3f08fb3d	0.5350836
36	0xbc6fe0f5	-0.014641036
37	0xbf079928	-0.5296807
38	0x3e5e33de	0.21699473
39	0x3ebf7b16	0.37398595
40	0x3eb96754	0.36211646
41	0x3f0183b6	0.505916
42	0x3e9ecf8b	0.31017718
43	0xbe696f09	-0.22796263
44	0x3f01c866	0.5069641
45	0x3f036073	0.51319045
46	0x3f001b1b	0.5004136
47	0x3ec05664	0.3756591
48	0x3e4ef839	0.20211877
49	0x3ef75502	0.48307043
50	0xbeed522a	-0.4635175
51	0xbe3ddb6b	-0.18540733
52	0x3ef55a72	0.47920567
53	0x3f0aae2a	0.54172003
54	0x3e8c45e1	0.27397063
55	0x3ea00fd6	0.31262082
56	0xbe3fd9b2	-0.18735388
57	0xbee35494	-0.44400465
58	0x3e959d5c	0.29221618
59	0xbdd7caaa	-0.10536702
60	0x3f359e15	0.7094434
61	0x3dde5b23	0.10857227
62	0xbecd0e9b	-0.40050206
63	0xbe9e49c6	-0.3091566

encoder.encoder.cnnblock2.cnnlayer2.cnn_layer.1.running_mean f4 [64]
0	0xc0105a64	-2.255517
1	0xc1b496da	-22.573658
2	0x40b02a92	5.5051966
3	0x3de11ca8	0.10991794
4	0x40967276	4.7014723
5	0x418199bb	16.200064
6	0x41b2b1bd	22.336786
7	0x414a7636	12.65386
8	0x40c6c605	6.2116723
9	0xc00f8680	-2.2425842
10	0xc1382261	-11.508393
11	0x41055432	8.3330555
12	0x4143e754	12.243977
13	0xc11618ea	-9.381083
14	0xc04b5cbd	-3.1775353
15	0x40792fee	3.8935504
16	0x4143ecf7	12.245353
17	0x41f85c0b	31.044943
18	0x40d55a3a	6.667264
19	0xbf1ef010	-0.62085056
20	0x4071aa80	3.7760315
21	0xbf69486c	-0.9112613
22	0x40c1daed	6.0579743
23	0x41b25a9f	22.294249
24	0x41b8b7f8	23.089828
25	0xc193a7e9	-18.456987
26	0xc19aec7b	-19.365469
27	0xc1828898	-16.316696
28	0xc1a0b737	-20.08946
29	0xc19255c4	-18.291878
30	0xc0161f01	-2.3456423
31	0xc19e519e	-19.789852
32	0xc19d48a6	-19.660473
33	0x40aca43c	5.395048
34	0xc1b94804	-23.160164
35	0x40f75dd3	7.730203
36	0xc023f9e2	-2.5621266
37	0xc19a085a	-19.254078
38	0xc0f761e3	-7.730699
39	0x414a27ab	12.634685
40	0x4115d880	9.365356
41	0xc0f03eb6	-7.507655
42	0xc17046eb	-15.017314
43	0x4124b41d	10.293973
44	0x410a7121	8.652619
45	0x40f1f4fc	7.5611553
46	0x3e837821	0.2567759
47	0xc14c5569	-12.770852
48	0x400707bd	2.1098473
49	0x3fd3024d	1.6485077
50	0x41c36f9b	24.429495
51	0xc11e11ac	-9.879314
52	0xc0eed042	-7.462922
53	0x4030268f	2.7523534
54	0xc16f46e4	-14.954807
55	0xc0519c42	-3.2751622
56	0xc198eccb	-19.115622
57	0xc1769a8c	-15.412731
58	0x40d93cdd	6.7886796
59	0xc1b42c6d	-22.521692
60	0x416c4a35	14.768117
61	0x4078a147	3.8848436
62	0xc1883099	-17.02373
63	0x41840e34	16.506935

encoder.encoder.cnnblock2.cnnlayer2.cnn_layer.1.running_var f4 [64]
0	0x452b1dc9	2737.8616
1	0x4550816c	3336.0889
2	0x45767ad9	3943.678
3	0x44b0aba7	1413.3641
4	0x4580ce51	4121.7896
5	0x442faf47	702.7387
6	0x441081f3	578.03046
7	0x457f49dc	4084.6162
8	0x45969e6d	4819.803
9	0x44457f23	789.9865
10	0x4506a328	2154.1973
11	0x45a2e945	5213.1587
12	0x42f0bc44	120.36771
13	0x44b4ce5c	1446.4487
14	0x450e318d	2275.097
15	0x452e6fe9	2790.9944
16	0x4577c606	3964.3765
17	0x4568c4e2	3724.3052
18	0x455ddc7a	3549.7798
19	0x45722417	3874.2556
20	0x4406beaf	538.97943
21	0x42926024	73.187775
22	0x45922f15	4677.8853
23	0x4506c0d6	2156.0522
24	0x43930941	294.0723
25	0x45800e07	4097.7534
26	0x45447fd4	3143.9893
27	0x4561162a	3601.3853
28	0x44b60e5c	1456.4487
29	0x456cbf7e	3787.9683
30	0x454ecd44	3308.829
31	0x440c7f93	561.99335
32	0x4560f92b	3599.573
33	0x4586a963	4309.1733
34	0x456d6ea9	3798.9163
35	0x458317a7	4194.9565
36	0x4483d6b6	1054.7097
37	0x4586d308	4314.379
38	0x44104b2f	577.17474
39	0x4556a551	3434.3323
40	0x456f1564	3825.337
41	0x44bc25a0	1505.1758
42	0x4520ea41	2574.6409
43	0x447685e7	986.0922
44	0x455cfceb	3535.8074
45	0x4554844e	3400.269
46	0x45536a19	3382.631
47	0x443f4d55	765.2083
48	0x43264183	166.2559
49	0x451cc8fa	2508.561
50	0x44726c5c	969.6931
51	0x44deaf12	1781.471
52	0x450c531b	2245.194
53	0x44d529ab	1705.3021
54	0x45382e33	2946.8875
55	0x4498b3ba	1221.6165
56	0x4551510c	3349.0654
57	0x4507f2c3	2175.1726
58	0x459f67c0	5100.9688
59	0x4452950b	842.3288
60	0x450dc4a6	2268.2905
61	0x442dca4e	695.161
62	0x44f4b964	1957.7935
63	0x44be5fbf	1522.9921
